input/model/ANN_retweet_dan_not_gan.pth (torch, 225575 bytes, 19 tensors)

fc1.weight f4 [256, 44]
000000 7e f8 9c bd 2e a6 94 bd 9c 95 8b 3d 0d f8 c0 bd
       -0.076645836 -0.07258259 0.06815645 -0.09422312
000010 20 f8 b7 3d c2 8d 03 3d 7d a8 12 be d3 38 51 3e
       0.08982873 0.032117613 -0.14322086 0.20431833
000020 1e d8 89 3e 9e 74 2d be 83 c8 27 be 8d c9 02 be
       0.26922697 -0.16939017 -0.16385083 -0.12772198
000030 50 79 1c be 28 9f 13 bc 24 e6 30 ba cf a9 7b bd
       -0.15280652 -0.009010114 -0.0006748161 -0.06144124
000040 88 13 78 3d b1 6b bb bd a3 dd ce 3d ec c8 48 3d
       0.0605655 -0.091514 0.101008676 0.04901974
000050 9e 99 bc be 84 15 78 be 4d 4d 08 be 7a 0f 0c 3b
       -0.3683595 -0.24226958 -0.13310738 0.002137153
000060 0a 6c 92 3c 4e 3f 39 3c d7 aa 4c be c0 68 a8 be
       0.017873783 0.011306597 -0.19987045 -0.32892418
000070 0a e4 88 bc 2d 62 85 bd 37 22 3d be f1 73 a1 be
       -0.0167103 -0.06512866 -0.18470083 -0.3153377
000080 f2 d1 3e be 4e a7 d2 3d 41 be 10 bd 7f b8 c8 3e
       -0.18634775 0.10285817 -0.03533769 0.3920326
000090 9f 57 e1 bd 3b a5 a1 bd 6e 68 60 be ec d9 84 3e
       -0.110030405 -0.07892843 -0.21914837 0.2594751
0000a0 9f 35 34 3d 38 93 a3 be 77 31 9e bc 57 6a 85 be
       0.04399645 -0.31948256 -0.019310696 -0.26057693
0000b0 08 42 9c be 1d c6 c8 3d fe 4e 8e be 27 91 a7 be
       -0.30519128 0.09803412 -0.2779464 -0.3272793
0000c0 a8 85 3f be f4 18 b2 3e cf 44 e4 bd fd 42 e1 3e
       -0.1870333 0.34784663 -0.11145937 0.4399642
0000d0 d5 e0 00 3f 01 b3 13 bf b2 ea a1 be 06 f0 02 bf
       0.50343066 -0.57695013 -0.3162437 -0.51147497
0000e0 04 a4 89 be ca ae 84 be d9 70 bc bc 18 a4 56 bc
       -0.26882946 -0.25914603 -0.023003029 -0.013100646
0000f0 52 70 dd be 30 72 59 3e 15 e6 aa bd d0 50 10 bc
       -0.43249756 0.21234965 -0.08344666 -0.00880833
000100 d3 9b dd be 49 09 98 be 8d 48 34 3e 0c 7e 63 bd
       -0.43282947 -0.29694584 0.17605801 -0.05554013
000110 94 c2 07 3e 7b 4d 41 bd 72 2f 0d be b0 5a 4b bd
       0.1325782 -0.04719303 -0.1378763 -0.049647033
000120 95 b0 72 3c 8c 14 cf 3c b5 3e b8 be 70 4b cb bd
       0.014812608 0.025278352 -0.35985342 -0.09926498
000130 01 15 ea 3d 28 2a 3c 3e 6d 2e 72 be ba 39 7a 3e
       0.114297874 0.18375456 -0.23650523 0.24436083
000140 d5 cd a3 be 9b cc 33 3e cf ce b2 3d 24 81 1a be
       -0.31992975 0.1755852 0.08730852 -0.15088326
000150 32 13 fc 3e df f7 64 bd 84 57 03 be ca f3 78 3b
       0.49233395 -0.05590045 -0.12826353 0.0037987106
000160 47 82 65 be a0 4d 82 3b ce 0d 9c be 62 af 38 be
       -0.22412978 0.003976539 -0.30479282 -0.18035653
000170 84 06 04 3e e1 ab d3 3d 06 5c 49 be 5e 92 5d 3f
       0.1289311 0.10335518 -0.1966401 0.86551464
000180 68 56 ea 3e f6 5b 8e 3e 0a 0d 19 3e 7d f9 85 3d
       0.45769048 0.27804536 0.1494638 0.06541727
000190 f3 b7 8c bc cd 53 e2 3d a3 a5 5d be 87 69 80 bc
       -0.017177558 0.1105114 -0.21645217 -0.01567532
0001a0 5d 02 03 3e 3f b9 74 3d 88 a9 16 3e 31 00 10 3f
       0.1279387 0.059746977 0.14713109 0.5625029
0001b0 93 69 f2 be 2e fb db be 30 e1 d0 3d 8a 3b 33 be
       -0.47346172 -0.42965072 0.10199201 -0.17503181
0001c0 d5 b2 c0 bd b1 74 19 3c 0d 18 29 be f0 80 d1 bd
       -0.094091095 0.0093662 -0.16513081 -0.10229671
0001d0 0b fe 00 3e b3 34 ce be ee 1f 98 be d2 cb 1f 3e
       0.1259691 -0.4027458 -0.2971186 0.15605095
0001e0 5a 63 c8 3c b8 a4 22 3f 2c a4 89 3e 28 d8 c5 3e
       0.024461437 0.6353259 0.26883066 0.38641477
0001f0 e5 77 ab bd 7a 1b c6 3d 48 53 13 3f eb 36 f2 be
       -0.083724774 0.096732095 0.5754895 -0.47307524
000200 64 dc 0e be bd 0e 97 3e f0 51 12 3f 07 0a ce 3d
       -0.1395126 0.29503432 0.57156277 0.10060506
000210 36 ae 99 3c 0a 56 48 3d b1 97 dd 3b ef 31 af 3c
       0.018759828 0.04891018 0.006762468 0.021386115
000220 2b b7 bd bc 0a b9 18 3d 16 18 c6 bd 17 b3 87 3f
       -0.02315863 0.037285842 -0.09672563 1.0601529
000230 99 cc 3c 3f 13 2c a9 be 96 c1 a1 be 1b 6a 96 bd
       0.7374969 -0.33041438 -0.31593007 -0.07344457
000240 2c e8 c6 bd c3 8f 9c 3d 93 1f 2a 3d 17 51 ed 3b
       -0.09712252 0.07644608 0.041534018 0.0072423327
000250 ca 61 2b 3e 11 f3 5c 3d f9 f6 47 3e 2a 9f 2a be
       0.16736522 0.053942744 0.19527806 -0.16662279
000260 8d 97 7e bc ce 7a 0d bf 8a 34 5d bc 8f b0 87 bc
       -0.015539062 -0.5526551 -0.013501296 -0.016563682
000270 b2 40 52 3e 9e 26 eb 3f c6 06 5d bf b9 c3 28 bf
       0.20532492 1.837116 -0.8633846 -0.6592365
000280 b6 59 a3 be 43 97 b5 3e 61 5e 60 3f ed dd 83 be
       -0.31904382 0.35466966 0.8764401 -0.25755253
000290 94 02 1f bf 4d 4d 03 3e 7a cd d6 3f 3f 02 38 3f
       -0.6211331 0.12822457 1.6781456 0.7187843
0002a0 be 3f b1 be d0 7b 10 be d1 12 22 be 9a c0 53 3f
       -0.34618944 -0.1410973 -0.1582749 0.8271576
0002b0 ae 94 fc 3f b8 78 02 c0 ad 14 31 3f e2 ff 7e bf
       1.9732873 -2.038618 0.69172174 -0.99609196
0002c0 c9 43 c6 3c c5 3a 8f 3d 72 1b 1f be 0a 5e 92 3e
       0.024202244 0.06993631 -0.15537813 0.2858737
0002d0 21 6a 84 3f da 56 8c 3e 0e c4 8e 3f 1d 52 8d be
       1.0344888 0.27410012 1.1153581 -0.2760171
0002e0 6b 75 9c 3f 7e c2 97 3e 74 77 25 3f f6 ef 62 3f
       1.2223333 0.29640573 0.64635396 0.886474
0002f0 d9 d9 ac be 16 ed 5a 3c 67 1c ce bd a0 15 03 3d
       -0.33759955 0.01336219 -0.10064011 0.032003045
000300 68 27 a9 bf a3 fe 01 c0 66 ac 01 40 74 cd e7 3b
       -1.3215151 -2.0311668 2.0261474 0.0070740525
000310 b6 ca bb bf ec df 06 3f c6 ff ef bd d8 39 4a 3f
       -1.4671237 0.5268543 -0.11718707 0.7899451
000320 90 b6 84 bb 75 09 b7 bf d5 9f 66 3f 0e ca b1 3d
       -0.0040500835 -1.4299761 0.90087634 0.08681117
000330 fd 45 f0 bd 10 9f 04 c0 8b 60 29 bf 85 4b 4f 3e
       -0.11732099 -2.0722084 -0.6616294 0.20243652
000340 42 52 94 3c 1c e6 d8 3e 99 e9 2e 3f 77 25 e6 3e
       0.01810563 0.4236306 0.6832519 0.44950458
000350 96 be aa be 8e 9a 50 3f 41 f0 7e 3f 0a f6 cf 3f
       -0.3334853 0.8148583 0.9958535 1.624696
000360 5f 38 00 3f d0 ee 38 3f d4 8d 72 be 6c f5 ce be
       0.50086015 0.722394 -0.23686916 -0.40421617
000370 f4 4c a8 bc ee 9f 4c ba 6d 32 d0 bb 15 4c d8 bd
       -0.020544507 -0.0007805814 -0.0063536675 -0.105613865
000380 5a f7 ca bd 56 d7 55 3d f5 93 12 3d 0b 9c 94 bc
       -0.0991046 0.052207313 0.035785634 -0.018140813
000390 01 1f 02 be 80 cf 08 be 16 f9 d6 3d 6d ea 0f 3e
       -0.1270714 -0.13360405 0.10496728 0.1405427
0003a0 07 23 a9 bd 8b ab 09 3d 91 f1 6b bc 7e b6 a4 be
       -0.08258634 0.03361086 -0.014400856 -0.3217048
0003b0 54 ae 54 3e 04 29 a5 3d 95 62 55 bd 53 15 ac be
       0.20769626 0.08064464 -0.05209597 -0.3361002
0003c0 70 77 a9 3e ca df 26 3e 9d e2 2a 3e 44 b6 6f bd
       0.33098936 0.16296306 0.16688009 -0.05852343
0003d0 6f f7 9a bd 04 8e 03 3b 4b d7 99 bd 57 b1 dd 3b
       -0.075667255 0.0020073662 -0.07511767 0.0067655253
0003e0 be e9 d2 bd 3d fd a9 bd 4b c6 b0 b9 91 b0 23 bc
       -0.10298489 -0.083002545 -0.00033717076 -0.009990827
0003f0 5a 30 85 3d 44 8f 92 bc 1c 65 23 be b8 19 fd 3d
       0.06503363 -0.01789058 -0.15956539 0.12358421

fc1.bias f4 [256]
000000 22 9f 08 3e 17 4e c8 3e ed 26 14 bd 00 4f ef bd
       0.13341954 0.39122078 -0.036169935 -0.1168499
000010 62 11 df bd 16 58 c1 3d 04 ed 82 3d cb 05 9b 3d
       -0.108919874 0.09440629 0.063928634 0.07569464
000020 91 01 ea 3b 36 84 90 3d 29 05 96 be 30 fb f9 3b
       0.0071413 0.07056467 -0.29300812 0.007628821
000030 e2 8b 76 3d e7 86 08 bd 65 06 7b be d8 b9 28 3c
       0.060191996 -0.033331778 -0.24514158 0.010298215
000040 db bc 95 be 22 a3 e9 3d 3f c4 f1 bc 87 e9 18 3e
       -0.29245648 0.11408068 -0.029512523 0.14932834
000050 37 75 19 be 97 9e fa bd e9 f4 2d bc 71 78 c4 bb
       -0.1498612 -0.1223728 -0.010617473 -0.005995803
000060 24 3a 12 3d 13 2f c0 bd d3 51 4f bc 2f 52 6e 3d
       0.03569998 -0.09383979 -0.012653786 0.058183845
000070 5b ce eb bd 29 09 c6 bc f1 bf 49 3e af cf 01 be
       -0.115139686 -0.02417429 0.19702126 -0.12676881
000080 56 d8 21 3d 66 83 3a be a5 61 70 bd 9c 6e 71 3d
       0.039512955 -0.18214187 -0.05868687 0.058943376
000090 09 94 5e 3d 1a 74 31 be 8a 10 13 3e b7 12 b9 3d
       0.054340396 -0.17329445 0.14361778 0.09036773
0000a0 9c e7 51 bd 29 59 5a 3e 66 46 98 3d a0 0e ef bc
       -0.05124627 0.21323074 0.074353024 -0.029181778
0000b0 08 6a 69 3d 2b 5d 45 be d5 b8 32 3d 56 62 65 be
       0.056985885 -0.19273822 0.0436333 -0.22400793
0000c0 6b 49 c2 3c 00 50 38 3e 03 32 9c bc ee 85 84 3d
       0.023716649 0.17999268 -0.019066816 0.064708576
0000d0 f6 6f e7 3c 3e b0 42 be a0 9e 8f bd c8 2e ce 3d
       0.02825163 -0.19012544 -0.07012677 0.100675166
0000e0 b3 61 02 be 26 f5 04 3e e0 0c 38 be c1 5e 69 3d
       -0.12732582 0.12984142 -0.17973661 0.05697513
0000f0 08 79 96 3d 54 b9 a1 3d 7b cb fb bd 34 8f fb bd
       0.07347304 0.07896677 -0.1229467 -0.12283173
000100 5c 90 96 bd 38 8d 99 bd b8 0c 81 3d b6 64 45 bd
       -0.07351753 -0.074976385 0.06301254 -0.04819175
000110 85 b2 86 bc 8c 89 24 be 3d 7b 14 3e 6f 61 f6 3d
       -0.016442547 -0.16068095 0.14500137 0.12030303
000120 c8 fe fb 3d 27 d5 00 3d 18 b0 a9 ba df 8a a5 bb
       0.12304455 0.031453278 -0.0012946157 -0.005051955
000130 c4 4f b7 3d 2f 46 4a bd 93 98 43 3c 90 6c cd 3d
       0.08950761 -0.04938334 0.011938232 0.10030472
000140 da be 48 3d 94 b0 3a 3d a2 8e d8 bd e8 8f d8 3d
       0.049010135 0.045578554 -0.1057408 0.10574323
000150 b2 cc ce 3d 91 24 39 3e 3d 26 01 3e b2 16 1b be
       0.10097636 0.18080355 0.12612243 -0.15145376
000160 42 15 aa bd 1b 79 91 3d d5 d1 1d 3e 4f 6b 94 3a
       -0.08304836 0.07103177 0.15412076 0.0011323484
000170 d9 7b da 3d b7 87 4d 3d 7e c6 f0 3d 59 67 cf bd
       0.10668153 0.050178256 0.117566094 -0.10127134
000180 a4 42 6c bd 3a 72 3e bd 95 9f 0d be e6 f5 25 bb
       -0.05768074 -0.046495654 -0.13830407 -0.002532357
000190 ee 84 8b 3e 03 1f f2 3d 50 e7 aa 3d d4 fc 0b 3e
       0.27249855 0.11822321 0.083449006 0.13670665
0001a0 a3 cb 10 bd 75 dd 03 3e 3b 45 3f bc b4 f4 2f 3d
       -0.035350453 0.12877448 -0.011674221 0.042957976
0001b0 f9 2c 16 be 4a 12 f9 bd f3 07 56 3c 26 22 b2 bd
       -0.14665593 -0.121616915 0.013063419 -0.086979195
0001c0 80 3d c2 3c 56 f9 02 3e 2e 5b ff 3b 5b 68 44 be
       0.023710966 0.12790427 0.007792852 -0.19180433
0001d0 de 5c 78 be 5e a5 37 be 6b 2e d7 3c fe e6 74 3c
       -0.24254176 -0.17934176 0.026267251 0.014947651
0001e0 38 5d cf bd 69 8b 2a 3e 80 54 44 bd f9 83 f8 bd
       -0.10125202 0.16654743 -0.047932148 -0.12134547
0001f0 16 ef 15 be 3d 6f b4 bd 8a b9 b8 bd 84 25 0d be
       -0.14641985 -0.088102795 -0.09019764 -0.13783842
000200 66 5d 80 bd 8b a1 0d 3e 06 03 0a 3e c1 93 93 3b
       -0.06267814 0.13831155 0.13477716 0.0045036976
000210 f9 6c 1b 3e 5b d0 bc bd 68 bf 8d bc ac 48 42 bd
       0.15178289 -0.09219428 -0.017303184 -0.047432587
000220 88 d3 b1 3c 42 ac b5 bd bb 6b b9 bd c2 79 e2 3d
       0.021707311 -0.08870746 -0.09053751 0.1105838
000230 92 43 a9 3d 91 3a a8 bc d8 23 69 3d d2 fb aa bd
       0.08264841 -0.02053574 0.05691895 -0.08348812
000240 8a 7e ab bd fb 3c f3 3b 8d c5 01 3e 2a ee cd bd
       -0.08373745 0.007423041 0.12673016 -0.10055192
000250 96 55 c3 3c 73 e1 42 3e 42 0d ee bd df e1 26 be
       0.023844521 0.19031315 -0.116236225 -0.162971
000260 62 82 2a bd 86 8b 58 bd cb 66 ee bd a5 d8 76 bb
       -0.04162825 -0.052867435 -0.116407 -0.0037665751
000270 bc 07 37 be 80 2c 62 be 1a 00 4b 3e c6 97 b2 bd
       -0.17874044 -0.22087288 0.19824257 -0.08720355
000280 f3 42 3c 3c 4f d9 ed bd 11 8c e9 bd e5 48 b5 3d
       0.011490571 -0.11613714 -0.11403669 0.08851794
000290 71 a3 f0 3d 8e c8 9d 3d cf bd 79 3e a1 7b dd 3d
       0.11749924 0.077042684 0.24388812 0.10814596
0002a0 bc e1 22 bc a8 b7 e7 3d 59 b0 55 3b 72 c4 83 3d
       -0.009941515 0.113143265 0.0032606332 0.06433953
0002b0 56 2a a9 3d 5e 44 ef 39 9e 7e 7e 3d 39 5d 59 3d
       0.08260028 0.0004563657 0.06213247 0.05306742
0002c0 33 5b 3c 3e 54 a3 b0 bd 78 30 8e 3b fe 7a 0b be
       0.18394165 -0.08624902 0.004339274 -0.13621137
0002d0 af 3f f7 3c e2 e4 dc bd 7f 81 65 bd 71 0a cd 3c
       0.030181734 -0.107858434 -0.0560317 0.025029393
0002e0 87 6f 47 3e 61 31 09 be 94 b5 3b 3d d5 cf 6c 3d
       0.19476138 -0.13397743 0.045827463 0.05781539
0002f0 11 f3 fe 3d a8 9c a6 bc d7 49 a6 be 83 dd 12 ba
       0.12448705 -0.020338371 -0.3247821 -0.0005602466
000300 c7 34 97 bd b2 cf fc bd 29 c8 77 3e e9 a2 6a 3d
       -0.07383113 -0.12344302 0.24197449 0.05728427
000310 3a 9c c1 bc a5 fd c7 bd 6e de 81 3d f2 21 8b 3d
       -0.023634065 -0.09765176 0.06341253 0.06793584
000320 19 a5 2f bd 70 d3 e0 3d eb 6d 0b 3e 1a ed 03 3e
       -0.04288206 0.109778285 0.13616149 0.12883416
000330 49 12 cd bd c3 c9 f1 bd ff 44 b6 bd d2 c3 f1 bc
       -0.10013253 -0.11806061 -0.08899879 -0.02951232
000340 2c bd 52 3d 3f db c8 3d 69 8e fd bc 8b 8b 35 3e
       0.05144994 0.09807443 -0.030951696 0.17729013
000350 07 e9 18 3e 08 d9 fa bd 67 df a2 3e 6f f9 1a bd
       0.14932643 -0.12248427 0.31811067 -0.037835535
000360 d3 91 fc bc c8 fc a2 bd 7a fe 4b bd 93 73 0e be
       -0.030831253 -0.079583704 -0.049803235 -0.13911276
000370 ba 03 70 bd 14 0a 6f bb e3 8a 27 3d a9 f9 0a bd
       -0.058597304 -0.0036474513 0.040903937 -0.0339295
000380 bb 55 76 bc ea d1 b9 3d a8 54 7b bc 9e 26 0e 3e
       -0.015035088 0.09073241 -0.015340008 0.13881919
000390 6c c5 02 3d 5d 78 90 be 1b 5d df 3d 95 2a 7a bd
       0.031926557 -0.2821683 0.1090643 -0.061075766
0003a0 f8 cd cd bd 8a ba 06 3d 10 70 03 be f0 2d 55 bc
       -0.10049051 0.03289274 -0.12835717 -0.013011441
0003b0 ae 71 af bd f1 97 e3 bc 44 d3 0d be 9e 0d b0 be
       -0.085666046 -0.027782412 -0.13850123 -0.3438539
0003c0 c5 90 20 3e 6f 27 96 be 48 e4 12 be b6 15 07 3e
       0.15680225 -0.2932696 -0.14344895 0.13191876
0003d0 91 10 34 3c 0f d0 fe 3d 89 d7 68 3d 66 e2 46 3e
       0.010990278 0.12442028 0.056846175 0.19422302
0003e0 41 ad 38 3e f0 1b c3 bd 33 b9 37 be a0 4d 3b bd
       0.18034841 -0.09526813 -0.17941742 -0.045728326
0003f0 11 ac 29 be d6 56 81 bc b9 9a 54 be a0 54 f7 3d
       -0.16569544 -0.015788477 -0.20762147 0.12076688

fc2.weight f4 [128, 256]
000000 bd 9c 61 bd a8 96 98 bd 3e bc 0a bd d3 45 a8 3d
       -0.055081118 -0.074506104 -0.033870928 0.08216443
000010 6b f4 1e 3d 46 65 c8 3d 1c b2 dd bc 19 be 2c be
       0.038807314 0.097849414 -0.027062468 -0.16869392
000020 3e 69 81 3d 5e 29 aa bc b3 9c 50 bd b4 fb 67 3d
       0.063189015 -0.020771679 -0.05093069 0.056636527
000030 c4 5c 15 3d 4d df de bd ff 0a 4b bc a2 9f 44 3d
       0.03646542 -0.10882435 -0.012392758 0.0480038
000040 16 1d ef 3a bf 27 8c 3d 40 46 cb 3b 08 28 08 3d
       0.0018242921 0.068435185 0.006203443 0.0332413
000050 5f 49 c7 3c e8 08 dc bd a5 bb 5c bd ab e7 0e bd
       0.024326978 -0.10743886 -0.05388989 -0.034888905
000060 a2 89 5c 3d 86 44 0f bd f8 8d e7 bd 73 11 25 bd
       0.053842194 -0.03497746 -0.11306375 -0.040299844
000070 f7 2e af 3d fb 2f ee bc c6 af 13 3e 17 8b 0f 3b
       0.0855388 -0.029075613 0.14422521 0.0021902972
000080 4a 32 0f bc d0 6b da bd 1f de c3 bc 56 ce 74 3d
       -0.008740017 -0.10665095 -0.023909627 0.05976709
000090 34 02 ba bb 18 b5 fa 3d 04 bf 3a bd 29 56 73 bd
       -0.005676532 0.12241572 -0.045592323 -0.05940834
0000a0 78 b3 bc 3d 46 3b 9c 3d 1a 1a 85 3e c5 74 ff 3a
       0.092139184 0.07628493 0.25996476 0.0019489756
0000b0 8e 5a f0 3c 40 1a 9a bd 51 b8 ca 3d 52 fa f6 3c
       0.029340055 -0.07524538 0.09898437 0.030148659
0000c0 2e 8d 65 3c 11 4a f0 3c a0 70 30 3c f9 05 33 bd
       0.014010711 0.029332193 0.010769039 -0.043706868
0000d0 9f 5f 2c 3c 96 f5 83 bc 9e 8a fc 3c 3e 1c 10 bd
       0.010520845 -0.016108315 0.030827817 -0.035183184
0000e0 6e 3b 53 bc 52 8a ce 3c ff 77 a1 bc 3a 03 74 3d
       -0.012892587 0.02521244 -0.019710539 0.05957339
0000f0 f9 df fc bc c9 24 43 3d 91 d2 38 3d 0b 72 86 3d
       -0.030868517 0.047642503 0.045122687 0.06564721
000100 81 3a 96 3d 68 59 7d 3e 3e 46 e0 3d 8f 7e 49 bc
       0.073353775 0.24741137 0.10950898 -0.01229824
000110 2d 61 58 3d 80 a2 8b bd f2 e6 89 3d 37 71 91 ba
       0.05282705 -0.06818104 0.067335024 -0.0011096363
000120 d1 4e 94 bd 5e 46 0c bc 68 04 e3 bd b3 07 96 3c
       -0.072415955 -0.008561699 -0.11084825 0.018314218
000130 41 e5 23 bd cd 19 f8 bb 6b 19 30 3c c3 87 40 3d
       -0.040013555 -0.007571435 0.010748248 0.047004472
000140 69 90 77 bd 2b 0b 4e 3d 86 85 13 3d 95 bb 45 3d
       -0.060440455 0.05030362 0.03601601 0.048274595
000150 5f 58 0a be a2 ff ce bd 64 97 b2 3c 52 da 65 bc
       -0.13510273 -0.10107352 0.021800704 -0.014029102
000160 fb b8 33 bd d4 1b 8c bd f5 24 a4 bd 91 b1 ca 3c
       -0.043877583 -0.06841245 -0.080148615 0.024742873
000170 e1 77 19 bf a4 0c a8 3d 7e 48 d4 bc 5b 96 1d 3e
       -0.59948546 0.08205536 -0.025913473 0.15389387
000180 44 9e b3 bc 6e 38 9b bd 36 e5 35 3c 24 a7 ae 3c
       -0.021926053 -0.075791225 0.011102011 0.021319933
000190 bf 5f b3 3d 24 8d 07 bd 87 15 52 bd 0c 14 c2 ba
       0.087584965 -0.033093587 -0.05129006 -0.0014807
0001a0 29 4b a9 3d 3b 03 e2 3d 74 f9 8c bc ee f4 31 bd
       0.08266289 0.110357724 -0.017208792 -0.043446474
0001b0 89 45 84 3b 57 a7 61 bc ee c3 f2 3d a7 79 df bd
       0.0040366095 -0.013772807 0.11853777 -0.10911875
0001c0 5a a1 81 bd e0 b8 d1 bc 29 e5 10 bd 7b c8 ff bd
       -0.063296035 -0.02560085 -0.035374794 -0.124894105
0001d0 2a 58 28 bd a4 59 d6 3b 57 43 10 3c dd f2 96 bd
       -0.041099705 0.0065414477 0.008805118 -0.07370541
0001e0 22 85 0c 3d 6e ab 2b be 8e 4b 14 3b 68 9f f8 bd
       0.034306653 -0.16764614 0.0022628042 -0.12139779
0001f0 9e 52 49 3d 73 62 f8 bc 6c 2c 2c bd c1 89 a3 3d
       0.049151056 -0.030320382 -0.04203455 0.07985259
000200 cf 36 af 3c a9 b5 95 3b 08 ac c6 bd 16 7f 73 bd
       0.02138844 0.0045687747 -0.09700781 -0.05944737
000210 7c f7 b3 3c 53 a3 42 bd 51 8d a1 3d 57 2f c9 bc
       0.021968596 -0.04751904 0.07888282 -0.024558706
000220 95 81 94 bc f7 35 34 3d 09 41 b2 bc 37 94 4f 3d
       -0.018128196 0.043996777 -0.021759527 0.050678458
000230 ea 17 26 3e bc 42 dc bc 08 fb 9c bd 53 27 25 3d
       0.1622006 -0.02688729 -0.07665068 0.040320706
000240 e5 84 5d 3d 41 91 e9 3d 73 34 cb bb c7 91 a6 bb
       0.054081816 0.11404658 -0.006201321 -0.005083296
000250 b2 c6 95 bc a8 5b 44 3d 09 6d 28 3d 04 49 54 bc
       -0.018283222 0.047938973 0.04111961 -0.012956861
000260 4b a5 61 bd 6d ca 07 be 63 3f 9d bc f2 12 32 3c
       -0.055089276 -0.13260813 -0.019195264 0.010868775
000270 40 13 64 3d b1 0e fc 3d 57 82 c6 bd 71 32 67 3d
       0.05568242 0.1230749 -0.09692829 0.05644459
000280 6e 04 f1 3c b3 10 10 bd 61 68 a7 bd 7f 11 13 be
       0.029421058 -0.035172176 -0.081742056 -0.14362143
000290 39 b4 cc 3d 55 6d 14 be 48 a2 16 be 29 09 99 be
       0.09995312 -0.14494832 -0.14710343 -0.298898
0002a0 e6 16 d0 3c 49 b8 05 3b 74 ff 24 3d 66 12 2c bc
       0.025401544 0.0020404032 0.04028268 -0.010502433
0002b0 19 c7 95 bb a5 d2 67 3c 4b 81 a4 3d 07 7c 83 bd
       -0.0045708534 0.014149343 0.08032473 -0.06420141
0002c0 c3 e3 dc bc 3e f2 8b bc 56 4e 72 3d a8 99 5e bd
       -0.026964074 -0.017083284 0.05915674 -0.054345757
0002d0 7d 33 83 3d 68 f5 41 bd 04 bd cf bb 9a 58 20 3e
       0.06406305 -0.04735318 -0.006339671 0.15658799
0002e0 8f bd 8c 3b 9a 4c 34 be 76 2d d8 bb 1c 44 ef bc
       0.004295058 -0.17607346 -0.0065972162 -0.029207282
0002f0 2c a3 6d bd a2 f4 43 bd 42 e3 2c 3c a4 e4 26 3d
       -0.05801694 -0.047840722 0.010552229 0.040745392
000300 3a 1d 50 3d d8 ce 2d 3d f6 68 4f bd 41 db 63 bc
       0.050809123 0.04243359 -0.050637208 -0.013907255
000310 2e 7b 3e 3e be 26 5a 3d 94 9d 3c 3e 96 61 96 bc
       0.18601677 0.053259604 0.18419486 -0.01835708
000320 77 59 0c 3d d5 eb da bc e5 90 a4 bb 7c 6f 12 3c
       0.034265008 -0.026723782 -0.0050221556 0.008937713
000330 a4 66 9d 3d ca 21 b6 bc 7c f8 6e 3d 59 54 dd 3c
       0.07685593 -0.022232909 0.058342442 0.02701776
000340 7d 8f b9 3d 93 0d 53 3d 93 6e d3 3c e6 5e 28 3d
       0.09060571 0.051526617 0.025809562 0.041106127
000350 8c 26 25 3c c2 01 1b 3d 00 f7 a6 3b 3e 2a 00 3d
       0.010079991 0.037843473 0.0050953627 0.031290285
000360 41 5d 39 3d ba 84 94 3d 34 e3 a1 be 3d e5 91 bc
       0.04525495 0.07251878 -0.31618655 -0.017809505
000370 a0 00 b2 3d 32 13 47 3d 2b 35 0d 3e 3c be 26 3c
       0.086915255 0.04860229 0.13789813 0.010177191
000380 f3 f5 a1 3d 0a 79 34 bd 7e 2d 99 bc c8 23 d6 bc
       0.07908239 -0.044060744 -0.01869845 -0.026140109
000390 5a 64 e2 bc 40 84 0a 3d 4d 95 f6 3b 9a f0 0c bd
       -0.027635742 0.03381753 0.0075251223 -0.034409143
0003a0 26 7f 1f be bb 30 22 bd b7 bf 1e bb 37 e4 5b 3c
       -0.15575847 -0.039597254 -0.0024223158 0.01342111
0003b0 aa 17 65 3d 5f 2a 96 3c 34 63 0a 3e 38 16 b3 3d
       0.05593077 0.018330751 0.13514405 0.08744472
0003c0 1e 56 59 bd fb 76 13 bd 82 e0 3c 3e c1 0d 00 3c
       -0.053060643 -0.03600214 0.18445018 0.007815779
0003d0 69 3f e4 bc 03 78 6f bd fc b4 b4 bd da 27 19 3e
       -0.027862268 -0.05846406 -0.088235825 0.14956608
0003e0 20 89 94 3d 7f df ad 3d 6f d9 1b be f1 ad ff 3c
       0.07252717 0.08489894 -0.15219663 0.031210871
0003f0 57 7a 7c bc 9a 94 f0 bb 68 7e a4 bd 37 c9 37 be
       -0.0154100275 -0.0073419334 -0.080319226 -0.17947851

fc2.bias f4 [128]
000000 28 71 ca bd 12 0e 7f bd 8a 6c 9d bc 37 bf 83 3d
       -0.09884864 -0.062269278 -0.019216795 0.06432956
000010 88 59 6a 3e c5 45 a7 3d 46 02 81 bd 93 c5 85 3d
       0.22885716 0.08167604 -0.06299262 0.06531825
000020 e6 d8 73 bd 85 7e 2f bd 85 f1 07 be e9 7f c2 bc
       -0.059533022 -0.042845268 -0.13275726 -0.023742633
000030 28 59 d0 3d 04 55 28 bd 7e 56 9f bd e8 0b 12 3e
       0.10173255 -0.041096702 -0.07780169 0.14262354
000040 5d a5 15 be 93 30 37 be 6c 4a 34 3d b0 81 40 bd
       -0.14613862 -0.17889623 0.044016287 -0.04699868
000050 97 b6 e1 3c dd b2 8d 3d b3 67 4c 3d 80 67 9b 3c
       0.027552886 0.06918881 0.049903583 0.018970251
000060 c2 c8 45 3d 1a 38 19 3d a7 7c f1 bc 46 a1 e5 bd
       0.04828716 0.03740702 -0.029478384 -0.11212401
000070 ad 0d e8 bd 7e e0 1f 3e 59 76 8e 3d 35 15 7b bd
       -0.113307334 0.1561298 0.06956167 -0.06129952
000080 fc 70 75 bd 52 cc 34 bc aa 75 dd 3d b9 1a 38 bc
       -0.059922203 -0.011035042 0.10813458 -0.01123684
000090 9f 24 e3 b9 96 54 1b be 7b bb ac 3d ec 7b 6e bd
       -0.000433241 -0.15168986 0.084341966 -0.05822365
0000a0 ed 4b 5f 3d b5 7e a0 bc 52 ce d8 bd 42 47 56 3d
       0.054515768 -0.019591669 -0.105862275 0.05231405
0000b0 cf e9 99 3d 89 f9 02 bd 11 5a 93 bd 7b 46 fb bc
       0.075152986 -0.031976257 -0.07194913 -0.030673256
0000c0 81 6c a6 3d 22 90 3b be 71 48 d1 3d 10 57 01 be
       0.08126164 -0.18316701 0.10218895 -0.12630868
0000d0 58 97 39 bd 69 e8 55 3c 31 14 07 bc 48 7a c3 3b
       -0.04531035 0.013055899 -0.00824456 0.005965505
0000e0 0c 92 91 bb 5d f1 19 bb 5f 94 6f 3d 66 d5 33 3e
       -0.004442459 -0.002348981 0.058491107 0.17561874
0000f0 1d ab 21 3e a8 02 19 bd 19 ca 02 be c2 26 1f be
       0.15787931 -0.03735605 -0.12772407 -0.15542129
000100 d8 f8 86 3d 01 86 7f bc 79 95 b9 bd c9 4f 05 bd
       0.06590432 -0.015595914 -0.09061713 -0.032546792
000110 27 63 29 3d ed a1 02 3d c7 89 10 3e bd 5c 69 3d
       0.041354325 0.031892706 0.14115058 0.056973208
000120 39 29 60 3d 36 da a6 3d bf 92 4e 3d 47 1e 0c 3c
       0.054726813 0.08147089 0.050432917 0.008552141
000130 9f 50 50 3d f9 84 c3 bd 73 d5 c1 bd d0 10 e9 3b
       0.050858136 -0.09546847 -0.0946454 0.0071126
000140 49 6f c4 bd 82 93 3c bc 75 18 9c bd c6 af 04 3b
       -0.095915385 -0.011509778 -0.07621852 0.002024637
000150 f2 2b 3d be 29 45 07 3d 28 82 de bd 07 cb 87 3b
       -0.18473795 0.03302494 -0.10864669 0.004144076
000160 e6 9c 10 3c 52 ef 61 3d cf 38 96 3d 1b 76 34 bd
       0.00882647 0.055159874 0.07335054 -0.044057947
000170 93 d7 96 3d fd 6c 9a 3d 85 7b 5e bd ef 26 41 3d
       0.07365336 0.07540319 -0.054317016 0.04715627
000180 b7 a6 d9 bc 5f c2 c3 3d 5a 34 70 bc 35 57 f9 bd
       -0.026568754 0.09558558 -0.014660919 -0.121748365
000190 93 80 78 bd f3 07 99 3d d7 97 0f 3e 1e 7c e1 3c
       -0.060669493 0.07472219 0.14022766 0.027525004
0001a0 80 d3 dd ba 22 07 87 3c c4 04 0e be b6 3c 39 3d
       -0.0016923994 0.016482893 -0.13869005 0.045223914
0001b0 00 ea 2d bd 33 26 51 bd 71 d6 cc 3c 57 94 30 bd
       -0.042459488 -0.05106182 0.025004597 -0.043110218
0001c0 11 67 b6 3c 0d 57 8b bd 07 f7 a9 3d b8 58 0a be
       0.022265943 -0.06803713 0.0829907 -0.13510406
0001d0 8b 8a e5 bc 71 02 b9 bd 13 3d 69 bb 74 57 76 3d
       -0.028020164 -0.09033669 -0.0035589382 0.060141996
0001e0 8c 8e 5b be 42 3f 82 bd fb 5d 71 bd 62 27 c0 bd
       -0.21441096 -0.06359722 -0.058927517 -0.09382512
0001f0 8e 13 32 3d 5c 97 c5 bd 32 28 c9 3d e4 e7 14 3c
       0.04347568 -0.0964801 0.0982212 0.00908849

fc3.weight f4 [64, 128]
000000 95 02 09 be 21 44 72 3c 10 8b 94 bd e4 67 07 be
       -0.13379891 0.014786751 -0.072530866 -0.13223225
000010 b5 bf 73 3e f2 6a 92 bd eb 8e aa bc 33 b8 02 be
       0.23803599 -0.071493044 -0.020820102 -0.12765579
000020 65 ab b9 bb 5e a5 48 3d d4 2a 59 bd 37 02 12 bd
       -0.005666184 0.04898583 -0.05301936 -0.035646643
000030 2f 13 ac bc f0 8e d3 bb a5 f6 11 bd 53 41 d9 bd
       -0.021005241 -0.0064562485 -0.03563561 -0.10608163
000040 a3 51 1f bc ea 28 49 3c b7 9f 8b bb 5a 95 27 3d
       -0.009724054 0.012277821 -0.004260983 0.040913917
000050 17 a1 c9 3d 46 d2 ff 3c 2f d6 45 3c f3 47 e9 3e
       0.098451786 0.031228196 0.012074991 0.45562705
000060 b3 93 6c bc 9e a2 b6 3d b7 64 b1 3c 76 cb 46 3d
       -0.014439511 0.089177355 0.02165447 0.04853388
000070 58 e4 8e be af ce 58 3e 68 81 87 bc eb d6 0d be
       -0.27908587 0.21172594 -0.016541198 -0.13851516
000080 e9 23 05 3e c7 96 88 bd 84 58 f0 bd 6a 58 45 3e
       0.1300198 -0.066693835 -0.11735633 0.19272009
000090 2e e0 09 3e 9b f7 3d 3d b7 37 1c 3e c8 05 8c bc
       0.13464424 0.046378713 0.15255629 -0.0170926
0000a0 ba c6 14 bd 66 6f 61 3d 60 ae c9 3b b1 6a 71 bd
       -0.036322333 0.05503788 0.0061548203 -0.05893964
0000b0 4d ba cd 3b 99 e9 01 3d 71 b7 cf 3c e3 05 dc 3c
       0.0062783123 0.031716917 0.025356026 0.026858276
0000c0 ef bd 16 bd a8 2e 40 be 62 60 40 be 01 c6 31 3d
       -0.03680223 -0.18767798 -0.18786767 0.043401722
0000d0 08 31 df bc 81 57 da 3c 2c 60 81 bd 1d 4e 4f 3d
       -0.02724506 0.026653053 -0.063171715 0.050611604
0000e0 87 af ef bd 72 53 37 3d 13 6e b3 3d 78 9c da bb
       -0.11703401 0.044757314 0.08761229 -0.0066714846
0000f0 6d cf ad 3c 77 26 56 bd 57 a0 4a 3d b5 72 90 3e
       0.021217072 -0.052282777 0.04946932 0.28212515
000100 71 ac 7d be a5 2e bf be 1d e4 70 bd 2a f0 12 3e
       -0.24772812 -0.37340274 -0.058811296 0.14349428
000110 0e 83 08 be af 2a a4 bc f5 5c de 3d 7d 9b eb 3d
       -0.13331243 -0.020039884 0.10857574 0.115042664
000120 30 2e 42 3c 09 7a 7f bd b8 12 22 bc f0 12 d1 bc
       0.011851832 -0.06237224 -0.009892158 -0.025521725
000130 b8 25 2b 3d a8 61 c6 3e a5 bd 5a 3d ff 87 fd 3d
       0.04178402 0.3874638 0.053403515 0.12379455
000140 84 bc 98 bd 44 0d 70 be 38 13 14 bc c0 81 37 be
       -0.074578315 -0.2344256 -0.009037785 -0.1792059
000150 6f 33 d9 3c 52 08 a3 3b aa 56 71 3d df 71 90 3e
       0.026513783 0.004975357 0.05892054 0.28211877
000160 5d 5a a8 bd 98 26 f4 3c c6 98 ce bd 80 78 1c 3d
       -0.082203604 0.02980356 -0.10087733 0.038200855
000170 8a b1 0c 3e 83 10 22 3e 68 42 25 3e b4 c0 e4 3c
       0.13739601 0.15826611 0.16138613 0.02792392
000180 4b 3b b9 3c 7e bb 85 bb b4 34 82 bd ae 5d 17 bd
       0.02261128 -0.0040811887 -0.063577086 -0.036954574
000190 f1 b9 44 be c9 6a 2c 3e e8 9a 59 3e e4 8e 51 3d
       -0.19211556 0.1683761 0.21250498 0.05116166
0001a0 da 10 34 3c 72 2b 2a bc bb 61 e7 bd f0 a5 87 bd
       0.010990346 -0.010386335 -0.112979375 -0.06623447
0001b0 bd 35 24 be f2 78 00 be 54 0b dc 3d aa 58 1e bb
       -0.16036125 -0.12546137 0.10744348 -0.0024161735
0001c0 3e 73 13 bb 4f ee d3 be 6a 9e 02 3d 6b 91 8c bc
       -0.002249911 -0.41392753 0.031889357 -0.017159184
0001d0 70 10 51 bd f6 55 01 bd 83 1f 8f bd bf 4e e4 bd
       -0.051041067 -0.03157612 -0.06988432 -0.11147832
0001e0 ee c9 9c 3d fb 12 9c bd 2c eb 50 3d 17 a0 68 3a
       0.076557025 -0.07620808 0.051005527 0.0008873953
0001f0 a8 1b 85 3c 7b c5 8c 3d 45 8e b3 3e 86 cf 64 bd
       0.01624854 0.06873604 0.3506948 -0.055861972
000200 ed 38 a4 bd 61 53 76 3d 64 0d 77 bc 78 74 d3 3d
       -0.0801867 0.06013811 -0.015078876 0.10324949
000210 32 bc 05 3d 5a 27 72 bb 69 25 fa ba eb 37 2c bd
       0.03265018 -0.0036949725 -0.0019084635 -0.042045515
000220 f0 fe 82 3c 93 dd 62 bd 26 91 13 3d c9 7d 79 3c
       0.015990704 -0.05538709 0.036027096 0.015227743
000230 94 24 63 3d c2 9a b0 bc 8a 6b 31 3d 15 55 29 bd
       0.055454805 -0.02155817 0.043315448 -0.041340906
000240 1b a0 ec 3b d0 c1 46 3d 28 ce 26 3d 98 3c cc bc
       0.0072212345 0.048524678 0.04072395 -0.024931237
000250 66 20 17 be 43 8a da be af d9 dd 3d 1b 84 89 3d
       -0.14758453 -0.4268361 0.108325355 0.0671465
000260 d9 80 8f 3d b3 a6 b1 bd 65 53 b4 3d 0f 17 ed 3d
       0.070069976 -0.086743735 0.08804969 0.11576664
000270 6a ec f1 3c bd 54 2a 3e 0b fa 77 3d 42 90 06 bc
       0.029531676 0.16633888 0.060541194 -0.008213105
000280 b1 f4 09 be 40 d9 76 3c 09 80 5a bd c2 cf 8f 3e
       -0.13472249 0.015066445 -0.05334476 0.28088194
000290 27 53 08 be 69 30 71 3d 66 4f 2a bd 49 18 5b bd
       -0.1331297 0.05888406 -0.041579627 -0.053489957
0002a0 13 d2 5b 3b 88 9f 81 3d 07 c9 d5 3d a9 9a 18 3e
       0.0033541962 0.06329256 0.104387335 0.14902748
0002b0 f5 81 6f bd c8 2b 9d 3d 91 d7 b8 3c 22 eb 1e 3d
       -0.058473546 0.07674366 0.022563728 0.03879846
0002c0 ae f4 a6 bd b8 0c 50 3e 36 89 cf bd 5c e8 9e 3d
       -0.08152138 0.20317352 -0.10133593 0.07759163
0002d0 e6 6d ac 3d e7 33 81 bd 21 25 d1 3d cf 4b a5 be
       0.08419399 -0.06308728 0.1021216 -0.322844
0002e0 3d 81 4e 3d 05 29 8e 3d 38 12 dc be 95 29 15 bd
       0.05041622 0.069414176 -0.4298265 -0.03641661
0002f0 46 86 83 bd 89 f1 9c bd 5b 77 88 3d 73 b3 77 bd
       -0.06422095 -0.07663257 0.0666339 -0.06047387
000300 aa e9 68 3d f4 79 9e bc e1 f3 23 bd 85 29 9e bc
       0.056863464 -0.019345261 -0.040027503 -0.019306907
000310 30 ac ab bd e4 23 c1 3b a2 8e 83 bc 13 76 ef bc
       -0.083824515 0.005894171 -0.016059224 -0.029231107
000320 21 14 ff 3c d2 b4 bd bc 9e a3 ec be a4 78 1b 3d
       0.031137528 -0.02315751 -0.4621858 0.03795685
000330 3a bb 0f be 3b 7a 37 be ff 32 0f be 5d a5 0c be
       -0.14036265 -0.17917721 -0.13984297 -0.13734956
000340 52 b6 7f 3d 68 01 9c bd 95 84 fc bc 1f a2 e8 3d
       0.062429734 -0.07617456 -0.030824939 0.11359047
000350 93 39 50 bd bb 7d 15 bd 76 2b 1e be 11 1b 26 3c
       -0.050836157 -0.03649686 -0.15446267 0.010138289
000360 88 15 4c 3d ec fe 34 be 79 76 02 3d 4d 40 01 be
       0.04982522 -0.1767537 0.031851266 -0.12622185
000370 a2 79 a6 bd b6 fd 16 bd b0 87 a7 3c d2 b3 91 bd
       -0.08128668 -0.03686305 0.020450443 -0.07114376
000380 e0 19 6e 3d a2 5c 7d 3e fa cd 62 3d ff a9 8c bc
       0.058130145 0.24742368 0.055372216 -0.017170904
000390 1c fd dc 3d a0 09 10 be 2d fe 89 be e7 ae 3a 3d
       0.10790464 -0.14066172 -0.26951733 0.045576956
0003a0 05 30 50 bd f5 e6 82 3d cc ef bc bd 4b 85 63 3d
       -0.050827045 0.06391708 -0.09225425 0.05554704
0003b0 a8 59 94 3c 67 87 a8 3d af e5 08 3d 7d f4 be 3c
       0.018109158 0.08228951 0.03342217 0.02330994
0003c0 0b 11 90 3b 82 9e d3 bc ce 05 7f 3d 4f 1e f5 bb
       0.004396563 -0.025832418 0.062261395 -0.0074804197
0003d0 b1 d0 e1 bd 73 53 4c be ce 72 a1 bc 35 93 93 3d
       -0.11026133 -0.19953708 -0.019708063 0.07205812
0003e0 29 fd 08 3e e2 f4 d1 bd 0d e3 23 bd c4 36 c7 bd
       0.13377823 -0.10251786 -0.040011454 -0.097272426
0003f0 94 ae 98 bd 14 ba 2b be d3 7e 86 3e 29 89 88 bd
       -0.07455173 -0.16770202 0.26268634 -0.06666786

fc3.bias f4 [64]
000000 87 0a b0 3d 52 66 7f bd 7a 99 9e 3d b0 13 60 be
       0.08595758 -0.06235344 0.07744117 -0.2188251
000010 2e 78 9b bd f7 ec 02 b9 dc 36 e8 bc 16 35 af bb
       -0.07591282 -0.00012486042 -0.028346471 -0.0053469045
000020 2d 8d 0d be bd 25 4f bc 2c 23 a2 bc 21 f8 22 be
       -0.13823386 -0.012643275 -0.019792162 -0.15914966
000030 4f 0d fa bc 3d 21 0f be cb 5e c8 bc 21 be 41 bd
       -0.030523924 -0.13977523 -0.024459263 -0.04730046
000040 d3 2d d9 bd f3 d3 17 3d 48 44 20 be f4 90 28 3d
       -0.106044434 0.037067365 -0.15651047 0.041153863
000050 51 05 d3 bd 0c 33 51 3d 91 9a 1b 3d 41 9f ba 3c
       -0.103037484 0.051074073 0.037989203 0.022781016
000060 bd 0a 0f 3d b3 8b 5a be ed 01 45 3d 04 db 61 3d
       0.03492235 -0.21342354 0.04809754 0.05514051
000070 03 ca 06 be 78 69 90 bd 8f 32 aa bd 35 84 10 3d
       -0.13162999 -0.070513666 -0.083104245 0.035282332
000080 b7 29 e5 3b 5d 43 2f 3e 16 94 be bb 50 4e 99 3b
       0.006993498 0.17115541 -0.005815993 0.004678525
000090 d5 16 3e 3d 78 2b 9f bd 83 cd 85 bd 9e 5b 76 3c
       0.046408493 -0.07771963 -0.06533339 0.015036492
0000a0 71 48 20 bd 67 ec c8 3c 06 3a 18 be 3e 5d fd bd
       -0.039131586 0.024526788 -0.14865884 -0.123713
0000b0 dc 1c 81 bc 0c 05 8a bd bc 54 c6 bd c3 35 36 bd
       -0.015760832 -0.06739244 -0.096841305 -0.044484865
0000c0 75 e1 2e be 29 be c1 3d c3 92 4b be c6 ce c9 bd
       -0.17078193 0.09460098 -0.19880204 -0.09853892
0000d0 ed 8c fe 3d b3 f7 06 3d d6 1f 3c 3e 20 13 2b 3d
       0.12429223 0.032951068 0.1837152 0.041766286
0000e0 9c 72 00 3e 9d 06 b4 3d db a6 88 3d a7 cc 0e be
       0.1254372 0.08790324 0.0667245 -0.13945256
0000f0 88 a5 da bd 47 1c 5f bd 66 62 01 3e 0b 2e 12 bd
       -0.10676104 -0.054470327 0.12635192 -0.03568844

fc4.weight f4 [1, 64]
000000 e1 9d af 3e e1 5e 51 be f7 f9 b7 be e0 8b 82 3e
       0.3430014 -0.2044635 -0.35932896 0.2549734
000010 9e 5e 24 be 53 a4 d4 3d 21 b9 ac 3e 20 b4 55 be
       -0.16051719 0.10382905 0.33734992 -0.20869493
000020 3f 15 5f 3e 54 e0 22 be 77 fc c9 be 14 a2 7e 3e
       0.21785448 -0.15905887 -0.39450428 0.24866515
000030 4b ec 61 be 15 6d 39 be a1 b6 75 be 0c 18 79 3e
       -0.22062795 -0.18108018 -0.23995449 0.2432558
000040 31 80 86 be 2e de 6c 3e ee 09 55 be d0 d7 02 be
       -0.26269677 0.2313163 -0.20804569 -0.12777638
000050 1f ef 8d 3e f8 52 88 be 28 ba cb be 9a b9 91 be
       0.27721497 -0.266258 -0.39790463 -0.28461915
000060 31 15 0c be 28 61 a4 3e 13 9e b8 3e 2f 33 4f be
       -0.13679959 0.32105374 0.360581 -0.20234369
000070 77 22 86 3e 8d 16 87 be e4 6d 98 be 8c 17 63 3e
       0.2619817 -0.26384392 -0.2977134 0.22176951
000080 1d 9d 95 be 5a 2f 60 3e 56 bc 1d be 98 1d 84 be
       -0.2922143 0.21893063 -0.15403876 -0.25803828
000090 e4 ef 44 be 25 00 46 bd df 8e 09 be 2e dc 37 3e
       -0.19232136 -0.04833998 -0.13433407 0.17955086
0000a0 f7 73 82 be 02 89 25 be 5f 91 65 be 40 84 38 be
       -0.254791 -0.16165546 -0.22418736 -0.180192
0000b0 79 05 29 be a8 de a5 be 3e 7f 96 3e 66 f7 6a 3e
       -0.16505994 -0.32396436 0.29393953 0.22945938
0000c0 ed 94 91 be e0 a7 57 3e 1d 73 6c 3e 66 ff 52 be
       -0.28433934 0.21060133 0.23090787 -0.2060524
0000d0 66 25 66 be 7b cd bd 3e df c8 26 be 78 04 60 be
       -0.22475204 0.37070832 -0.16287564 -0.21876705
0000e0 63 da 72 3e 22 90 72 3e d3 a4 3c be 5e 32 3f be
       0.2371612 0.23687795 -0.1842225 -0.18671557
0000f0 27 e1 f8 bd 39 25 79 be bf 10 2f be 6d b7 88 3e
       -0.121523194 -0.24330606 -0.17096232 0.26702443

bn1.weight f4 [256]
000000 b4 dc 75 3f 5b 2b 9c 3f 98 31 89 3f d3 cd 93 3f
       0.9603989 1.2200731 1.071826 1.1547188
000010 28 46 2f 3f 6e a2 d7 3f 24 9f 61 3f 92 22 95 3f
       0.68466425 1.6846445 0.88133454 1.1651175
000020 05 73 50 3f a5 1d a6 3f 55 49 9d 3f 4f 24 9f 3f
       0.81425506 1.2977797 1.2288004 1.2432956
000030 cc 06 79 3f 39 66 9b 3f 28 95 a7 3f 41 78 2a 3f
       0.97275996 1.2140571 1.3092394 0.6658974
000040 15 b3 a8 3f d1 63 62 3f 15 91 44 3f 4e 40 a2 3f
       1.3179651 0.8843356 0.7678388 1.2675874
000050 58 bd 2c 3f d4 17 73 3f 77 d1 8a 3f ee 48 36 3f
       0.67476416 0.94958234 1.0845174 0.7120503
000060 b4 22 a1 3f 2e 64 48 3f 21 e5 54 3f 46 fc 39 3f
       1.2588716 0.7827786 0.8316212 0.72650564
000070 8a ef 89 3f 8e 17 3e 3f 6e ed a4 3f 72 70 2f 3f
       1.0776227 0.7425469 1.2884958 0.6853095
000080 b7 10 89 3f cb d5 c2 3f 73 86 9f 3f 7e 39 3b 3f
       1.0708226 1.5221494 1.2462906 0.731346
000090 da bb 72 3f b2 73 99 3f a4 f9 2c 3f bd e4 87 3f
       0.9481789 1.1988432 0.6756842 1.061668
0000a0 85 ef 5a 3f 34 a8 a4 3f 9f 5b e2 3f e6 2e 37 3f
       0.8552173 1.2863832 1.768421 0.71555936
0000b0 46 7a 39 3f 3f aa a8 3f 32 a2 b3 3f d8 4d a8 3f
       0.724522 1.3176955 1.4033873 1.3148756
0000c0 de a9 8c 3f a3 4a a3 3f df af 93 3f b9 fd 2f 3f
       1.0989339 1.2757152 1.1538047 0.68746525
0000d0 b5 9f 79 3f 53 80 a7 3f fa 79 8d 3f b0 11 33 3f
       0.9750932 1.3086036 1.1052849 0.69948864
0000e0 05 d7 d3 3f 1b e6 9e 3f 7a c0 58 3f 41 63 cc 3f
       1.6549994 1.2413973 0.84668696 1.596779
0000f0 42 e3 41 3f 4f b9 a2 3f ec a2 27 3f 5a 15 4b 3f
       0.7573739 1.2712802 0.65482974 0.79329455
000100 59 a4 40 3f 5f b1 cb 3f 1c fa c0 3f 5b 74 87 3f
       0.75250775 1.5913504 1.5076327 1.0582384
000110 94 f9 47 3f dc 9f 81 3f 5b 31 3f 3f 6a 97 92 3f
       0.781152 1.012691 0.74684685 1.1452458
000120 e2 e0 a3 3f 1e a9 8a 3f 10 54 92 3f 9b f2 b4 3f
       1.2803004 1.083286 1.1431904 1.4136537
000130 60 51 10 3f e9 b1 a0 3f 62 ac 8b 3f 1d a9 32 3f
       0.5637417 1.2554294 1.0911982 0.69789296
000140 03 86 59 3f ad ec 1a 3f e7 e8 38 3f 52 55 2b 3f
       0.8497011 0.6051739 0.7223038 0.66927063
000150 64 c0 7f 3f 4c 4d a3 3f db 89 55 3f 50 8d c4 3f
       0.9990294 1.2757964 0.83413476 1.5355625
000160 ba 09 75 3f 8b 86 44 3f c2 24 69 3f 3f af 64 3f
       0.95717967 0.76767796 0.9107171 0.89329904
000170 a2 f8 a6 3f 3d 1c 88 3f e4 a3 9e 3f a1 07 7f 3f
       1.3044627 1.0633618 1.2393765 0.99621016
000180 5d 25 56 3f 2b 9b 7c 3f 97 47 49 3f 3e 6c 46 3f
       0.8365076 0.9867427 0.7862486 0.77508914
000190 d1 05 af 3f 7e 42 2a 3f d1 24 4a 3f 6f d9 92 3f
       1.367365 0.6650771 0.7896243 1.1472605
0001a0 c0 29 71 3f 3b 88 62 3f cb c9 3c 3f f9 2d 5b 3f
       0.9420433 0.8848912 0.7374541 0.85617024
0001b0 02 68 97 3f e9 f5 2e 3f 54 df 86 3f 72 83 fc 3f
       1.1828616 0.6834398 1.0536904 1.9727614
0001c0 bd 2a 84 3f 25 5e a0 3f cf 4f 7b 3f e1 29 6e 3f
       1.0325543 1.2528731 0.98168653 0.9303265
0001d0 e3 74 84 3f 3c f5 84 3f 68 51 25 3f d7 7e 8d 3f
       1.0348171 1.038734 0.6457734 1.1054333
0001e0 2b 0f 3f 3f fd d3 83 3f 69 16 4a 3f 06 48 b1 3f
       0.7463252 1.0299069 0.78940445 1.3850105
0001f0 ee e9 93 3f e2 53 91 3f f6 80 2b 3f 2d 5d b1 3f
       1.1555765 1.1353724 0.66993654 1.385656
000200 ac 47 4b 3f 2f 0c 90 3f c8 3f 9d 3f b4 d6 89 3f
       0.7940624 1.1253718 1.228509 1.0768647
000210 db 66 34 3f 34 4b 29 3f 76 7f 9e 3f 52 e6 8a 3f
       0.70469445 0.66130376 1.2382648 1.0851538
000220 68 cc 9e 3f a3 f8 92 3f e9 48 62 3f ea e4 86 3f
       1.240613 1.1482128 0.883925 1.0538609
000230 6c b2 95 3f 19 3d 71 3f 8d b7 82 3f 6d 7e 61 3f
       1.1695075 0.9423385 1.0212265 0.88083535
000240 95 41 4c 3f bb e1 8d 3f df f4 a2 3f cc c4 31 3f
       0.7978757 1.1084512 1.2730979 0.69440913
000250 44 da 97 3f ab 1b 8f 3f d7 4c b8 3f 6e 90 87 3f
       1.1863484 1.1180319 1.439845 1.0590951
000260 ec 58 51 3f a5 2a 5f 3f 66 47 21 3f 66 ff b6 3f
       0.8177631 0.87174445 0.6299957 1.4296691
000270 9e 9b af 3f 55 8e a1 3f 8a ac 8a 3f 32 38 32 3f
       1.3719366 1.2621561 1.0833905 0.69617
000280 8b d4 4c 3f 2b 47 67 3f 82 c9 8a 3f d8 68 80 3f
       0.80011815 0.9034297 1.0842745 1.0031996
000290 dc 90 ac 3f 59 ad 92 3f db 28 b1 3f 2d a0 a4 3f
       1.3481708 1.1459152 1.3840593 1.2861382
0002a0 5e 6f 40 3f e1 84 a8 3f 92 1e 86 3f 8b d8 85 3f
       0.7516993 1.3165551 1.0478079 1.0456709
0002b0 33 d2 35 3f e3 e8 34 3f 80 63 ba 3f 15 42 95 3f
       0.71023864 0.70667857 1.4561615 1.1660792
0002c0 95 4c 6d 3f 8d 2d 89 3f ae b8 3f 3f a7 c1 2a 3f
       0.9269498 1.0717026 0.74891174 0.6670174
0002d0 b7 b1 6c 3f 29 b9 ba 3f 67 76 8e 3f cd 10 d8 3f
       0.9245867 1.4587756 1.1129884 1.6880127
0002e0 20 3f 50 3f d7 1e b3 3f 99 26 68 3f 0e 7f 91 3f
       0.8134632 1.3993787 0.90683895 1.1366899
0002f0 9a 95 9b 3f 71 39 32 3f 3b c1 9f 3f dd 04 9d 3f
       1.215503 0.696189 1.2480844 1.2267109
000300 69 d6 56 3f 8e f9 9c 3f 8c d4 9a 3f ae 19 28 3f
       0.83920914 1.2263658 1.2096114 0.65664184
000310 4a 33 91 3f a8 03 1e 3f ec 05 a3 3f 9c 4c 23 3f
       1.1343777 0.6172433 1.2736182 0.6378877
000320 bd 88 35 3f 85 30 23 3f fe aa ac 3f 9e 0e a2 3f
       0.7091177 0.6374591 1.3489683 1.2660711
000330 b5 33 83 3f 32 6b ca 3f 7d dc 92 3f 00 57 a5 3f
       1.0250155 1.5813963 1.1473538 1.2917175
000340 07 1e 8f 3f d1 7e 4e 3f c5 f8 b4 3f 8c 75 8b 3f
       1.1181039 0.80662256 1.4138418 1.0895247
000350 04 6b 94 3f e6 c9 3a 3f 0b 9a ab 3f 12 1e 4e 3f
       1.1595159 0.7296432 1.3406385 0.80514634
000360 bd 1c 89 3f bf 2f 8b 3f d6 2d a6 3f 22 19 31 3f
       1.0711895 1.0873946 1.2982738 0.69178975
000370 bc 55 99 3f 87 3f b7 3f 40 bc 81 3f a2 05 86 3f
       1.1979289 1.4316262 1.0135574 1.0470469
000380 cd 61 ab 3f 5d 1b 3d 3f fc dd 30 3f 1d 7f a7 3f
       1.3389221 0.7386988 0.6908872 1.3085667
000390 fd 64 a1 3f 73 43 a6 3f df cf 3b 3f 3e 58 2d 3f
       1.2608944 1.2989334 0.7336406 0.6771277
0003a0 39 65 85 3f 55 ee 31 3f 20 b0 4b 3f ac 47 42 3f
       1.0421516 0.6950429 0.7956562 0.7589061
0003b0 df 73 b7 3f d2 57 3c 3f aa 39 7a 3f 32 e4 9e 3f
       1.4332236 0.73571503 0.9774424 1.241339
0003c0 a9 4c 3c 3f 56 c7 63 3f d9 44 a0 3f 4b b6 67 3f
       0.73554474 0.8897604 1.2521011 0.9051253
0003d0 a7 eb 96 3f 57 f3 8d 3f ff 8b 5f 3f 54 a4 63 3f
       1.1790665 1.1089886 0.8732299 0.8892262
0003e0 54 37 79 3f a4 a5 76 3f 34 a3 85 3f 9c 12 8e 3f
       0.9735005 0.963465 1.0440431 1.1099429
0003f0 5c 2d b2 3f d8 35 84 3f 5d c3 b3 3f 4e 89 8f 3f
       1.3920093 1.0328932 1.4043995 1.1213777

bn1.bias f4 [256]
000000 7f e8 45 bc 74 2b 2f 3d 80 82 eb bc 7e 8f b8 3c
       -0.012079357 0.04276605 -0.02874875 0.02252936
000010 e6 9c 53 bd f9 af 14 bd 92 06 13 be bb c3 71 3d
       -0.051663302 -0.036300633 -0.14357975 0.059024554
000020 84 f1 69 3c 99 8c 81 b9 2a af 62 bc ac 86 ac bc
       0.014278773 -0.0002470955 -0.013835708 -0.02106031
000030 f5 8d ac 3e 6a c2 58 bb b6 e3 79 3d 21 c7 41 bc
       0.33702055 -0.0033074864 0.061008178 -0.011827261
000040 43 5f f7 bc 6e 40 f9 bc 1c 99 ad be aa e0 c7 bc
       -0.030196792 -0.03042623 -0.33905876 -0.02439912
000050 92 bf 78 bd 15 84 b0 3c 82 f5 49 bd 9f 0e 7c bc
       -0.06072957 0.021547357 -0.0493064 -0.015384345
000060 f3 d1 04 bd ff da 90 3c 6b c8 31 3c 0f 00 7a bd
       -0.032426786 0.01768255 0.010851006 -0.061035212
000070 e9 56 aa bd 1a eb 34 be 2b 1c 5d bc 39 3d 2d bc
       -0.08317358 -0.17667809 -0.013495485 -0.010573679
000080 a5 c7 ae 3c 24 b2 16 bd c8 95 ef 3c 23 ca 80 bc
       0.021335432 -0.036790982 0.029246226 -0.015721386
000090 0a f3 12 3d 3f b9 fb 3d 84 5e 2a be fb 26 fb bb
       0.03587631 0.12291192 -0.16637617 -0.007664559
0000a0 0f 88 ea 3c cf 09 13 3c f1 73 e9 3c 96 dd a4 bc
       0.02862933 0.0089745065 0.028497668 -0.020125192
0000b0 f3 7c fe bc 13 65 28 bd da 58 f1 bc d0 d0 00 3c
       -0.03106544 -0.041112017 -0.029461313 0.007862285
0000c0 4b 0e e1 bc b6 a1 f2 bd 27 07 e8 bc ed 0c 90 bd
       -0.027472636 -0.1184725 -0.028323723 -0.070337154
0000d0 d3 4d bf bd 6d 65 4c bd 34 48 c0 3c 1f 71 ac bc
       -0.09341016 -0.049901415 0.02347193 -0.021050034
0000e0 85 2a 40 bd 02 a2 8f bd 0d 1f ea 3c 28 09 0f bd
       -0.04691555 -0.070133224 0.02857926 -0.03492084
0000f0 b6 6a 50 3c 2e dc b7 bc f2 fb 35 3c e9 ae 1c 3b
       0.012720754 -0.022443857 0.011107432 0.0023907966
000100 85 3c 26 bc fc 90 42 bd 3d 93 ec bc dc 5f a6 3c
       -0.010146265 -0.04750155 -0.028878802 0.020309381
000110 c1 60 00 bb 4d c5 93 3c 07 02 0f bb ef 54 c1 bc
       -0.001958892 0.018038416 -0.0021821277 -0.02360007
000120 c7 65 85 bd 00 f0 60 bd ef 92 23 3d 43 12 4f bd
       -0.06513553 -0.05491638 0.03993505 -0.050554525
000130 47 70 5a bd 5a 97 76 ba ee 65 b9 bc 0b 66 5a bc
       -0.053329732 -0.00094067084 -0.022631612 -0.013329993
000140 b3 84 35 bd 93 b6 b7 3d 0e b7 3f bd 11 5c c4 3c
       -0.044316005 0.0897037 -0.046805434 0.023969682
000150 94 6d 16 3d c5 a0 9d bc 0f 84 9f bc a5 f4 d6 bc
       0.036725596 -0.0192417 -0.01947215 -0.026239702
000160 fb 76 14 be b0 0b bf 3c 9b a5 98 3c 2e 78 93 3d
       -0.14498512 0.023321003 0.018633654 0.07200657
000170 9a 81 0b be c0 72 75 bd 65 56 9a bd 7a 91 ae bd
       -0.13623658 -0.059923887 -0.0753601 -0.08523841
000180 b5 53 2f bc 3e 23 b7 3c f1 68 46 bb 1f 5a 6c 3b
       -0.01070111 0.022355672 -0.0030274952 0.0036064459
000190 0e 0c fa bb a0 26 46 be a5 22 b2 3c 9b 1b 02 3b
       -0.0076308316 -0.19350672 0.021745035 0.001985288
0001a0 a0 86 d8 bd a6 fd 9f 3b 43 c8 ef bc 5f 26 2c 3b
       -0.10572553 0.004882532 -0.029270297 0.0026267988
0001b0 1a a0 27 3d d6 81 52 bd 9f 43 0d be 94 22 7a bc
       0.04092417 -0.051393352 -0.13795327 -0.015267033
0001c0 ec 9e 36 bd 15 28 2f be 6b 0c d3 3c f8 b6 9e 3c
       -0.044585153 -0.17105134 0.025762757 0.019374356
0001d0 89 5d 9d bd 0f f1 bf 3d 83 89 90 bc 6a 98 24 bd
       -0.07683856 0.0937215 -0.017643696 -0.040184416
0001e0 f0 b6 d1 bc 7c bd d4 bc bf 11 cd bb 4a 55 03 be
       -0.025599927 -0.02596926 -0.006258219 -0.12825504
0001f0 2a 1f 95 3d 04 1d 90 bc b8 c3 51 3c 67 ca 89 bc
       0.07281335 -0.01759196 0.012803011 -0.016820146
000200 fa 25 ef 3b fe f5 a2 bd 22 92 ed bc c4 95 70 bb
       0.0072982283 -0.079570755 -0.029000346 -0.003671036
000210 b1 99 97 bc 96 e8 85 bb 72 7f a9 bd d6 d0 e2 bd
       -0.018505903 -0.0040865643 -0.082762614 -0.110749885
000220 bb b2 bb 3d 10 7b 31 bb 5f 27 fc 3b e0 96 85 bd
       0.091649495 -0.0027081408 0.007695123 -0.06522918
000230 7e 80 27 bd 0f db e7 3b 3e 10 52 3c 64 05 9b ba
       -0.040894024 0.0070756744 0.012821255 -0.0011827168
000240 e9 d1 ef 3b 0d c0 98 3c 52 8f d6 bc 27 33 1f 3c
       0.0073187244 0.018646264 -0.026191387 0.0097167855
000250 6c 7b 8a 3c ae fe 0c bd 62 6a 27 bd 70 3f de bc
       0.016904555 -0.03442257 -0.04087294 -0.027129859
000260 e7 b2 ce 3c 45 22 cc 3c 48 11 6e bc 60 6b 2e bd
       0.025231792 0.024918685 -0.014530487 -0.04258287
000270 e2 75 37 bd 2b 5c 23 bd 72 0a a3 bd a9 ee 8b bb
       -0.044790156 -0.03988282 -0.07960977 -0.004270394
000280 88 c8 35 3d fd 21 eb bb ee ef 31 3d ea 50 51 3d
       0.044380695 -0.0071756826 0.043441705 0.051102556
000290 4c b5 ec bc 67 7a 4f bd 57 6e 5c be 5b b0 38 bd
       -0.028895043 -0.05065384 -0.21526466 -0.04509006
0002a0 6f 8a bc bb b6 74 ab bc 0e db 51 3d 1d cf ac 3b
       -0.0057538073 -0.020929676 0.051234297 0.0052737133
0002b0 0e 09 78 bc 04 dc 9d bc 63 a8 37 bd 56 40 28 bd
       -0.015138878 -0.01926995 -0.04483832 -0.04107698
0002c0 a9 b2 58 bc 19 9f 7f bd d9 d7 4c bd 89 bd af bc
       -0.01322619 -0.062407587 -0.050010536 -0.021452682
0002d0 79 84 c5 bd e6 ef 18 3d 2a 0d e5 bc 87 2b 0f bd
       -0.09644408 0.03733816 -0.027960379 -0.03495362
0002e0 03 2b 3a 3d 10 29 86 bd c6 d6 01 3c 44 d2 61 3d
       0.045451175 -0.06550801 0.007924741 0.055132166
0002f0 3b f3 18 bd 45 03 07 bf cd 67 1e 3d 9d 01 e6 bc
       -0.037341338 -0.52739364 0.03867321 -0.028076941
000300 5a 78 92 bc 42 c0 d4 bc 09 77 0a bc 91 77 7a bb
       -0.017879654 -0.025970582 -0.008451232 -0.003821824
000310 12 24 a9 bc dc 35 7d be bd ff eb bd 0c e7 64 bc
       -0.020647082 -0.24727577 -0.115233876 -0.0139711015
000320 ba 24 18 bc b1 fd 05 bc 3e ab 58 bd e9 58 08 3d
       -0.0092861 -0.0081781605 -0.052897684 0.033287916
000330 92 55 ac bd 9c 31 12 bd d7 4d 04 3d fc f6 e2 3c
       -0.08414759 -0.035691842 0.032300796 0.027705662
000340 76 58 1f 3e 4e 58 8a bb 24 b1 d5 bb a5 6e 16 3d
       0.15561089 -0.0042219525 -0.006521361 0.036726613
000350 fd d2 99 3d f1 d2 32 bd b2 ca 28 bd 5b fb 64 3b
       0.07510946 -0.0436582 -0.04120893 0.0034939859
000360 9f d4 b3 3b 49 10 10 bd 66 64 56 3d 44 d4 d2 3c
       0.005487993 -0.03517178 0.05234184 0.025735982
000370 d5 94 1b 3d 26 b3 25 bd 36 c6 b6 bd 79 73 d1 bb
       0.037983734 -0.040454052 -0.089245245 -0.0063919392
000380 20 41 05 bd 7a 8c 3e bd b0 ae 84 bd 1f 50 4f bd
       -0.03253281 -0.046520688 -0.064786315 -0.05061352
000390 ab ae 18 bd 54 17 ca bc 88 fc 9a bd 4c d0 05 bc
       -0.03727595 -0.024669327 -0.07567698 -0.008167338
0003a0 5b 4d 2d 3c af 34 4b bc 22 d4 30 3c 8f 4f f0 bc
       0.010577525 -0.0124026975 0.010792764 -0.029334811
0003b0 0a 9a aa bc cb e1 0b bc 56 e8 ca 3b 0a 6c 63 bc
       -0.020825405 -0.00853772 0.0061922474 -0.013880739
0003c0 4d a1 47 3c dc 29 ae bc 74 a3 92 3d e7 bf db bc
       0.012184453 -0.021260194 0.071600825 -0.026824905
0003d0 6d dc 01 bd 69 e7 2d bd 85 3a c8 3c d6 36 a8 3c
       -0.031704355 -0.042457018 0.024441967 0.02053396
0003e0 26 0e 89 bd 0b 31 a6 3c c9 f4 07 3d 96 70 5d 3d
       -0.06692152 0.020287057 0.03319243 0.05406245
0003f0 a6 47 4c bc 73 ca dc 3c 4b fc 58 bb bc e2 bb bc
       -0.012468254 0.026952004 -0.0033109363 -0.022935264
