input/model/ANN_like_dan_gan.pth (torch, 225575 bytes, 19 tensors)

fc1.weight f4 [256, 44]
00000000: af07 f1bd 707e cbbe a3cc ac3b 0a70 adbc
00000010: 1bd3 763d a385 e2bb 5bd9 ecbb eb3b 8abd
00000020: ce8b bcbe 4832 40bf 2fe2 a0bf bf64 c7bc
00000030: ca8b 86bb 05ce 25be f2d7 c53b 9b6c b0b9
00000040: f258 053e fc63 80be eed8 893d 579c 94be
00000050: 651d 9cbe 9c27 41be 8a53 5ebd 29cf bfbc
00000060: 72ba 343d 4450 f3bb 8e9b 153e cd50 b5bd
00000070: 0a11 603e 35b2 bcbd a88b d33e 3563 a03d
00000080: 2222 543c 97f6 193e 3526 f7bc c8fc bf3e
00000090: 3a08 82be 2739 6bbd 9d1b 9b3d 5cda ddbe
000000a0: 2d6a c4bd 2023 023e 3b21 62be 6220 33be
000000b0: dcac 81be 4ef6 80bd bee4 73be 0023 febe
000000c0: 5212 0c3f 4f21 b8be 298b 86bd 9deb 38be
000000d0: a79d 1e3e 9c09 883e 53eb 363f 3ca7 383f
000000e0: 9b74 763e 4ee1 cebe fdd5 e23d bfaa bf3c
000000f0: 8774 16be da5f c83e 0507 e53d 0f7b 533d
00000100: e415 a13e 66f4 f4be 431e 6d3c 57f8 7cbe
00000110: 1cdb 11bf 81fd 0bbe 0fbb 113f 8a0f 213f
00000120: 3d36 0fbe fbf8 1d3f a38a 433d 21f0 c0bd
00000130: 9fa0 9e3e bba1 2e3e e468 9fbe 6d33 493f
00000140: 605a 143d a64b 9b3e 2f92 b8bf 833f c83d
00000150: a9e9 c23d 40ce 1bbf 59b9 9b3c 10c7 59bf
00000160: fdca 773c f483 113b 9c44 1dbd 1745 083e
00000170: 7164 cbbd d837 cc3d 3a48 e13e 175a 97be
00000180: 1ba1 babe f1a4 10be ee2b 3abe 7b43 1b3e
00000190: 9572 41be 9747 803e ad9e e6bb 9814 81bd
000001a0: 17c5 c4bd 556b ecbd 44b9 733e 1154 463c
000001b0: fba8 59bd 976e 88bd 5d67 85be 07d6 d33c
000001c0: 4736 cfbd 52a2 a33e 4235 37bf 8b35 313e
000001d0: 5c23 53bf be7e a5be 5ba7 afbe 72a8 b4be
000001e0: ec51 8bbe 85e5 21be 660a 963e cd05 d0be
000001f0: 2084 06be b583 5f3e 9b9a 693e 6559 8a3d
00000200: f1f1 c8be 011b f03e 3ed1 0bbd 9568 c7be
00000210: 27f9 1ebb c790 8ebb f0f2 6e3b b02b 8a3b
00000220: 41cd e0bd 3bea 86bd f3a3 39c0 179c c53e
00000230: ff2b 19be f04f 8cbd d949 49be 6b94 cd3d
00000240: cc61 28be 0836 4b3e 5109 07bc 29f8 fa3b
00000250: 728a 03bb e93f 373e 8689 5dbe fc01 163e
00000260: 4d9b 78be 4709 c23c ba94 18bf 9ac9 513c
00000270: 5fa9 ac3c d2ca 17bf f184 47be 9fa4 4bbf
00000280: 2420 ecbd 9ae8 843b db33 06bd 8711 bb3d
00000290: d2d7 9d3e 534e c73d b20a 51bd e923 eebe
000002a0: d649 6b3d 70d7 223e 5882 3c3e fcf5 2dbe
000002b0: 1633 da3d 8dac 24be 1997 b73e 627a 77be
000002c0: 7a10 e7ba 1145 6abd f815 513d 4d94 84bd
000002d0: c746 adbc b626 08bd c4ac 673c 093c 13bc
000002e0: 4bb9 7bbc 0233 dd3d e6ea e7be 823a e3bd
000002f0: 2b0b b4bc 6331 2d3e d468 bfbb 657c f3bb
00000300: 5736 b0bd 2d9f cebe 5c66 d63e f3fe f7bc
00000310: 9b80 ad3d d859 f13e 515a 623e fb31 d43d
00000320: c0e5 0e3f caf9 c9be d674 3fbe b350 fe3e
00000330: f940 72bf ae5c bb3b 0de5 0fbf 50b7 033f
00000340: 6d47 273e 9821 57be 9f91 2c3e 5c98 41be
00000350: fc37 1bbf 5312 a93b 302f 043b 0938 053f
00000360: 63c1 753e 9d33 a0be bf88 9f3e 550c 31bf
00000370: fe03 93be ce07 553e 6ecb 92be 65dc 823e
00000380: ee7e 21be c579 6a3e 2c88 11bc c642 2b3e
00000390: 9acb 503d b5ed 9cbe 8b1a 283d 5638 80bd
000003a0: 753d 03be 056b 12bd 5781 b8bd 816a 5dbc
000003b0: a509 f6bd b2b3 a73e 3f5c 51bd 7a0a 633e
000003c0: b3ce dc3e 32d3 50bf 264f 743e 38cf 2abe
000003d0: 8f61 463d 8ad2 4dbe deec d03e ab92 643e
000003e0: 4f66 973c 68d5 09be 181c 10bd 359c ce3e
000003f0: 02de c5bd a9cb e3be 870d 9abe d1f9 293e
-0.11769044 -0.39744902 0.005273418 -0.021171588 0.06025992 -0.0069129034 -0.007228059 -0.0674971
-0.36825413 -0.75076723 -1.2569026 -0.024340032 -0.0041060196 -0.16191871 0.0060377056 -0.00033650253
0.13022211 -0.25076282 0.06730829 -0.29025528 -0.30491176 -0.18862766 -0.054278888 -0.023414211
0.04412312 -0.00742534 0.1461012 -0.08853302 0.218815 -0.09213678 0.41317487 0.07831422
0.012947591 0.15035473 -0.030169586 0.37497544 -0.253969 -0.05742755 0.07573626 -0.43330657
-0.09590564 0.12708712 -0.22082989 -0.17492822 -0.25327194 -0.06296979 -0.23817727 -0.49636078
0.54715455 -0.35962912 -0.065695114 -0.1805863 0.15489827 0.2656983 0.71452826 0.7213018
0.24067919 -0.4040627 0.11075971 0.023396848 -0.14692889 0.3913563 0.111829795 0.05163103
0.31462014 -0.4784271 0.014472547 -0.24704109 -0.5697496 -0.13670923 0.56926054 0.62914336
-0.13985534 0.6170804 0.047739636 -0.09420801 0.3098192 0.17053883 -0.31134713 0.78594095
0.036219 0.30331153 -1.4419612 0.09777739 0.095172234 -0.6086159 0.01900928 -0.8506937
0.01512408 0.0022203894 -0.03839551 0.13307606 -0.09931267 0.09971589 0.44000417 -0.2956092
-0.3645104 -0.1412542 -0.1818082 0.1516246 -0.18891366 0.2505462 -0.0070379586 -0.06302756
-0.096079044 -0.115439095 0.23801142 0.012105004 -0.053139668 -0.06661718 -0.26055422 0.025858892
-0.101177745 0.31959778 -0.7156564 0.17305581 -0.8247583 -0.3232326 -0.3430737 -0.35284764
-0.2721094 -0.15810211 0.29304808 -0.40629426 -0.13136339 0.21827586 0.22812884 0.06755332
-0.39247087 0.46895602 -0.034135096 -0.38946977 -0.0024257393 -0.004350755 0.003646072 0.0042166337
-0.10976649 -0.06587645 -2.9006317 0.3859565 -0.1495819 -0.06851184 -0.19657077 0.10038074
-0.16443557 0.1984483 -0.008241967 0.0076589775 -0.0020071534 0.17895474 -0.21634492 0.14649194
-0.24277993 0.023686064 -0.5960194 0.012804413 0.021076856 -0.59293854 -0.19484307 -0.79548067
-0.11529568 0.0040560486 -0.032764297 0.091342025 0.3082872 0.09731736 -0.05103559 -0.46511772
0.057443462 0.15902495 0.18409097 -0.16988367 0.10654275 -0.16081448 0.35857466 -0.24167779
-0.0017628812 -0.057194773 0.05104634 -0.06473599 -0.021151913 -0.033240043 0.014140312 -0.008986481
-0.0153640015 0.108007446 -0.452964 -0.11095144 -0.021977982 0.16913371 -0.005841354 -0.0074306005
-0.086041145 -0.40355816 0.4187497 -0.030272936 0.08471795 0.47138858 0.22104765 0.103610955
0.5581932 -0.39448386 -0.18696913 0.49670944 -0.9463039 0.0057178354 -0.5620888 0.5145159
0.1633584 -0.21008909 0.16852425 -0.18905777 -0.606323 0.005159655 0.0020169728 0.5203863
0.23999552 -0.31289378 0.31159016 -0.6915944 -0.28713983 0.20803759 -0.2867083 0.25558773
-0.15771076 0.22898014 -0.008882564 0.16724691 0.05097542 -0.30650106 0.04104094 -0.06260745
-0.12816413 -0.035746593 -0.090090446 -0.013514162 -0.12013558 0.32754284 -0.051113363 0.22171965
0.4312645 -0.8157226 0.23858318 -0.1668061 0.048432883 -0.20099846 0.40805715 0.22321574
0.018481402 -0.13460314 -0.035183042 0.40353552 -0.09661485 -0.44491318 -0.30088446 0.16599204

fc1.bias f4 [256]
00000000: f7d3 8c3e 3003 82be bb27 eebd 6793 953d
00000010: 2043 203d 2250 b23d 91e6 8ebd 6308 b13d
00000020: 868a 43be eb9e 9ebd afcd 35bd a0a9 093e
00000030: ce8a 123e 1ddc 14be c9b5 143d 6355 d0bd
00000040: 97b9 873d 7363 913d d03f 943d f0ad 49bd
00000050: 7035 3e3e 6320 123e f785 563e 678e bb3d
00000060: 4e8c 81be f7ae 23be 24e8 b33d 7f8b e73d
00000070: 0598 07bc 2cbc 35bc 19a3 3a3c beac f83d
00000080: 40a4 16bb d527 673d 9d09 2a3e b66e 8cbd
00000090: 49ee 8fbe 6032 abbd d1b7 723e 2c4d f0bd
000000a0: 9eec 213e 0c6d 653e aee3 2dbd 5cb5 4e3d
000000b0: 5a98 763d c39c a3bd 340c e13a 40b5 753c
000000c0: feaf eebd feda 913c 6479 a5bd 8f00 93bd
000000d0: 1b5d cc3d 686f 1dbb 8f1f e4bd d7f4 f13c
000000e0: d429 6bbe 84ef 36bd 4dfe 40bd abed c63b
000000f0: 0f04 103e a792 83be 7a92 1b3d f998 d03b
00000100: 60aa 96bd 515e 33bd 2107 b23c 1efa 5fbd
00000110: c113 d43d a629 ebbc 54c3 0abe b3b7 3fbe
00000120: d7f7 0c3e 3c75 dc3d 80fa c83d 1943 2c3e
00000130: ed89 73be 14f3 203e f6b0 29bd 65b1 83be
00000140: 7b8d 8d3d 794d 61bd c437 e3be 28f9 193d
00000150: 7d66 3a3d 4a0b 39be fa71 17be 831e 7a3d
00000160: daaf 013d c7db efbc 2637 1cbe 3845 633d
00000170: bb5a e63c 9507 20bd 42a2 9d3d 4028 193d
00000180: c133 833d f1df ac3d 7f09 85bd 2721 b9bd
00000190: e5d7 043e 8420 c83d dc78 eebd d7ae 92bd
000001a0: 9420 1bbe 8019 edbd 27b2 0fbd 0707 303e
000001b0: f050 523e d8b6 4a3e 93c7 b8bd baaf 12be
000001c0: e65f 00be 49b8 ccbc 2006 a03d 2c7d 243e
000001d0: 8bdd fdbc 07dd 69bd 161a 103e 501e ba3d
000001e0: 0111 943e fed0 02be c125 f4bd 759b 573d
000001f0: 6c40 96bd e606 96bc 8a9f 8ebe ecd7 623e
00000200: 4a0f 84bc 6162 e93d f25a 48bd 6b92 893d
00000210: 86e8 5fbd 3009 c03d a4a2 e73c 922c e63c
00000220: 2ad0 813d 3c38 253d f829 98bb f331 cd3b
00000230: c321 d5bd 0dd2 aebd 561c b53e 6560 d93c
00000240: 314c ae3d b6c6 60bc 1cbf 52bd ec88 eabd
00000250: 609e 8fba 065d c53d 5c5b c2bd 0667 b73d
00000260: bc35 0c3c a691 f0bd 9818 19ba 881d 7a3e
00000270: cff1 c6bc 13ce 833e e4c1 50be 64e7 3f3e
00000280: 9a98 b33c 5dad 5cbe 9c56 ffbd 70f1 023e
00000290: d2c7 34be 0f13 233c 6a62 9dbe 0a41 d5bd
000002a0: 0a8c 103d fc6e e1bd 0e93 0ebe be5a 013e
000002b0: f01f a3ba f3ec b8bd c5a2 b7be b12f a93d
000002c0: 20d8 9e3d 11ca 18be 9f1d 863d 500e 08bd
000002d0: d7a1 3ebe dfef 89bd b5b9 01bb e5b3 68bc
000002e0: e60c 583d 8383 d5bd 5b8c 2cbe 5a26 0cbe
000002f0: d812 f9bc bd64 acbc 9cbf ddbc 5838 d4bd
00000300: a263 dbbc 5e7b 0dbe 74c0 41be 9ffb 6abd
00000310: 9c76 6f3d 115e 87bd 0645 73be 06df aa3c
00000320: 9e26 ec3d 8aac 833d 2287 6cbe 71e7 7ebe
00000330: 2d4c bdbd 06b6 ff3d 63d2 453e ab8d c53e
00000340: f40e b7bd 1f06 6d3d 203f 3d3e b4da c83e
00000350: 27b6 df3d 7876 b8bd cfa8 113e 07d2 c73d
00000360: 2f07 4fbd ccd9 b83c 925d 343e 1af8 7c3d
00000370: a862 8c3d 8be3 49be 10d7 0e3e 2259 23be
00000380: b27f 683d 632a 64bd 9916 8dbe 2c9d bbbc
00000390: b6f8 8bbe 22b5 71be 74a3 fc3d c74e ae3d
000003a0: de66 fdbd 2062 2d3e 1aa0 89be ab9c 2b3c
000003b0: eedb a33e 5b77 283d 8782 e53c 5e58 863d
000003c0: 2e37 003d 3d77 41be f26c 5fbd 149b 2bbd
000003d0: 107c fbbd 2e90 2dbe eb71 bfbb d324 ce3d
000003e0: 5e44 843d d0ff 0fbe 5200 d9bd 276f 9a3c
000003f0: 42a0 9e3b 707e 0b3e a6dd 01be 41ec c4bd
0.27505466 -0.25393057 -0.11628672 0.073035054 0.039126515 0.0870669 -0.06977571 0.08644178
-0.19095811 -0.07745155 -0.04438561 0.13443613 0.14310762 -0.14537092 0.036306176 -0.10172536
0.06627195 0.070990466 0.07238734 -0.049238145 0.18575072 0.14270167 0.20949541 0.091580205
-0.25302356 -0.15984713 0.08784512 0.11305904 -0.00827599 -0.011092227 0.011391425 0.12142323
-0.0022986084 0.05643447 0.1660523 -0.06857054 -0.28111485 -0.08359218 0.23702933 -0.11733469
0.15812919 0.2240488 -0.04245346 0.050465927 0.060203888 -0.07988884 0.0017169775 0.014996827
-0.116546616 0.017804619 -0.08079794 -0.07177841 0.09978696 -0.0024022702 -0.11138832 0.029535694
-0.22965175 -0.044662014 -0.04711752 0.0060708127 0.14064048 -0.25697824 0.037981488 0.006365892
-0.07356715 -0.04379112 0.021731915 -0.05468189 0.1035533 -0.028706383 -0.13551074 -0.1872242
0.13766418 0.10764548 0.09813404 0.1682247 -0.23783083 0.15717727 -0.04142853 -0.2572128
0.06911751 -0.055005524 -0.44378483 0.03759113 0.045507897 -0.18070713 -0.14789572 0.061064254
0.031661846 -0.029279603 -0.15255412 0.055485934 0.028119436 -0.03906973 0.07696964 0.0373919
0.06406356 0.08441151 -0.06495952 -0.090395264 0.12972982 0.09771827 -0.11644146 -0.07162254
-0.15149146 -0.11577129 -0.03508201 0.1719018 0.20538688 0.19796312 -0.09022441 -0.14324847
-0.12536582 -0.024990218 0.07813668 0.16063374 -0.030989429 -0.057095554 0.14072451 0.09087813
0.28919223 -0.12775037 -0.119212635 0.05263849 -0.07336506 -0.018313836 -0.27856094 0.2215268
-0.016120572 0.113957174 -0.048914857 0.0671738 -0.05466511 0.093767524 0.028275795 0.028097425
0.06338532 0.040336832 -0.004643675 0.006262058 -0.1040683 -0.08536158 0.3537318 0.026535222
0.08510626 -0.013719251 -0.051451787 -0.11451897 -0.0010957234 0.096368834 -0.09490082 0.08955197
0.008557733 -0.1174653 -0.00058401516 0.24425328 -0.024285225 0.2574316 -0.20386463 0.18740612
0.021923352 -0.21550508 -0.12467691 0.12787414 -0.1765435 0.009953274 -0.30739146 -0.10412796
0.0352898 -0.11007497 -0.13923284 0.12632272 -0.0012445431 -0.090295695 -0.3586637 0.082610495
0.07756066 -0.14920832 0.065486185 -0.033216774 -0.18616425 -0.06735205 -0.0019794528 -0.014203046
0.052746676 -0.104254745 -0.16850416 -0.13686505 -0.030404493 -0.02104413 -0.027068906 -0.10362309
-0.026780907 -0.13816592 -0.18921071 -0.05736887 0.058462724 -0.066097386 -0.23756799 0.020858299
0.11530803 0.064293936 -0.23098424 -0.24892975 -0.09243045 0.1248589 0.19318537 0.38584647
-0.08938399 0.057867166 0.18481112 0.39229357 0.10923415 -0.09006971 0.14224552 0.097568564
-0.05054396 0.022564791 0.17613819 0.061760046 0.06854755 -0.19715707 0.13949227 -0.1595197
0.056762405 -0.055704486 -0.27556303 -0.022902094 -0.2733819 -0.23604253 0.12335864 0.08511119
-0.12373136 0.16931963 -0.2687996 0.010474364 0.3200373 0.04112945 0.028016342 0.065598235
0.031302623 -0.18893142 -0.054547258 -0.04189594 -0.122795224 -0.16949531 -0.0058424375 0.100656174
0.064583525 -0.14062428 -0.10595764 0.01885183 0.0048408816 0.13622451 -0.12682208 -0.09615374

fc2.weight f4 [128, 256]
00000000: eada 273d 8089 923d a3bb 3ebe 0987 b03b
00000010: 8ac9 313d 83f8 213d c0ad 86bc 79fc e13c
00000020: ec94 5cbd 982f 18be 7d0a 073d 14ab 4ebb
00000030: c0d3 153e d116 edbc 2425 453d 4e97 2abc
00000040: 7163 47bd 8d64 dabd 569a e2bd 9400 4c3e
00000050: 75e4 1bbe fb29 97bd 9574 483d 0008 7539
00000060: b766 4cbe dc44 95bd ce4d 103e 0f7b c7bd
00000070: 7622 3abe fbbe edbc 2c13 863d da9e 833d
00000080: 9e1d 223d b9d9 0abd 253c 3cbc 0fa7 26bd
00000090: 3cf3 90bd 6271 86bd cd2f 8d3c f13c 1d3e
000000a0: 2736 36bd 0d8c 413b 2c77 ab3c 07fb 793d
000000b0: c38e 70bc bc4c c7bd 89d7 1abe 1ff2 613c
000000c0: f706 0dbd a128 a4bc 8f63 dcbd 8682 543e
000000d0: 1ff9 aabc ea49 023e f121 8c3d 5a9b e8ba
000000e0: 55ad 493e 1787 d4bc cbfc 653e 8a69 9dbd
000000f0: 75d6 5c3e deab 2b3e dfa6 9ebd 31f6 7ebc
00000100: bdca a33c 1d34 a73d bca4 ca3d ba02 1ebe
00000110: 72c0 e73d 8014 9e3d 53e3 9a3c 5a41 bf3d
00000120: bb87 1bbe 1be8 683e 58de 3abc 9560 dc3d
00000130: bfc9 c7bc 65aa a63d d288 04bd 9aee b83d
00000140: ec2b b63b ea17 243d 7e82 b53c b6d8 dd3c
00000150: ff4f 9ebd e8a7 ea3c f5f5 a8bc 6785 e23c
00000160: b3b4 7f3b 197a ac3c 08e9 0bbe b2ec 3bbe
00000170: 5079 053e 6c03 b1bc c232 033e ba57 8b3b
00000180: 8f71 e6bc 0b3e 9fbe b42e 3c3d 4840 043d
00000190: 6fff 593e 0ce9 3bbd 4699 c03d f9e3 4fbd
000001a0: 4aa6 413d 190a 0ebd 516b c53d 0c0b a2bd
000001b0: 9fa8 84bc bb4f 0f3d 9213 463e 22b7 a3bd
000001c0: 3bac ca3c a01c bd3d c341 71bc 924c af3c
000001d0: 5d58 65bd 8c40 0ebe f557 a0bd 2952 23bd
000001e0: 0130 903d e7e9 8ebd 79cb c63d 5018 8abd
000001f0: 57c6 653d c15c 4c3e dc91 813c b3dd 5bbe
00000200: f664 4c3e 8353 8e3d 3f76 a6bd 9304 723d
00000210: 96fa 073d 6471 b43d 39ad e0bc b196 62bd
00000220: 98c7 a9bd aff1 5f3d fed9 5d3d f793 e6bd
00000230: 48ac af3d a025 ca3c 60af b1be 131a 163e
00000240: 8858 28bd 882c 13bc 10eb a6bd 78dc 103d
00000250: 0e4d 1b3c f301 163d 539d cdbd f613 5c3e
00000260: c608 b43b 1242 67bd 369a 9a3d b09b bb3c
00000270: dd0b 1f3e 5024 823d cd4c 313e a108 3b3d
00000280: b4d4 d33d 46a4 bf3d 0fcd 78be 3f92 24be
00000290: 2bc5 bdbd aae0 67bd c987 55bd b624 90bd
000002a0: ff6c eb3c 202e d1bc bf4a bf3d c231 a33d
000002b0: b607 0e3e 6b9b 87bd 0e89 dbbd dd59 e0bc
000002c0: bde9 023d b9fb 803d b27f af3d ffd8 d1bd
000002d0: 08f1 fd3d 2238 9c3d e423 033e 5354 4dbd
000002e0: 494e 7c3d 0cf5 823d 5710 733d bbf4 1abc
000002f0: 28b8 d03a 8192 803d 10a2 0abd b83e 93bd
00000300: 4291 8d3e f73c 14be 43f8 573e 11df 443c
00000310: 7f98 55bc 2683 52bd 3062 bf3d 4bcf d23c
00000320: a571 39bd 74fc 4cbc 9374 9b3d 808d ad3d
00000330: 4fab e53a f8b1 103e bc11 d0bc 25fa cc3d
00000340: 3bce 813d 606e 92bd 27a7 20be 5cf8 e5bd
00000350: 1d54 37be a363 103e b4b7 423e 54e1 2d3d
00000360: 7602 eb3c 3244 843d aab4 a93d f68a 28bd
00000370: bf42 26bc 93cb ef3d 0d79 4b3c b06c d2bd
00000380: 6180 95bc a78a 1e3d 41e5 393d 1aae abbd
00000390: 5b3b b13d d735 12be 7d1a b83d afa4 933d
000003a0: 2ac9 00bd c938 11be 5dfc d3bd c223 3b3c
000003b0: 43a6 1abe f9f4 bd3d eba1 9cbd 82c5 1cbc
000003c0: ce1e 84bd 57a2 9f3b fd77 2d3d 7a42 213d
000003d0: d713 3e3e 1a1a 953c 200f f3bd a095 c3ba
000003e0: 8eaa d5bc 8350 edbd ba2a 623d 9a3a d0be
000003f0: 2a81 abbc 947e df3d 310e a5bd 72aa 003d
0.040980257 0.07155132 -0.18626265 0.005387191 0.043405093 0.03954364 -0.016440272 0.027586209
-0.05385296 -0.14861906 0.032968987 -0.0031535076 0.14631557 -0.028941544 0.048131123 -0.01041205
-0.04867882 -0.1066371 -0.110645935 0.19922096 -0.15223868 -0.07381054 0.048939306 0.00023368001
-0.19961058 -0.072885245 0.1409218 -0.097402684 -0.18177208 -0.02902173 0.065466255 0.06426783
0.039579026 -0.033899043 -0.011488949 -0.040686663 -0.07077643 -0.06564595 0.017234707 0.15355279
-0.044485237 0.002953294 0.020930849 0.061030414 -0.014682475 -0.09731433 -0.15121283 0.013790636
-0.03443047 -0.020038905 -0.10761177 0.20752916 -0.020870743 0.12723508 0.06842411 -0.0017746494
0.19695027 -0.025943322 0.22459714 -0.076861456 0.21566184 0.16764781 -0.07746672 -0.015561626
0.019994134 0.08164237 0.09894702 -0.15430728 0.11316003 0.07718754 0.018907225 0.09338637
-0.15188496 0.22744791 -0.01140555 0.10760609 -0.024388192 0.08137969 -0.032357045 0.09029885
0.005559435 0.04006187 0.02215695 0.027080875 -0.07730102 0.028644517 -0.020625094 0.027651502
0.0039017617 0.021054314 -0.13663113 -0.18352011 0.13034558 -0.021608077 0.12812331 0.004252401
-0.02813032 -0.31102023 0.045942977 0.032287866 0.21288846 -0.045876548 0.094042346 -0.05075452
0.047277726 -0.0346776 0.096396096 -0.07912263 -0.016193686 0.034988146 0.19343403 -0.07993914
0.024740329 0.092339754 -0.0147251515 0.021398816 -0.055992473 -0.1389181 -0.078292765 -0.039873276
0.07040406 -0.06978207 0.09706778 -0.067429185 0.056097355 0.19957258 0.015816621 -0.2147129
0.19960389 0.06949522 -0.081280224 0.059086394 0.03319796 0.0881069 -0.027426349 -0.05531949
-0.082900226 0.054673847 0.05416297 -0.11258691 0.08577782 0.024676144 -0.34704113 0.14658384
-0.041100055 -0.008982785 -0.08150303 0.035366505 0.0094788205 0.036622953 -0.10039773 0.2149199
0.00549421 -0.056459494 0.07548945 0.022901386 0.15531869 0.06354582 0.17314453 0.045662526
0.10343304 0.093575045 -0.24296974 -0.16071413 -0.092661224 -0.05661074 -0.052131448 -0.07038252
0.028738497 -0.02553469 0.093404286 0.07968475 0.13870129 -0.066214405 -0.107195005 -0.0273866
0.03196119 0.06298012 0.08569278 -0.10246467 0.12399489 0.07627894 0.1280666 -0.050129246
0.061598096 0.06394395 0.059341755 -0.009457762 0.0015924023 0.062779434 -0.03384596 -0.07189697
0.27649885 -0.14476381 0.21090798 0.012016074 -0.013036846 -0.051394604 0.093449 0.02573361
-0.045274395 -0.012511361 0.07590594 0.084742546 0.0017522367 0.1413039 -0.025399081 0.10008649
0.063381635 -0.071499586 -0.15688764 -0.112290114 -0.1790318 0.14100508 0.1901539 0.042451218
0.028687697 0.0645832 0.08286412 -0.04114815 -0.010147749 0.117087506 0.0124189975 -0.10274637
-0.018249692 0.038706448 0.04538465 -0.083828166 0.08653899 -0.14278351 0.08989427 0.07209145
-0.031441845 -0.14181818 -0.10350869 0.0114221 -0.15102486 0.092752405 -0.07648071 -0.009568574
-0.06451188 0.0048716473 0.042350758 0.039370038 0.18562256 0.018200923 -0.11868119 -0.0014921911
-0.026082303 -0.11587622 0.05521653 -0.4066971 -0.020935614 0.10912815 -0.080593474 0.03141255

fc2.bias f4 [128]
00000000: 9362 063d 032d 113e 25b4 03be 1f1d 7bbc
00000010: 348d bbbd 2ae5 84ba 811c 513d dd4b 47be
00000020: 3866 e53d 8f9a be3c b580 0ebe fcc9 98bd
00000030: 8d34 e63c efc7 6bbe b826 c03d 39f5 113d
00000040: ed20 e5bd 5713 843e b946 733e e042 f93d
00000050: ede0 713d aebb b7bd 5574 b8be 21ce 7fbe
00000060: e0c3 78bd 9f85 33bd 3045 5fbe 980b 95be
00000070: 0f04 303e ebd6 3bbe 683f 80be 19c5 99be
00000080: 048e 47be bccf 45be 411a 96be a22e 23bd
00000090: ed65 dabd 8efb 1e3d f3d2 05bd b9c1 cf3d
000000a0: 33ed 10be a9b4 45be cb6e 113e 17cd bcbe
000000b0: 6cd7 bebd 8ff6 00bc dfd5 3cbe fd09 62bc
000000c0: 0736 c8bc a39c 54bd 4b80 11be 4336 0f3e
000000d0: 69c0 9dbc 5f55 c8bd 8e52 0cbe 5341 30bc
000000e0: 84d4 e93c 6e68 49bd 1b54 af3c 68a3 73be
000000f0: c3a3 11be d442 d3bd 99b5 34ba 983b 053e
00000100: 124d aebe 19be 10bc b1da a53e 46cc 383d
00000110: aa12 d4bd 3458 10be c7f4 75bc 9910 7ebe
00000120: a424 60bb 79c6 903c 7771 bfbc fa78 a7be
00000130: 1fb9 fc3d 496d 8abd da97 2abe b4ae 103d
00000140: 85cc a2be eb6b 2bbe c61c 6f3a 8974 49be
00000150: 7f25 4c39 22ca b6bd 3013 173e 569d 5c3e
00000160: cbf8 b7bd 6794 683d 9c83 9fbc b9d9 b3ba
00000170: 70a6 64bd 7357 233e 6ccf 293e bddc cf3c
00000180: 9514 83be ce45 513e 694a f83b 2868 f8bd
00000190: 693b 87bc 7b9e ffbd aa5b c6bd ba16 913b
000001a0: a823 08be b5af abbc 9339 fcbc 6ccf c43a
000001b0: 1a68 b3bd 2105 043e 8a95 9a3d a053 143d
000001c0: 27d5 0b3e 4040 f1be 7c59 0bbe d17e 703e
000001d0: 791f 6f3d 1a50 aa3c 80d4 9c3d b416 a73b
000001e0: 8ac8 4fbd dda0 43be 7f59 523c 08b1 f7bd
000001f0: ef54 633e e430 e53c 7976 4e3d 2fdf bdbe
0.03280885 0.14177327 -0.12861688 -0.015326767 -0.09157792 -0.0010139097 0.051052574 -0.19462533
0.11201137 0.023267059 -0.13916285 -0.074604005 0.02810123 -0.23025487 0.09382385 0.035634253
-0.11187921 0.25796005 0.23757447 0.121709585 0.059052397 -0.08971344 -0.36026254 -0.24980976
-0.060733676 -0.043828603 -0.21803737 -0.29110408 0.17189048 -0.18343703 -0.25048375 -0.30033186
-0.19487768 -0.19317526 -0.29316905 -0.039839394 -0.10663972 0.03881412 -0.03267188 0.101443715
-0.14152984 -0.19307198 0.1420242 -0.3687522 -0.09318432 -0.007871284 -0.1844096 -0.013796327
-0.024439825 -0.051907193 -0.14209096 0.13985543 -0.019256787 -0.09781908 -0.13703367 -0.010757762
0.028543718 -0.049171858 0.02140241 -0.23792803 -0.14222626 -0.10315481 -0.0006893515 0.13011014
-0.34043175 -0.008834385 0.3239341 0.045116685 -0.103551224 -0.14096147 -0.015011973 -0.24811019
-0.0034201527 0.017672764 -0.023369534 -0.32709485 0.123399965 -0.06759126 -0.1665949 0.03532286
-0.3179666 -0.16740386 0.0009121414 -0.19673361 0.00019468924 -0.089252725 0.14753413 0.21544394
-0.08983 0.056782153 -0.019471936 -0.0013721503 -0.05582279 0.15951328 0.16583031 0.02537381
-0.2560164 0.20436785 0.0075772298 -0.12129241 -0.016507821 -0.124813996 -0.09685452 0.004427758
-0.13294852 -0.020957807 -0.030789172 0.001501543 -0.0876009 0.12892582 0.075480536 0.036212564
0.1365553 -0.4711933 -0.13608354 0.23485877 0.058379624 0.020790149 0.07657719 0.005099142
-0.05072836 -0.19104333 0.01283872 -0.12094313 0.22200368 0.027977414 0.050405953 -0.37084338

fc3.weight f4 [64, 128]
00000000: 660b c5bd 78c9 44bd 1963 5cbe f129 d63d
00000010: 0683 e2bd 2116 71bd 910d f73e f097 15bd
00000020: f326 e83d 9603 06be c0e0 8d3d b849 033c
00000030: 1499 65be 16ca dc3c 110f 8e3d 6c73 bdbc
00000040: 0341 8e3d 2da0 76be 9278 7cbd b98c d6bd
00000050: d29c cc3d ed26 1dbe 6afb 54be e8e4 cc3c
00000060: 52df 4e3d e4e9 303e ea60 623e 44b6 84bb
00000070: 153f fabd e16f 783d 4f7b 9abc c34c 88bd
00000080: 52d0 0a3e 96c6 b3be f122 893d 65e0 cd3b
00000090: 5243 763c c327 7b3d 98d2 623d b44d 2cbd
000000a0: e632 6bbd df86 313d 6ae1 22bd 4acf d7bb
000000b0: 3e33 6f3d 2820 9d3d bc93 233d ad3a f9bd
000000c0: 3dcd 2c3c 7dd8 89bd 87b9 98bd bb09 cd3d
000000d0: e437 94bd 32b3 11be 5b96 403c 9af0 edbc
000000e0: e121 493d cda7 193c 776a 90be 220f 19be
000000f0: f304 40be 2130 ea3d 9f30 ffbd 9006 0bbc
00000100: 12ed 553c f924 11bc 25d8 07be 7fe1 b0bd
00000110: 577d 093d c087 44be f81c b83d 8394 4fbe
00000120: aec1 c83d 2f88 ba3d ac4c 333d 24c5 a63b
00000130: 4eed 64bd 03a0 c4bc 31d6 673e 74a9 623e
00000140: cafe 153e 1d1a 373c 81c1 1bbe 3306 13be
00000150: 12c8 1e3d 558b 993c 8e52 1c3d 7a0c 8cbe
00000160: d14e 0abe 3d74 0dbe 4a9f 8b3c b666 0ebd
00000170: a73f 86bd 8fb8 46bb f5cd 553c 1db6 dc3c
00000180: 364d 043e a195 533d 1b28 b6bd 249f e53d
00000190: 394d 30be d68f 3b3d bc51 043e d512 6ebc
000001a0: eafa 04bc dcf0 7e3d 3f96 ddbd 0a29 853d
000001b0: 61b4 d7bd 6a0f bc3d 09ad ed3d fdd5 60bc
000001c0: 63dd 863d 8d57 b53d 944f 83bd 4d8b 1e3e
000001d0: f603 f83d bd6a ef3d 458e a43d 3315 e6bd
000001e0: 876b c83d 19e2 1bbe 3487 95bc 42e9 7d3d
000001f0: d81c c8be c4eb a3bc abaa 833d 9d99 4a3e
00000200: 5197 173e 7a97 f7bd d54e 2d3e 62a9 bebd
00000210: a9c7 023e d7f6 8fbd c51d 86be 1138 793d
00000220: 0b82 d53d 723c 13be 4b95 edbc 591a 77bd
00000230: 7870 d7bc 7f03 143c e63d 853e d237 3f3d
00000240: 9231 29be e51f 5fbd 782d f3bc ec40 193e
00000250: 125f 4b3d 44fe 423d f844 853d 7d1b ee3c
00000260: ff73 b73a 7d81 a3bd ab23 d83d 4b55 f3bc
00000270: 3cbd 4ebe 660f 3c3d ab7b 05bd e8f8 57be
00000280: f704 6ebd 3029 5abe 51de 21be 4ea3 763e
00000290: 7abd 2a3e 0dfd 2fbd 7440 38bd c72b 58bb
000002a0: da75 203d 0b04 bbbd 3e17 38be 3dbb 903d
000002b0: e254 52bd c45d 0f3e c0cb a5bb d403 fabd
000002c0: 043a 27bd f39d 01be 53d4 78bd 1a09 43be
000002d0: 0920 f03c 1b3d 553e 3cd0 98bd 911b 94bc
000002e0: 1b61 33bc c04c 84bd fd86 8bbe 2d69 1dbc
000002f0: 0fe0 423e 029a da3d 2c8c 873e f298 0e3e
00000300: 12f2 a43d 9f21 97bd 6165 acbe cb99 c43d
00000310: d2f2 063e e290 8bbe 42ac 4f3c 737c 2dbe
00000320: 6e73 bd3c 13e1 3f3d af25 f03c cd22 77bd
00000330: 5c72 4b3c c364 b73d b6d4 053b 6887 8b3e
00000340: ac33 813d 2cd1 b1bd dd87 31be dffd 03be
00000350: 9d24 afbd 1113 a23d e851 c3bc 096e 9bbb
00000360: 16f4 2abd 08a9 353e 30da e63c aca9 823d
00000370: acac a1bd 1663 003e 7096 81bc 983a 203c
00000380: 86f8 36be 3be7 223e b762 8cbc bad2 f13c
00000390: 443a 843e a85a cf3d f9fe 4ebd af2b a4bb
000003a0: dc39 e8bd 135a dcbd 7cde 1fbe 8e0e 94bd
000003b0: 4ef0 9ebd e7ca 973d 2e8e 2c3d aad8 c83d
000003c0: 2499 c43b abb8 4f3d 7af4 a2bd 3e34 e6bb
000003d0: d54a 57bd 1af0 b33d d235 aabd 334a 383e
000003e0: 0a5d 70bd f121 1e3b 996a 333e 9547 f93b
000003f0: 5a24 7fbd dd8b 9f3d c051 eabc c5fc f6be
-0.09621315 -0.048043698 -0.21522178 0.104572184 -0.11060147 -0.058858994 0.48252538 -0.036521852
0.11335554 -0.13087305 0.06927633 0.008013181 -0.22421676 0.02695183 0.069364674 -0.023126327
0.06945994 -0.2408454 -0.061638422 -0.104760595 0.099908486 -0.1534688 -0.20799032 0.025011495
0.050505944 0.17276722 0.22107282 -0.004050048 -0.12219063 0.06065357 -0.018857626 -0.06655266
0.1355603 -0.35112447 0.06696118 0.0062828534 0.015030699 0.061317217 0.05537662 -0.04206629
-0.057421587 0.043341514 -0.039765753 -0.00658599 0.058398478 0.07672149 0.039935812 -0.12169395
0.0105469795 -0.06730745 -0.074572615 0.100116216 -0.07237223 -0.14228514 0.011754598 -0.029045392
0.049104575 0.009378386 -0.28206226 -0.14947179 -0.18751888 0.11434961 -0.124604456 -0.008485451
0.01305701 -0.008858913 -0.13266046 -0.0863676 0.0335668 -0.1919241 0.089899 -0.20271496
0.098025665 0.09108006 0.043774292 0.005089419 -0.055890374 -0.02400208 0.22640301 0.22134954
0.14647976 0.0111756595 -0.15210535 -0.14357834 0.03876502 0.018743197 0.038164668 -0.2735327
-0.13506629 -0.13813873 0.017043728 -0.03476592 -0.065551095 -0.0030322408 0.013049592 0.026942307
0.12920079 0.05165637 -0.08894368 0.11211994 -0.17216958 0.04579147 0.12921804 -0.014530857
-0.008116463 0.06224142 -0.10819673 0.06501968 -0.105324514 0.091826275 0.116052695 -0.013722894
0.06585195 0.088545896 -0.06411663 0.15482827 0.121101305 0.116902806 0.08034948 -0.11234512
0.09786134 -0.15222968 -0.018252946 0.06199003 -0.39084506 -0.020009883 0.06429037 0.19785161
0.14803816 -0.12089439 0.16924603 -0.09309651 0.12771477 -0.07029503 -0.26194587 0.060844485
0.10425194 -0.14378527 -0.029001852 -0.06032786 -0.026298746 0.009034037 0.26023787 0.046684094
-0.16522816 -0.054473776 -0.029684767 0.14966172 0.049651213 0.047605768 0.06507295 0.029065842
0.0013996362 -0.07983682 0.10553678 -0.029703757 -0.20189375 0.045913123 -0.032588642 -0.21091044
-0.058110204 -0.21304774 -0.15807463 0.24085733 0.16673842 -0.042965937 -0.044983342 -0.0032985078
0.039174892 -0.091316305 -0.17977616 0.07066963 -0.05135048 0.14000612 -0.0050596893 -0.122077614
-0.040826812 -0.12657909 -0.060749363 -0.1904644 0.02931215 0.20824091 -0.074615926 -0.018079551
-0.010948445 -0.064599514 -0.27251425 -0.009607595 0.19030784 0.10673906 0.2647413 0.13925532
0.08053984 -0.073794596 -0.33671096 0.09599646 0.13178566 -0.27258974 0.012675347 -0.16942005
0.02312633 0.046845507 0.029314844 -0.060335923 0.012417402 0.08954766 0.0020420975 0.27251744
0.06308684 -0.086824745 -0.17336984 -0.12889813 -0.08551905 0.07913793 -0.023842767 -0.004743342
-0.041736685 0.17740262 0.028180212 0.063800186 -0.07894263 0.12537798 -0.015818805 0.009779595
-0.17868242 0.1590852 -0.017136915 0.029519428 0.25825703 0.10124713 -0.05053613 -0.0050100903
-0.11339161 -0.10759368 -0.15612215 -0.072293386 -0.07760678 0.074117474 0.04212778 0.098069504
0.005999701 0.050713222 -0.079567865 -0.0070252707 -0.0525616 0.0878603 -0.08311047 0.17997055
-0.05868248 0.0024129117 0.17521133 0.00760741 -0.062290527 0.07790349 -0.028603435 -0.48239723

fc3.bias f4 [64]
00000000: 6085 bb3b 51c4 75be f6a5 9dbd c741 f83b
00000010: 8e96 9abd b9b8 743e 574b 7dbe 1564 573e
00000020: 28e2 60be 115c d5bd 1c34 333e 1f43 0abe
00000030: 0e37 293d 724e b7bd 2f98 5f3e 9831 213e
00000040: 6ea1 86bc 61ea 873d 704e aabd 543f 92bc
00000050: cdcf 0d3f ef05 c53b d821 4dbd 3885 603e
00000060: afe9 823d 569b ec3d 0b04 3a3e d61a 99bd
00000070: 5ba8 d4bd b4f6 113e 1981 00be 9011 8cbc
00000080: 9a8e 353e 107f a03d adf6 9cbd a337 083e
00000090: 9698 343e aeb4 503d ed46 0b3e 52bc 8bbe
000000a0: ced3 0c3e 3fda 3bbe de9c 173e 0160 483d
000000b0: 164d 563c b620 2abe fef2 bdbc 7a9d 543e
000000c0: 27b7 213e 4025 19be 2153 6dbd 1452 a9bc
000000d0: 0a94 18be 987c ffbd 8e2d dabd 9f0c 3c3c
000000e0: 245f a23c c654 023e 0450 ba3d 9179 053e
000000f0: 5ca2 233d 6cc6 c23d e38d 093d 748a 8b3c
0.0057226866 -0.2400067 -0.0769767 0.0075762006 -0.07548247 0.23898591 -0.24735771 0.21034272
-0.21961272 -0.10417951 0.17500347 -0.13502167 0.04131227 -0.08950509 0.21835397 0.15741575
-0.016434398 0.06636501 -0.08315742 -0.017852463 0.55395204 0.00601267 -0.050081104 0.21925819
0.06392228 0.115530655 0.18165605 -0.07475822 -0.10383674 0.14254266 -0.12549247 -0.017098218
0.1773018 0.07836735 -0.07664237 0.13302474 0.17636332 0.05095356 0.13601275 -0.27292114
0.13752672 -0.18344973 0.14805934 0.04891968 0.013079902 -0.1661404 -0.023187157 0.20763198
0.15792523 -0.14955616 -0.057940606 -0.02066902 -0.14900222 -0.12474936 -0.1065322 0.0114776185
0.019820757 0.12727651 0.09097293 0.13034655 0.03994976 0.09510502 0.03358258 0.017033793

fc4.weight f4 [1, 64]
00000000: 8a9c 203e 3944 2cbe 91ef 5abe 4cc5 ca3d
00000010: 4cef 0f3e 8688 833e af30 6a3f 6f33 58be
00000020: 6e1e 0e3e 2f4e 47be b3e9 ae3e 8107 7d3e
00000030: a16d 8cbe aa7e 8dbe 44ee d9be 74f1 40be
00000040: a521 fc3d 3a44 833e f65a 98be 3670 92be
00000050: b6e1 62be f893 723e 5f41 c7bd 0062 603e
00000060: df40 fcbd 4939 a33e c40c debe c07b 5ebe
00000070: 0019 38be 3ae5 80be b258 953e db14 6bbe
00000080: a0ed 36be 6efa c73d edb6 843e cc04 40be
00000090: 0fbb c8be dbc2 903e 2808 c33e e98c 4cbe
000000a0: dac7 fbbd 6002 6cbe 22b0 e03d 941f d83e
000000b0: 3be4 e33e 04be 7dbe 6ac2 26be fc75 4a3e
000000c0: e199 88be 113a dc3d 1857 65be 175b 87be
000000d0: 549b 5f3e 591a 6d3e 8467 51be 1003 de3e
000000e0: d072 813e 7774 3f3f 5cbe 4ebe 1088 a93e
000000f0: 563b 8c3e 390d 373e 316c 18be 4046 61be
0.15684715 -0.168229 -0.2138045 0.09900913 0.14056128 0.25690097 0.91480535 -0.2111337
0.13878796 -0.19463418 0.34162673 0.24709894 -0.2742739 -0.276357 -0.42564595 -0.18842107
0.12311105 0.2563799 -0.29756898 -0.28601235 -0.22156414 0.23689258 -0.097292654 0.21912384
-0.12317061 0.31879643 -0.43369114 -0.21726894 -0.17978287 -0.25174886 0.29169232 -0.22957174
-0.17864084 0.097645625 0.2592081 -0.1875183 -0.39205214 0.28273663 0.3809216 -0.19975628
-0.12293978 -0.23047781 0.10971095 0.42211592 0.44510064 -0.24779516 -0.162851 0.1977157
-0.266799 0.10753263 -0.22396505 -0.26436684 0.21836597 0.23154582 -0.20449644 0.43361712
0.25282907 0.74787086 -0.20189804 0.3311162 0.2738902 0.17876138 -0.14885022 -0.21999454

bn1.weight f4 [256]
00000000: 9482 883f 890b 5f3f 58dd 923f 734e 7f3f
00000010: a124 973f 3c14 883f 523e 003f f26f 833f
00000020: 9f5a 783f 1050 7c3f cc7e 343f 7c28 ed3e
00000030: 47a8 913f 4d6c 9c3f ae33 423f b03d 8e3f
00000040: 53ae 9a3f a5dc b03f 7729 b73f 3fad 933f
00000050: 4a81 9c3f 39f0 b23f 082b 733f c942 2d3f
00000060: 7cfd 983f 17ce b93f 8a60 993f 771b 9f3f
00000070: dfd3 bf3f 4315 a53f 0344 8a3f d001 8c3f
00000080: f557 a63f e241 9e3f 081a ba3f 255c 323f
00000090: eda5 923f 8eef fe3f 888c 883f 0270 933f
000000a0: bd9a 333f 1287 7f3f c889 a93f d01b df3e
000000b0: 88b2 af3f 1c81 8d3f 67b2 943f d856 f23e
000000c0: 9b2f 8e3f 2be3 b63e e7fd 6c3f d5ca a43f
000000d0: 451c b23f 56e4 913f 02a4 703f 3a72 133f
000000e0: e1aa aa3f b185 5e3f 5413 d83f 2c4b a13f
000000f0: 2e13 943f 8b5d a33f 01ad 903f 6bfa a13e
00000100: f39a 6f3f 36f1 1f3f 75e9 823f 03fe 843f
00000110: cca6 aa3f 2c77 a43f 1420 ae3f 0cc6 393f
00000120: e97c 873f 55db 973f bd14 a53f 13e5 a03f
00000130: 6468 443f e5f9 6f3f 501c 173f 6613 843f
00000140: 9659 af3f 7a4e cc3f 1655 8c3f 9af5 cf3f
00000150: 0735 4e3f 9574 433f 2245 433f 1366 a23f
00000160: 813d ea3e 190e ff3e 94f6 943f fd5b 263f
00000170: 3d8d 8c3f 790b 8b3f 84ba 653f 3bec 123f
00000180: 74a8 9c3f b6a5 9c3f cc9f 543f f28f 1a3f
00000190: bb97 c53f a91d 2d3f beb9 203f 4dfa 993f
000001a0: fa0e 283f 102f 123f 4116 293f c640 c83f
000001b0: 21c9 053f 8d49 683f d02f 963f 7047 0e3f
000001c0: 2124 ba3f 6444 8e3f d32b c83f ec3d de3e
000001d0: 9ecb 0b3f be90 923f c523 813f f709 c03f
000001e0: deac 623f 9ab7 8e3f cc70 9d3f 3f33 333f
000001f0: 0bbc d03e ae8e af3f 23ff 9c3f fcf4 cc3f
00000200: d1e9 983f abf6 023f 3dcd 6f3f f3bd cb3e
00000210: c01b 203f fcf1 e23e c5c7 033f 666f 983f
00000220: e20a 963f 0b64 dd3f d613 403f dbd6 8c3f
00000230: b864 bf3f ac1d a83f dabe e53f 786f c73f
00000240: 69eb 9e3f 30b0 223f a6bf c13f 9e22 6a3f
00000250: 7c88 b23f 6492 753f 72b5 9c3f 8285 d93f
00000260: b95e 763f a477 953f fc97 0e3f 0a48 9b3f
00000270: 7cc2 803f 5f5c 323f e14e 933f 99bd 513f
00000280: dcf5 613f 0e20 9c3f d80c a53f 5924 a13f
00000290: cc40 7e3f 4e69 353f 31e0 773f 64d8 8b3f
000002a0: d683 b73f 177d 363f 0523 b93f 09c9 683f
000002b0: 0050 a33f 28f4 9b3f 6919 983f 887f 963f
000002c0: 5c50 1c3f d776 7c3f ca90 2d3f 42aa 933f
000002d0: 8f88 833f 1824 0a3f f244 293f d4fd 8f3f
000002e0: 0ecd 033f 73d5 fc3e 9f20 ba3f cf81 903f
000002f0: 07bc e83f 83a8 563f 1c94 6e3f 415e 953f
00000300: 2152 de3f eb58 913f d4b8 c03f f59b 183f
00000310: a97b b33f 5c64 a13f b754 513f f9c4 913f
00000320: 2536 793f 8ce5 373f 16cd 423f cda8 833f
00000330: d537 073f a751 493f 1f12 833f 44f3 d23f
00000340: ba6f 823f 4b0d 913f c1c7 d73f da58 843f
00000350: 8407 903f 1a38 833f 5535 ab3f 07f5 1a3f
00000360: 9b27 9d3f 02df b93f 4106 463f 9d5f bc3f
00000370: 38a0 8a3f 3840 4e3f fa69 893f 39a4 a53f
00000380: 4173 193f 3101 983f 0ab6 603f 7499 d23f
00000390: 9eff c53f a513 a73f aec8 1e3f 26f1 a73f
000003a0: 5fdb 383f 3a8f 5f3f 3852 cf3f d4cd 4d3f
000003b0: e73b c03f a2c1 6d3f 2663 a53f a672 073f
000003c0: 21a7 983f d67b 2d3f cebe 8c3f 509e 053f
000003d0: 27a9 4f3f a0e5 9d3f da72 8a3f 3aaf 463f
000003e0: 5ac5 963f b209 8e3f 6523 ce3e d4ca b93f
000003f0: af16 7d3f b1a1 913f 76f3 273f b03d 953f
1.0664849 0.87126976 1.1473799 0.9972908 1.1808053 1.0631175 0.50095093 1.0268538
0.97013277 0.98559666 0.70505977 0.4631995 1.1379479 1.2220551 0.75860107 1.1112576
1.208445 1.3817335 1.4309529 1.1537246 1.2226956 1.397956 0.94987535 0.6768003
1.1952357 1.4516019 1.1982586 1.2430257 1.4986533 1.2897114 1.0802006 1.0938053
1.2995592 1.2363856 1.4539194 0.6967185 1.1456887 1.9916856 1.0667887 1.1518557
0.70157987 0.99815476 1.3245173 0.43575907 1.3726358 1.1055026 1.1616944 0.47331882
1.1108278 0.3572019 0.92574924 1.28744 1.3914877 1.1397808 0.94000256 0.5759617
1.3333398 0.86922747 1.6880898 1.2601066 1.1568353 1.2762922 1.1302797 0.31636366
0.9359581 0.62477434 1.0227495 1.0390018 1.3332152 1.2848868 1.360354 0.7256782
1.0584995 1.186381 1.2896954 1.2569908 0.7672179 0.93740684 0.59027576 1.031842
1.3699214 1.5961449 1.0963466 1.6246827 0.80549663 0.76349765 0.76277363 1.26874
0.4575005 0.49815443 1.163775 0.6498411 1.0980603 1.0862876 0.89737725 0.5739171
1.2238908 1.2238071 0.8305633 0.60375893 1.543693 0.6762338 0.6278342 1.2029511
0.6564785 0.5710306 0.6604958 1.5644767 0.52260023 0.9073723 1.1733341 0.55577755
1.4542276 1.1114621 1.5638374 0.43406618 0.5460757 1.1450422 1.0089041 1.5003041
0.88545024 1.1149781 1.2300048 0.7000007 0.40768465 1.3715417 1.2265362 1.6012263
1.1946355 0.51157635 0.93672544 0.39793357 0.62542343 0.44325244 0.514767 1.1908996
1.1722071 1.7296156 0.7503027 1.1003069 1.4952612 1.3134055 1.7948868 1.5580893
1.2415591 0.6355009 1.5136611 0.9145907 1.3947902 0.959265 1.2242873 1.6993868
0.96238285 1.1677136 0.5570066 1.213136 1.0059352 0.696722 1.1508447 0.8192993
0.88265777 1.2197282 1.2894545 1.2589217 0.9931762 0.7086381 0.96826464 1.0925412
1.4337108 0.7128462 1.4463812 0.90931755 1.2758789 1.2183886 1.1882755 1.175767
0.6106012 0.98618835 0.67799056 1.1536334 1.0276049 0.53961325 0.6612083 1.1249337
0.51484764 0.493816 1.4541205 1.1289614 1.8182381 0.8385088 0.93194747 1.1669389
1.7368814 1.1355261 1.5056405 0.5961297 1.4022113 1.2608752 0.8176989 1.1388236
0.97348243 0.71834636 0.76094186 1.0285889 0.5281957 0.78640217 1.0239905 1.6480489
1.0190346 1.1332182 1.6857835 1.0339615 1.1252294 1.0251496 1.3375651 0.6053013
1.2277712 1.4521182 0.7735329 1.4716679 1.0830145 0.8056674 1.0735466 1.2940742
0.5994149 1.1875364 0.8777777 1.645308 1.5468633 1.305287 0.6202496 1.3120468
0.72209734 0.8732792 1.6196966 0.80392194 1.5018281 0.92873585 1.2920883 0.52909315
1.1926004 0.67767084 1.0995729 0.5219469 0.8111748 1.2335701 1.08163 0.77611125
1.1778977 1.1096709 0.4026138 1.4515023 0.9886274 1.1377469 0.65605867 1.165945

bn1.bias f4 [256]
00000000: 24e8 05be d072 313c ce02 66bc 450d 9b3c
00000010: 4c4d 26bd 3f7c f4bc f014 a5bb dfc8 debb
00000020: a4cd 563c 463f b73c e658 afba ba7e 92bd
00000030: 1c00 d63c 27a2 143d 5cbe 86bc 3158 9bbd
00000040: 3b38 7ebc 5aac b73c a8e3 17bd 147f 843c
00000050: 977f efbc 0a4b b1bc 1e44 973b c41c 8a3d
00000060: b061 a4bc 7b9d 34be 2be9 15bc 547d 89bc
00000070: fe21 30bd 8ffe 83bc 1744 a13c 1597 07bc
00000080: 61a0 8cbc f531 a8bd 5602 e6bc 98c5 f6bc
00000090: 0e5e 50ba 9be0 95bc 7843 ed3d c86a c33c
000000a0: 1a20 b03c 07ee 2a3d bf81 95bc c7ff 18bd
000000b0: d29a d1bc 1dcd 4f3d 03f5 19bd 2515 84bc
000000c0: 4a43 143d 926b 2cbd cf80 11be 697f e3bc
000000d0: bb17 a0bc 2baa c9bc b192 83bc 588f 17be
000000e0: 4a16 82bd 6bcc f3bc 3a29 04bd 91a0 18bd
000000f0: 2c86 043b e652 fa3c 3235 593b 2c55 67bc
00000100: c655 a63b 47fe 48bd 1792 fe3c 458e 963c
00000110: 2bf2 c9bc 2802 d0be 0414 013d dde4 97bb
00000120: 693b 30be 88f3 52bc 8cd2 21bd 359a 043b
00000130: 49ae 1abc 6aa0 813b 9301 d4bc df04 143c
00000140: 8bc7 a1bc 29fc 30bd add5 ff3c 2f65 15bd
00000150: 33b9 35bd 9244 aebc cb17 013c b5dd 813b
00000160: 2d7e a4bd d044 013c 6169 cf3b dcc3 c23c
00000170: b107 0c3b 762e 043d e60d d739 2a3d 55bc
00000180: 723d 48bc a9c5 a0bc d2f9 61bd 0b50 0dbc
00000190: 277f 93bd 65b8 42bc 1cc6 023c d871 c83c
000001a0: 8155 b2bb 3f4c 26bd 5f93 a3bc c2f4 bcbc
000001b0: 97da 6abc 3f56 db3c 3d44 e33c 0d76 78bd
000001c0: a36a 0cbd 1de8 86bd c93f 3b3c 2260 d9bd
000001d0: 7f9a 7ebd 87a1 1fbd 5038 b03c 0338 dbbc
000001e0: f395 af3c b4cb a3bc 1478 afbc 4d8d 42be
000001f0: f0b3 6bbd 8247 f4bc ecdf 32bc 27d6 3bbc
00000200: 0b0a 3fbd 6737 7fbc 188c e23c 26a8 f5bd
00000210: 0767 50bd 3ce4 ac3b f88c fe3b 51fb bbbb
00000220: acd3 003d 011c ca3c 8ff9 d53d 694d 0c3d
00000230: df50 c5bc def2 10bd 11d2 00bd c13f 0ebd
00000240: ceb3 50bc eaa1 98bc b74f d2bd be50 6b3c
00000250: 5b5e 0cbd f366 00bd d6a6 a4bc 8dea f4bb
00000260: 8a6a 72bd a1fa c33d aec0 1eb7 7f52 803c
00000270: 1490 38ba dce7 b4bc f736 40bc b398 c23b
00000280: f7d6 493c a22d 0bbd 6a40 be3c 4e18 aabc
00000290: daac 113d a543 bebd 28b0 693d 90f6 093d
000002a0: 234d 3abc 8475 8dbe 2fa4 04bd 5df7 eb3d
000002b0: 565a 03bd 8cb0 e5bc 2b3b e0bb f695 a7bc
000002c0: 5ab2 ce3a 045d eb3c 8ef8 54bc 22a6 debc
000002d0: 8034 8abd 1a86 04bc 64a0 a13b 4598 863d
000002e0: 472e 2b3c f99d 0ebe da0e 45bd 15bd 213d
000002f0: fcc6 91bb 5aa3 02bb f6a2 863c afc7 e83c
00000300: 4948 74be d279 d1bc c1ec f0bc 6f31 9abc
00000310: 1204 35bd 52e1 f3bc fed7 933a d407 e6bc
00000320: e6bf 053a 6e87 663c 71b6 76bc 8851 343d
00000330: 0816 96bb 669e c43c d71e f93c 7be6 aebc
00000340: 1663 d23c e33c 4c3b c56e 0ebd c9df a13c
00000350: 1653 0a3d 8b46 1abc 55ff 41bd f022 bfbc
00000360: f007 0e3d fd9e 0cbd 855f 913c 852e a4bc
00000370: de89 043d 535a 533a d7ca 1f3c 9518 aabc
00000380: 3422 7a3c 1d9f 883c 4992 193b 167c c3bc
00000390: 1cf8 04bc 6e53 8fbd b941 683b 2142 dcbc
000003a0: 0c75 353c d1cf eb3c deb5 af3c 0789 343d
000003b0: eb87 aebd e0c2 32bc 3308 c3bc 27b4 74bd
000003c0: eff5 aabc 80d6 14bc 22a7 f03a 7298 48bc
000003d0: f933 893c f3c7 a9bc 59b0 b43c 9102 8d3b
000003e0: 9936 7fbd 1813 b13d 1db1 373b 12fb babc
000003f0: cbe0 cc3c 338c 62bc 0a59 44bc 3b17 913b
-0.13076836 0.010830596 -0.014038755 0.018927226 -0.04060106 -0.029844401 -0.0050378963 -0.006798848
0.013110552 0.022369038 -0.0013377934 -0.071530774 0.026123099 0.036287453 -0.016448192 -0.075851806
-0.015516336 0.02242105 -0.037082344 0.016173877 -0.029235644 -0.021642227 0.0046162745 0.06743768
-0.020066112 -0.17638199 -0.00914983 -0.016783394 -0.043001167 -0.016112594 0.019685788 -0.008275767
-0.017166318 -0.082126535 -0.028077286 -0.030123517 -0.00079485856 -0.018295577 0.11585134 0.023854628
0.021499682 0.041730907 -0.018250344 -0.037353303 -0.02558652 0.05073272 -0.037587177 -0.016123364
0.036196984 -0.042094775 -0.14209293 -0.027770715 -0.019542566 -0.024617275 -0.016061159 -0.14800775
-0.063519076 -0.02976056 -0.03226588 -0.037262503 0.0020221574 0.030557107 0.003314328 -0.014119428
0.005076143 -0.049070623 0.03107552 0.018378386 -0.024651607 -0.40626645 0.03151323 -0.004635437
-0.17210163 -0.012875445 -0.039507434 0.0020233516 -0.009440967 0.0039558904 -0.025879657 0.0090343645
-0.01974847 -0.04320923 0.031229818 -0.03647345 -0.044366073 -0.021272931 0.007879208 0.003963197
-0.080318786 0.007889941 0.006329701 0.023775034 0.002136689 0.03227087 0.0004101835 -0.013015071
-0.012221681 -0.019625502 -0.055169888 -0.008625041 -0.07201987 -0.011884783 0.007981803 0.024468347
-0.0054423218 -0.040600058 -0.019967733 -0.023065928 -0.014334342 0.026774524 0.0277425 -0.060659457
-0.034281384 -0.06587241 0.011428782 -0.10614039 -0.062159058 -0.038972404 0.021511227 -0.026760107
0.021433806 -0.019994594 -0.021419562 -0.18999214 -0.05754465 -0.029819254 -0.010917645 -0.011464632
-0.046640437 -0.015577174 0.027654693 -0.119949624 -0.050879505 0.005276231 0.0077682696 -0.0057367464
0.031451866 0.024671556 0.1044799 0.03425351 -0.024086414 -0.035387866 -0.031450335 -0.03472877
-0.012738181 -0.018631894 -0.10269111 0.014362512 -0.034269672 -0.03134818 -0.020099085 -0.0074742497
-0.059183635 0.09569288 -9.462396e-06 0.015664337 -0.0007040512 -0.022083215 -0.011731855 0.0059386133
0.012319318 -0.033979066 0.023224074 -0.020763543 0.035565235 -0.09290246 0.05705276 0.033682406
-0.01137093 -0.2762872 -0.03238314 0.1152179 -0.032068573 -0.028038286 -0.006842991 -0.02045725
0.0015769706 0.028730877 -0.012998713 -0.027178828 -0.06748295 -0.008088613 0.00493245 0.06572012
0.010448045 -0.1392745 -0.048109867 0.039486963 -0.0044487696 -0.001993379 0.016435128 0.028415529
-0.238557 -0.025570784 -0.029409768 -0.0188224 -0.044193335 -0.029770527 0.0011279581 -0.028079905
0.00051021425 0.014070375 -0.015058146 0.044023067 -0.004580263 0.024001312 0.030410213 -0.021350136
0.025682013 0.003116422 -0.034773607 0.01976003 0.033770643 -0.009416233 -0.047362644 -0.02333209
0.03467554 -0.03433131 0.017745743 -0.020041713 0.032358043 0.00080624706 0.009752951 -0.020763675
0.015266944 0.016677434 0.002343314 -0.02386288 -0.0081157945 -0.06998335 0.0035439564 -0.026887001
0.011075269 0.028785618 0.021449026 0.044075992 -0.08522018 -0.01091072 -0.02380762 -0.05974212
-0.020869223 -0.009084344 0.0018360356 -0.012243377 0.016748415 -0.020725226 0.022056745 0.0043032845
-0.062307928 0.0864622 0.0028029152 -0.022824798 0.025009533 -0.013827371 -0.011984119 0.004427818

bn1.running_mean f4 [256]
00000000: d9eb 5ec0 4ea4 db3f de7b 15c1 f2aa 09bf
00000010: 9645 69bf facf 6bbf 8477 db3f bf27 55bf
00000020: 9362 b9bd 662c 1d3f 4d15 3d3f ca69 c33f
00000030: 0e70 8abd 22d5 ca3d b057 7140 ce16 fac0
00000040: face 18c1 a2c0 03c0 8faa 02c0 3097 3140
00000050: 3ded 0bc0 cd53 2cc2 c1e6 373f e0b6 3040
00000060: 059d 49c0 fa62 dfc0 2d38 90c1 31b9 43c0
00000070: e762 34c0 fdd3 36c1 1a1e 723d 44b2 53c1
00000080: 18b3 11c2 c679 87c1 d063 a8c0 a0a4 3b40
00000090: 2f95 4fc1 60f5 8fc0 c86f 25c1 a297 c63e
000000a0: bb26 403f ad51 583f b0df edc1 9bc4 4fbe
000000b0: 5d14 acc1 6176 08c1 1c56 46bf 3d34 643f
000000c0: 2401 e1c0 a58c a240 1b3a a73f a850 09bf
000000d0: fc43 6bc1 0c32 87c0 13aa 603e ce7b ec40
000000e0: fa20 17c0 9c39 5c40 8b11 81c1 e6de 42c0
000000f0: f347 0cc0 9396 8cc0 1267 10bf 8a4a a140
00000100: 8435 8d3f 8226 243e 00c7 1840 a76f 843e
00000110: 4dc6 36c0 6acc e2c0 99d1 1b3f 6d6a f13f
00000120: 7f8f 15c1 2164 0bc0 c99f 68c0 4bb1 33c2
00000130: d3b3 763e 3025 103f ba0f 5e40 a017 e83f
00000140: 07cf c0c1 c451 8dc1 0cc7 8d3f 2543 fac1
00000150: 81ad 82be 0ce6 4440 67a3 e240 2485 edc1
00000160: f484 7840 89b4 1641 7208 8e3f 2945 143f
00000170: 60e0 3f3e f42b 06c1 0c3e 6dbf 0fb2 b740
00000180: 4f60 f3bf 7048 10c0 5e85 003f 3111 8e3f
00000190: a21f afc1 0217 723d f3b0 3640 45b3 0f40
000001a0: b4dd 763e 1e43 5e40 5700 8c40 fe12 30c2
000001b0: 3f05 7940 fce8 d03f d0c0 91c0 dad0 4340
000001c0: f8f3 87c2 3fdf 1ac0 948c 13c1 e285 8a3f
000001d0: 37b2 1640 ac39 1ebe 3c04 22c0 e991 32c2
000001e0: d91d 9840 6167 9ac1 f760 0bc0 a108 073f
000001f0: d7d7 8440 607f 3cc0 6ad2 2ac1 041a 03c1
00000200: 4ca3 bbc0 44d1 fe3f e412 b93e 175f d13f
00000210: 98ab 8540 cbe0 e540 3ea1 2940 63d3 46c1
00000220: f340 fe3f 6dd9 1ebf 1afd ca40 43f9 683f
00000230: abbe 0ec0 45ac 08bf cf75 20c0 d36e ddbf
00000240: 71da 3cc1 c69d 753f c3f4 66c0 0b34 b2bf
00000250: 308b fbc0 7f5c 5fc1 66c5 a8be caa0 55c0
00000260: 36a0 48c0 2550 28c0 ddbb 6240 d40f a3c0
00000270: 19ef 64c1 107f d33f ce32 f9c0 7007 8740
00000280: 41ff c93f 9b64 b8bf 4bcb bbbd 16eb bbc0
00000290: 604a d73e 22e7 2dc0 c307 62bf adad 443f
000002a0: 5042 8cbe eb79 8440 bd45 83c0 88d3 223f
000002b0: 46ba 16c1 90db 8ac0 62f2 0bc1 791f 3bc1
000002c0: 284b 583f de50 62bd 7565 f93f 6a03 9ec1
000002d0: 41b9 52c0 d080 5540 cf1b b5be 241f 0dc1
000002e0: 24d8 b540 5834 b940 9c9c babf 8614 dec1
000002f0: 73c7 04c0 fb04 8e40 c8d0 433f 4f2f cfc0
00000300: 769c 16c1 a031 c0c1 d932 a3c1 950c 9c40
00000310: 5c6f b3bf af39 80c1 7d94 b23f f215 82c0
00000320: ee30 843f 18f7 3d40 d6f4 56bf 915c b43f
00000330: 1449 8cc0 4dcd d83e 8266 373f 3974 a1c0
00000340: ab9c db3f 7425 65c0 f0b4 5cc0 e4f3 06be
00000350: 6929 593f cbee e63f 5db7 70c1 c76b 2c40
00000360: 83b6 10bf f3b0 47c2 7e4a 17bf daa3 a0c0
00000370: 72fb 8d3f f401 1b40 2d87 0440 6a44 d0c1
00000380: f386 893f bc0e 06c1 5e1c 6b3e 2a2a 80c1
00000390: 1b64 f4c1 ab35 d8c0 4aec b040 fb1e 9abf
000003a0: 23e2 1940 a01f cc3f 9ceb c8bf f8b5 473e
000003b0: 15cb 14c1 3de2 3dc1 0e44 42c1 0e6b f23f
000003c0: db89 78c1 71bd 1940 17bf 2ec1 582e e33e
000003d0: efbd 82be f87a c4c0 1d2d 913f c6c3 883f
000003e0: 86c1 cfbf 6df3 74c0 f12a 5041 d051 8ec0
000003f0: 6af9 d9c0 a808 f3c0 aee3 2d40 e3d3 97c1
-3.483145 1.7159517 -9.342741 -0.53776467 -0.91121805 -0.9211422 1.7145848 -0.8326377
-0.09052005 0.6139587 0.7386063 1.5266659 -0.06759654 0.09903933 3.770977 -7.815284
-9.550531 -2.0586324 -2.04166 2.7748528 -2.1863549 -43.081837 0.7183648 2.7611618
-3.1502087 -6.980832 -18.02743 -3.0581782 -2.8185365 -11.426755 0.05911074 -13.231022
-36.424896 -16.93446 -5.262184 2.931923 -12.973922 -4.498703 -10.33979 0.38787562
0.750591 0.8449963 -29.734222 -0.20289843 -21.509943 -8.528901 -0.7747514 0.8914221
-7.031389 5.0796685 1.3064607 -0.53638697 -14.704098 -4.224859 0.21939878 7.390113
-2.3613877 3.4410162 -16.133566 -3.0448546 -2.1918914 -4.3933806 -0.5640727 5.040349
1.1031957 0.16030315 2.387146 0.25866434 -2.8558533 -7.087453 0.60866696 1.8860604
-9.347533 -2.1779864 -3.6347525 -44.923138 0.24092035 0.56306744 3.4697099 1.813221
-24.101088 -17.664925 1.1076369 -31.282785 -0.25522998 3.076541 7.0824466 -29.69001
3.8831148 9.419076 1.1096327 0.5791803 0.18737936 -8.385731 -0.926728 5.7404857
-1.9013766 -2.2544212 0.502035 1.1098996 -21.890446 0.059103973 2.8545501 2.2453167
0.2410801 3.4728465 4.3750415 -44.018547 3.8909452 1.6321101 -4.5547867 3.0596223
-67.9765 -2.4198759 -9.221821 1.0822108 2.3546274 -0.15451688 -2.5315084 -44.64249
4.7536435 -19.300478 -2.1777933 0.5274754 4.1513476 -2.9452744 -10.676371 -8.193851
-5.8636837 1.9907613 0.36147225 1.6357144 4.1771965 7.1836905 2.6504664 -12.426608
1.9863571 -0.62050515 6.343396 0.91005343 -2.2303874 -0.5338786 -2.5071905 -1.7299446
-11.80333 0.9594387 -3.608689 -1.3922132 -7.8607407 -13.960082 -0.32963103 -3.3379388
-3.1347785 -2.6298916 3.5427163 -5.095682 -14.308373 1.6523151 -7.7874517 4.219658
1.5781022 -1.4405702 -0.091696344 -5.872447 0.4204893 -2.7172322 -0.88293093 0.7682751
-0.27394342 4.1398826 -4.102263 0.6360402 -9.420477 -4.339302 -8.7466755 -11.695184
0.8448968 -0.055252902 1.9484087 -19.751667 -3.292557 3.335987 -0.3537278 -8.820103
5.6826344 5.7876396 -1.4579043 -27.760021 -2.0746734 4.438108 0.7649045 -6.474525
-9.413198 -24.024231 -20.399828 4.876536 -1.4018359 -16.028166 1.3951565 -4.065179
1.0327432 2.9682064 -0.8396734 1.4090749 -4.3839207 0.42344132 0.7164079 -5.0454373
1.7157186 -3.580411 -3.4485435 -0.13178974 0.8482881 1.8041624 -15.044766 2.6940782
-0.5652849 -49.922802 -0.5909804 -5.0200014 1.109236 2.4219942 2.0707505 -26.033405
1.0744308 -8.378597 0.2296004 -16.020588 -30.54888 -6.7565513 5.528844 -1.2040704
2.4044273 1.5947151 -1.5696902 0.1950301 -9.299581 -11.867734 -12.141615 1.893892
-15.533656 2.4021876 -10.921653 0.44371295 -0.25535533 -6.140011 1.1341892 1.0684745
-1.6230934 -3.8273575 13.010484 -4.447487 -6.811696 -7.5948067 2.7170215 -18.97846
