input/model/ANN_like_dan_not_gan.pth (torch, 225575 bytes, 19 tensors)

fc1.weight f4 [256, 44]
000000 13 93 c1 3d e9 6a 3f be 9d 8a e2 3b 24 ae 42 3c
       0.0945188 -0.18693127 0.0069134966 0.011882339
000010 ff fc e8 3d e1 24 7d 3d 72 b9 70 3d ff fe 35 3e
       0.1137638 0.06180275 0.058770604 0.17773055
000020 9d 74 e6 bd 72 84 11 3d 3f 3b 88 bd 30 e8 03 be
       -0.11252711 0.0355267 -0.06651925 -0.12881541
000030 b3 34 3a be 8a 12 46 3d 83 23 46 bb d7 91 87 bc
       -0.18184166 0.048357524 -0.003023357 -0.016549034
000040 66 8b 38 be 8d 21 8f 3e 9b 9c 58 be 30 99 2c 3f
       -0.18021926 0.27955285 -0.2115349 0.67421246
000050 76 3b 3f be d2 63 10 bf e0 0b 5f be 42 50 7f 3d
       -0.18675026 -0.56402314 -0.21781874 0.0623324
000060 25 81 db 3d 5c d2 07 3e 5b 8a d6 bd 96 ed 7c bd
       0.10717992 0.1326384 -0.10475608 -0.061750017
000070 19 ee 1d 3d f5 31 90 be 7c 21 a1 be 22 e8 2b be
       0.038557146 -0.28163114 -0.3147086 -0.1678777
000080 86 b5 9a be 75 8b ab 3e 38 fb af be cf c5 a0 3e
       -0.30216616 0.33504835 -0.34371352 0.31400916
000090 71 cf f9 3c 3d 37 8d be 76 02 8b bd 51 de 0e 3d
       0.030494424 -0.27581206 -0.06787579 0.034879986
0000a0 0c 80 ac 3e 41 fa 83 3d 66 76 3f 3d 86 6f c5 3d
       0.33691442 0.064442165 0.046743773 0.09640412
0000b0 c7 04 d9 3a b7 7b d5 3c 8e 9e d6 be 6c be 43 be
       0.001655721 0.026059968 -0.41917843 -0.19115609
0000c0 b4 58 0c bd d5 4e 3b 3e a5 20 4a bd ca fc 3e be
       -0.03426428 0.18291791 -0.04934754 -0.18651119
0000d0 55 bc a3 bd 26 3d 9e 3f fd c0 d0 3e cb 1b 6d be
       -0.07994906 1.2362411 0.40772238 -0.23155133
0000e0 44 d7 d7 bd 20 dc 49 bd b1 70 b9 bc 82 2d 4f bc
       -0.105391055 -0.049282193 -0.022636743 -0.012645127
0000f0 4b d1 f9 3e 3e 2a c3 3d 45 4d 4d be e6 b9 97 3d
       0.4879249 0.095295414 -0.20049007 0.07408504
000100 22 f4 b5 be cf 4f 07 bf a0 f1 b2 bd cb 84 58 3e
       -0.3553782 -0.52856153 -0.087374926 0.21144406
000110 95 b7 f6 3e 0f e8 35 3d 2a 11 01 3e db f4 ab 3d
       0.48186937 0.04441076 0.12604204 0.08396312
000120 19 ab 33 3e c9 60 47 3f e5 b7 0b bf 53 6d 3c 3e
       0.17545737 0.7788206 -0.54577476 0.18401079
000130 99 1d 44 3e 00 82 53 3e 86 dd 36 bf 3b 1b 0c bd
       0.19151916 0.2065506 -0.7143177 -0.034205656
000140 ed 17 ef bd 27 22 95 be 48 15 c0 be 35 da 1f 3e
       -0.11674485 -0.2912762 -0.37516236 0.15610583
000150 29 0f 8a 3e 2b 22 b2 bd f6 4b f6 bb 15 e0 e5 3d
       0.2696469 -0.08697923 -0.0075163795 0.11224381
000160 55 04 54 bd f8 b0 45 bc 57 e2 f2 3c e6 49 32 3e
       -0.051761944 -0.012066118 0.029648943 0.17411003
000170 c2 d3 73 3e cb 5e 46 be 63 00 02 bd 73 10 ba bd
       0.23811248 -0.19372098 -0.03173865 -0.09085169
000180 2b 87 91 3e 31 f3 84 3f 1f 7d ba bc ff 3d bd 3e
       0.28423437 1.0386716 -0.02276474 0.36961362
000190 fe e4 8f 3e 65 b5 5e bb b2 6a b2 bc b1 ee 02 3c
       0.28104395 -0.0033982631 -0.021779392 0.007991479
0001a0 18 73 2b 3f 73 70 31 bf b2 cb 13 3f 38 cb 86 bf
       0.66972494 -0.6931221 0.5773269 -1.0530767
0001b0 04 24 a0 bf c9 82 7c bf 0f 32 48 3e cb 91 7d bd
       -1.2510991 -0.9863706 0.19550346 -0.061906617
0001c0 1f 31 39 bf cc 32 79 3f 8e a7 22 3f 29 0b f6 3e
       -0.7234058 0.97343135 0.6353692 0.4805539
0001d0 89 73 45 3f e5 e4 a1 bf d6 1a ad bf 6b f6 1f 3e
       0.7712942 -1.2647978 -1.3523815 0.15621345
0001e0 93 ef 9f 3d 84 7e e3 3e 07 8c 4e 3f 1a 75 3a 3d
       0.07809367 0.4443246 0.80682415 0.045521833
0001f0 f5 57 e7 3e 9f 0f 7d be 78 9b 47 bf 23 4d c3 be
       0.45184293 -0.2471299 -0.779716 -0.38144788
000200 15 92 01 bf 58 dd f1 3e 27 33 c8 3d f0 c7 56 3e
       -0.5061353 0.47239184 0.097753815 0.20974708
000210 f0 f8 c2 bb bf 65 8e 3d 9b 60 8a 3d da 9a 14 bf
       -0.005950086 0.06953 0.06756707 -0.58048785
000220 bd 8b a8 bd 03 63 43 bf 8b c7 17 bf a3 5e c8 bf
       -0.08229778 -0.76322955 -0.59288853 -1.5653881
000230 9f 1e ae 3e fe 7d 56 bf 3c 17 ef bd a2 5f 72 3e
       0.34007737 -0.83786 -0.116743535 0.23669294
000240 d1 09 34 3f a7 5b 28 bf e8 60 55 3d 40 f7 f1 3c
       0.7032748 -0.6576485 0.05209437 0.029536843
000250 7e be 1f bf fc a3 a4 3f 42 02 4e bf e4 e9 df bd
       -0.62400043 1.2862544 -0.80472195 -0.10933283
000260 e9 3a 65 3f 77 79 96 be 5b 15 9c bd 46 61 3a bf
       0.89543015 -0.29389545 -0.07621261 -0.7280468
000270 c9 3b 45 bf 7a b4 a4 bd 7f a6 ce 3e a6 0c 17 be
       -0.7704435 -0.08042236 0.403614 -0.14750919
000280 f1 c7 00 bf 64 26 09 3f b3 31 91 bf 4c 11 e8 3d
       -0.50305086 0.53574204 -1.1343292 0.11331424
000290 e4 ec 4e bf 93 52 12 3f 39 41 f0 3e 1e 0a b3 3e
       -0.80830216 0.5715725 0.4692476 0.34968656
0002a0 73 26 e4 3f 5f 2c 31 3f 46 8e cd be 28 3b 1a 3f
       1.7824234 0.6920833 -0.4014761 0.60246515
0002b0 7b 89 4b 3e ef 78 59 bf cc 62 0c bf 7b fc 29 3e
       0.19876663 -0.84950155 -0.5483825 0.1660022
0002c0 3d 02 78 3d 04 e7 f3 3d ec 2a 1d 3d 2b 5b 96 be
       0.06054901 0.11909297 0.03837101 -0.2936643
0002d0 b5 c7 6e 3f 3a 18 db be cf e3 54 be 2b 5b a6 be
       0.9327348 -0.4279192 -0.20790027 -0.3249143
0002e0 4f 51 c8 bf b9 47 21 bf ac 6b 87 bf 8a 92 84 3f
       -1.5649813 -0.63000065 -1.0579734 1.035722
0002f0 f5 e1 bb 3e 7b c0 72 bf 1f 91 7b bd be 82 ab 3c
       0.3669583 -0.9482495 -0.061417695 0.020936366
000300 63 0c 53 bf 87 9d ab 3f 45 e4 74 bf ff 12 6a be
       -0.82440776 1.3407449 -0.9566081 -0.22858809
000310 e7 b2 a0 3f e6 fb 50 3e 8a 56 e7 bd ca 2e bf 3d
       1.2554597 0.20408592 -0.11295803 0.09335096
000320 0c cc 3f 3f 76 f3 a2 be d4 34 97 bf 90 07 fc be
       0.74920726 -0.3182637 -1.1812997 -0.4922452
000330 bd 02 71 3e ec aa 5a bf 08 de 93 be 50 2e 94 3d
       0.23536201 -0.85417056 -0.28880334 0.07235396
000340 d2 d9 42 be 06 a9 7c 3f 28 d6 fb 3f ef e7 4d 3f
       -0.19028404 0.9869541 1.967473 0.8043203
000350 09 57 33 bd f4 ed cf 3f d0 fa 12 3f 12 33 f0 be
       -0.043784175 1.6244493 0.5741396 -0.46913964
000360 e4 b2 29 bf dd d0 49 be 6a 82 ad be a4 84 89 bf
       -0.6628859 -0.19708581 -0.3388856 -1.0743604
000370 27 8c 9f 3a 20 4d 69 3b 7b 40 8b bd 80 41 c6 3d
       0.0012172506 0.0035598949 -0.06799408 0.09680462
000380 9a 53 c7 be 03 69 38 3e df ea 2b bd c3 42 7e bd
       -0.3893097 0.18008809 -0.041972037 -0.062075388
000390 7b 6f 34 bf a4 91 3a bf fd 73 c4 3c 8e 3c 84 be
       -0.70482606 -0.7287848 0.023981089 -0.2582745
0003a0 76 f3 57 be 42 05 c6 3d ae b8 04 bd 9f 30 67 bc
       -0.21088967 0.096689716 -0.032402687 -0.014110713
0003b0 ff ec b1 bd ea 24 82 3e 4c 47 1b be eb 8e e0 be
       -0.086877815 0.25418788 -0.15163916 -0.43859038
0003c0 72 0a 4a 3e 6b 88 35 3f 23 9b ed bd ed a2 14 3d
       0.19730547 0.7091128 -0.116018556 0.03628819
0003d0 fe 6c 0e 3e 94 7d ef 3d e5 41 72 3e 68 4f 2c 3e
       0.13908765 0.11693874 0.2365795 0.16827166
0003e0 7b f3 5a 3d 19 64 c1 be 35 7b 30 bf e6 f5 f3 bd
       0.053454857 -0.3777168 -0.68938 -0.11912136
0003f0 02 09 37 bc 0c da 6e 3f 12 1d 12 3f 9c 6f 80 3e
       -0.011171581 0.93301463 0.5707561 0.2508515

fc1.bias f4 [256]
000000 3e c7 87 bd 46 d8 54 3e bd 1a 8c bd 02 4f 8b 3c
       -0.06629799 0.20785627 -0.068410374 0.017005447
000010 9b 5d 90 bd c5 0d f4 bb 0a 59 fa bb 61 27 f4 be
       -0.07049104 -0.0074479305 -0.007640009 -0.47686294
000020 9c 6d 1e 3e 21 df 49 be 60 2f 5b be 41 ea 24 3e
       0.154715 -0.19714023 -0.21404791 0.16104986
000030 9d 82 6c 3d 23 d0 76 3d cb fb 08 3e 40 54 17 be
       0.05774175 0.06025709 0.13377301 -0.14778233
000040 20 c4 89 be 70 08 2d 3a 85 55 ab bd 5c 5c eb bc
       -0.26907444 0.00066006836 -0.08365921 -0.028730564
000050 95 a7 2b be 18 ef de bd ae c3 38 be 38 0b 63 3e
       -0.16763146 -0.10885447 -0.18043396 0.22172248
000060 ac 12 83 3d c6 ca e5 bb 34 92 21 bd e8 06 ba 3c
       0.06400046 -0.007012698 -0.03944607 0.022708371
000070 27 66 5d bd 86 ea 3f 3c ff 5b ba 3e b4 9e e9 bd
       -0.0540525 0.01171363 0.36398312 -0.11407223
000080 9d f1 a9 bc 2e 94 0a be c5 3a e5 bd c4 88 ec bd
       -0.020745093 -0.13533089 -0.1119285 -0.115495235
000090 fc a6 a5 bd 68 67 87 bc 95 eb 1a 3e 65 e4 3b be
       -0.0808849 -0.0165288 0.1512893 -0.18348844
0000a0 10 df cb 3d 28 56 ca 3e d0 12 62 bc c0 de 09 3b
       0.09954655 0.39518857 -0.013798431 0.002103731
0000b0 5c df d3 3b 4f b1 c1 bc 52 1d ee 3d c1 53 28 be
       0.0064658355 -0.023644118 0.11626686 -0.164382
0000c0 2f 60 f3 bc 17 ff 57 3b ff 62 85 bc d6 41 a5 3a
       -0.02970895 0.0032958442 -0.016282557 0.0012608122
0000d0 dd 01 48 3e e1 2f fc bc 2d 03 cc bd c4 66 90 bd
       0.19531961 -0.03078455 -0.09961543 -0.07050851
0000e0 da 8f df 3c 96 20 39 3d fe 01 05 be 90 6a 49 3e
       0.027290273 0.045197092 -0.12989041 0.19669557
0000f0 5a 3c 92 3d 4f c9 90 3e 41 6f 95 be ca 1e fb bd
       0.071404174 0.28278586 -0.29186442 -0.12261732
000100 7d 7d df bc a2 b5 79 be 21 64 61 3e fa 7e 0a be
       -0.027281517 -0.24385694 0.22010852 -0.13525
000110 d3 a4 12 bc 6c 66 c4 be 96 0c 62 3d 3c 6b 63 3e
       -0.00895043 -0.38359392 0.055187784 0.22208875
000120 67 fa ec 3e 62 8b fd bb 1e a2 4f 3d 14 06 1b be
       0.46284792 -0.007737563 0.050691716 -0.15139037
000130 62 66 a0 bc 27 8d 34 be f8 6c 97 3d 85 c8 ae 3d
       -0.01958007 -0.1763197 0.07393831 0.0853434
000140 7d 8f bf 3c 8b 17 d5 bd 3f 2b 2d bd 9e dc 20 3e
       0.02338385 -0.10404881 -0.04227757 0.15709159
000150 93 85 22 3e 9e b3 6b 3d 55 b7 49 3e e9 a7 0b 3e
       0.15871267 0.057544343 0.19698842 0.13638271
000160 90 35 46 be 57 55 3d bd 05 a9 a2 3d 08 44 42 bd
       -0.1935637 -0.046223965 0.07942394 -0.04742816
000170 bc df a4 3c 09 1c bd 3d ef 3b b3 bd 88 a3 78 3d
       0.020126216 0.09233863 -0.08751666 0.06070283
000180 2f 9f 18 3d 09 c0 31 3d 00 8c 54 be 5c e1 76 3d
       0.037261184 0.04339603 -0.20756531 0.060273513
000190 ba d5 37 3d cc 83 e2 3d ae ad c1 3c 2e 4a d9 3d
       0.04488156 0.110602945 0.023642387 0.10609852
0001a0 d4 6f 48 bd 2a ab 20 3e a7 78 38 bd f4 5f fe bc
       -0.048934773 0.15690294 -0.045036938 -0.031051613
0001b0 5e c4 b4 bc ea 40 7e be 46 bf 61 3d b6 84 1c bb
       -0.022066291 -0.2482945 0.055114053 -0.0023882813
0001c0 6d 75 8f bd 13 65 a9 3e 2b 6c 71 bc d5 7b 4e bd
       -0.07004819 0.33084926 -0.014735262 -0.050411064
0001d0 ef 3c b0 be 28 af 59 3d 59 10 22 3c 1c c0 ac bd
       -0.3442149 0.053145558 0.009891593 -0.084350795
0001e0 ea 90 4a 3e 23 31 69 3d a5 b2 d8 bc a0 ca 44 be
       0.19781843 0.056931626 -0.026452372 -0.1921792
0001f0 f3 ee 3d bd b6 35 27 be 58 52 a2 bd 87 3f 29 be
       -0.046370458 -0.16329083 -0.07925862 -0.1652814
000200 a2 7f 46 3a 57 80 61 3e 9e 6e 3c 3e be 05 86 be
       0.00075721194 0.22021614 0.18401572 -0.26176256
000210 69 6c 4d 3e 02 b4 d0 3d 47 07 55 3b ea 3a 16 be
       0.20060886 0.10190584 0.0032505558 -0.14670911
000220 a8 ea 92 3d fe 4b 3f be f3 05 e6 bd 58 74 64 3b
       0.071736634 -0.18681332 -0.112316035 0.0034859385
000230 cd 0f 84 3d a0 c6 ff bc 3e dc d4 3d f5 ac 18 be
       0.06448326 -0.031222641 0.1039357 -0.14909728
000240 95 d2 95 bd 39 83 a8 3d 69 13 23 3e 15 8c ba 3a
       -0.07315556 0.08228154 0.15925373 0.0014232422
000250 52 85 49 bd 96 6d 1a 3d 22 8e 67 be a2 b8 09 bd
       -0.04919941 0.037702166 -0.22612813 -0.033623345
000260 60 49 a6 bd 9c b3 48 bd ca 71 7a be 75 91 34 be
       -0.08119464 -0.048999414 -0.2445747 -0.17633612
000270 3b ca 64 be e4 72 1b be 2f a5 50 3e 04 1b 36 be
       -0.2234277 -0.15180546 0.20375513 -0.17783743
000280 d0 56 26 3e 52 14 60 bc 7f c5 41 be df ba 61 3d
       0.16244054 -0.01367672 -0.18922995 0.055109855
000290 c6 33 a7 3e da 9b 7a 3e 60 6c a0 bd fc 37 41 bd
       0.32656687 0.24473515 -0.07833171 -0.04717253
0002a0 d2 1d 01 bb e5 b2 c4 3d ee 02 50 be 80 d3 c7 bd
       -0.0019701612 0.09604434 -0.20313618 -0.09757137
0002b0 ca 88 bf 3d 57 a8 16 3e 0f 9e d0 be ef 49 db bd
       0.09352262 0.14712654 -0.4074559 -0.10707461
0002c0 4f d3 48 3e c6 24 ac 3d df cb 19 3d 82 9c 12 be
       0.19611858 0.084054515 0.037547942 -0.14317515
0002d0 30 14 2d be 33 d5 0a 3d ad ae ac 3d dd 45 13 3e
       -0.16902232 0.03389473 0.08431754 0.1438212
0002e0 04 f5 cf 3d 4c 47 b3 bd a9 b2 17 be 6f 8c 9a 3e
       0.10154155 -0.08753833 -0.14814247 0.30185267
0002f0 e1 fe 8e 3e d5 e1 89 3d 47 3a 01 3d eb 43 91 bc
       0.27928832 0.06732527 0.03154972 -0.017732581
000300 44 31 50 bd 92 fd 33 be c8 b5 a1 3e c7 63 88 bc
       -0.050828233 -0.17577198 0.31584 -0.01664914
000310 8d 7a b3 3d dc 4f 4a 3c d0 2d c9 bd 6d bd 90 3c
       0.08763609 0.0123481415 -0.09823191 0.01766845
000320 27 58 9f bd 86 71 86 3c 12 38 0e bc f9 42 fe 3d
       -0.077804856 0.016411554 -0.00868036 0.12415118
000330 f3 f5 9c 3a a4 74 56 3c 2d 70 ef 3d 72 e8 4a 3e
       0.0011975154 0.013089333 0.11691318 0.19815233
000340 71 4f 0b 3e 7f 97 22 be 23 9f b4 bd 38 77 12 3e
       0.13604523 -0.15878104 -0.088194154 0.14303291
000350 14 24 2b 3e a2 a1 78 3d 45 0d 57 bd 6a be f9 bd
       0.16712981 0.06070102 -0.05250289 -0.12194522
000360 87 7b 9f be 70 d1 d9 3d 24 a5 b1 bc 99 4d 17 be
       -0.3114893 0.1063565 -0.02168519 -0.14775695
000370 ad 06 5a 3e fd 6b c0 3d a9 c5 0e be 0c 1a 45 be
       0.21291609 0.09395597 -0.13942589 -0.19248217
000380 52 ae 72 3d 00 d8 d9 ba 32 07 c4 3b 41 3a 5e bd
       0.059248276 -0.0016620159 0.005982303 -0.054254774
000390 50 94 9d 3d e3 e7 99 be ab 79 64 3d 80 41 44 3d
       0.07694304 -0.30059728 0.055780094 0.04791403
0003a0 18 6b 23 3d e8 aa 0c bd 76 85 3f be d2 58 4d bc
       0.039897054 -0.034342676 -0.18703255 -0.012533383
0003b0 b0 08 a3 3d cb f2 d5 bc 90 fe c7 bd 63 64 1b bd
       0.079606414 -0.02611675 -0.09765351 -0.037937533
0003c0 e1 ec d4 3d 10 00 1e be fc 11 5e be 25 bb dd 3c
       0.103967436 -0.15429711 -0.21686548 0.027066777
0003d0 93 2b f5 bd d0 ab c3 3d f3 b5 1d 3d b3 22 8a 3c
       -0.11971202 0.09554255 0.0385036 0.016862249
0003e0 06 44 29 3e df 13 82 3d e2 82 00 bd fd d6 d7 39
       0.16529855 0.06351446 -0.03137482 0.00041168174
0003f0 8b 99 8e be ff 04 b4 3d e8 c7 bd bd 70 dd 91 3e
       -0.2785152 0.087900154 -0.09266645 0.28489256

fc2.weight f4 [128, 256]
000000 b7 ec 12 3e 47 9b 40 3e 32 45 ec 3d bf 65 a2 3d
       0.14348112 0.18809234 0.115366355 0.07929563
000010 84 de ba 3d 86 a1 2f be 4d ba 74 be e1 c7 e5 3d
       0.09124473 -0.1715146 -0.23899193 0.112197645
000020 bf 7a e3 3d 0d 4c 8b 3d cf 61 a9 bc 93 50 e9 bd
       0.11107396 0.06801615 -0.020676522 -0.113923214
000030 72 18 25 3d 8f f5 89 bd f6 64 d5 3d e8 45 ad bc
       0.040306516 -0.0673629 0.104196474 -0.021151498
000040 c0 53 0c 3e a0 47 54 bd 02 76 0b bd 3f 0d 81 bd
       0.13703823 -0.05182612 -0.034048088 -0.063013546
000050 ba de 82 3d 86 b1 d5 bc ed 05 90 be 12 42 a2 3c
       0.06390138 -0.026085626 -0.2812952 0.019806895
000060 4a c9 05 3e 2d 78 09 bd 4f 7f 46 bd db 8b a8 bd
       0.13065067 -0.033561874 -0.048461255 -0.082298
000070 8f 4b 12 3e 63 61 c1 bc ba d2 39 3e 94 05 7c bb
       0.14286636 -0.023606008 0.18146792 -0.0038455473
000080 49 9a ab 3d 71 66 e9 bd 71 0e ea bd 66 2f 88 bc
       0.08379037 -0.11396492 -0.11428536 -0.016624164
000090 12 7a 0f 3d 8c 66 93 3c 5f 32 52 bd 5c 4f a8 3c
       0.035028525 0.017993234 -0.05131757 0.020545654
0000a0 b1 55 cb 3d 50 b0 7c be 99 da 07 3d 5f 26 97 3c
       0.09928454 -0.24676633 0.033167455 0.018450914
0000b0 46 ff 7a 3c 3d 42 f5 bc c3 b5 da 3c 98 96 8f bc
       0.015319651 -0.029938811 0.026697999 -0.017527863
0000c0 1b 5a ac bd 47 d0 70 bd f3 14 ca bc e8 70 be bd
       -0.08415624 -0.05879238 -0.024668192 -0.09298879
0000d0 5f 38 8a bc 7b 62 02 be 20 06 7c be 10 b8 27 be
       -0.016872583 -0.1273288 -0.24611712 -0.16378808
0000e0 dd a9 0f 3d 16 91 a7 3d bb 66 7a 3d a4 04 ef 3d
       0.035074104 0.0818197 0.061133128 0.11670807
0000f0 82 e1 90 bc 30 ea de 3b 53 3a 7b 3b 23 13 95 3d
       -0.017685656 0.0068028197 0.0038334324 0.07279041
000100 77 de 77 3e 28 19 d9 bc 6d 55 95 b9 7a df b8 bd
       0.24205957 -0.026501253 -0.00028483142 -0.09027
000110 46 44 54 3d 0c 83 18 be f3 e1 b3 3d 37 52 56 3d
       0.051822923 -0.1489374 0.08783331 0.0523245
000120 66 86 af 3d 5d 41 c8 bd db c8 18 be 2f 0b 83 3a
       0.08570556 -0.09778092 -0.1492037 0.000999784
000130 9d 08 d1 bc e8 f2 fa bd 7d 74 31 bd cb 8a b2 3d
       -0.025516802 -0.12253362 -0.043323983 0.08717879
000140 b2 08 11 be 05 a1 b9 3d 27 71 30 bd 38 83 9c 3d
       -0.14163473 0.09063915 -0.04307666 0.076422155
000150 f7 17 dd 3b 2b 03 f4 bd 0b 7a 01 3e a0 73 9e bd
       0.0067472416 -0.11914667 0.12644212 -0.077368975
000160 74 78 1c be 91 99 d4 bd 99 f7 ab 3d 6d 0d 67 bd
       -0.15280324 -0.10380853 0.08396835 -0.05640929
000170 18 24 a4 bd 6e 7a 96 3d ff e7 e3 bd 7e 0d aa 3d
       -0.08014697 0.0734757 -0.11128234 0.08303355
000180 8a 63 cb bc 2c 91 02 3d d1 e1 30 3d 6a bb 94 bb
       -0.024827737 0.031876728 0.043184105 -0.004538943
000190 1f 82 0f bd 26 11 2e bd 5a aa 70 bd 68 c1 10 bb
       -0.035036203 -0.042496823 -0.05875621 -0.0022087935
0001a0 7e 73 b2 3d ac d1 58 3c 95 d3 0d be 44 a9 51 bd
       0.08713435 0.013233583 -0.13850243 -0.051186815
0001b0 d0 ae 10 3e 28 82 99 3c 9f e0 02 3e ea 8f 26 be
       0.14129186 0.018738821 0.12780999 -0.16265836
0001c0 f4 d4 07 be 5d df 72 3e 98 5a ab 3d 75 6e 01 bd
       -0.13264829 0.23718019 0.08366889 -0.03159948
0001d0 6b 07 08 bd fc 51 c7 3d 11 5b 7e 3a 3a c2 e5 bb
       -0.0332102 0.09732434 0.0009702901 -0.007011679
0001e0 17 9d 2f 3d 31 4f 4b 3c 37 ab 47 3c 65 10 4e be
       0.042874422 0.012409017 0.012186817 -0.20123442
0001f0 67 6c 29 3d 47 11 82 bc d1 da bd bc 84 2b 11 3d
       0.041363146 -0.01587738 -0.023175629 0.03544189
000200 f4 f7 37 3d 0e ad 98 3d 69 c6 e3 bb 37 6f 3a bd
       0.0449142 0.074548826 -0.0069511426 -0.04551622
000210 72 23 01 bd 13 d0 e5 bd 8d c7 a3 3b df 3c 08 bd
       -0.031527944 -0.11221328 0.0049981535 -0.033261176
000220 71 cc d7 3d f4 23 55 3d 4b 56 47 3d 33 48 fd 3d
       0.10537041 0.05203624 0.04866628 0.123672865
000230 63 1d ab 3d 54 9b 1c bc c2 92 41 3d 76 53 a7 bd
       0.083552144 -0.0095585175 0.0472591 -0.08170216
000240 b0 63 94 3d 07 60 09 3e 02 16 79 3c 9b b6 60 bc
       0.072455764 0.13415538 0.015203001 -0.013715412
000250 23 c6 11 3e 63 7b 0f bd d1 75 86 bc d9 bd 99 3e
       0.1423574 -0.03502978 -0.016413601 0.30027655
000260 0c fa 89 bd 5f 1d 9f bd 85 6a 97 bd 86 d0 98 bd
       -0.06737146 -0.07769274 -0.07393364 -0.07461648
000270 23 8e ff bd c1 4a bd bc 66 49 2d bd 60 2a a9 3d
       -0.12478282 -0.023106935 -0.042306326 0.082600355
000280 93 37 38 3d 4f 74 90 bd e4 46 c8 bd 11 5d e8 bd
       0.044974875 -0.07053434 -0.09779146 -0.11345876
000290 0a b1 74 bd ea 84 d9 bd a3 85 6f bf 20 78 09 3d
       -0.05973915 -0.106210545 -0.9356329 0.033561826
0002a0 8a f3 df 3c 1f c1 61 bd 8e 05 b2 3d 58 ad 8a bd
       0.027337808 -0.055115815 0.08692466 -0.06771344
0002b0 2f 6d ef bd 9c 37 c3 bc a6 a9 81 bd ff 6a 22 be
       -0.11690747 -0.023830228 -0.06331186 -0.15861128
0002c0 2e 71 a0 3c 12 36 45 bc 68 28 39 3d db 5c c7 bd
       0.019585218 -0.012036817 0.04520455 -0.09734508
0002d0 4f b3 e2 3d 9a fd 72 ba 30 db 4b 3d 43 7d 81 3c
       0.11069357 -0.0009269357 0.04976958 0.0158068
0002e0 4a 3d 9f 3d 6d 0a 44 3e d7 da b5 3c 73 a4 6f bc
       0.07775362 0.19144602 0.022199078 -0.01462661
0002f0 6b 14 a3 3d aa e2 ca bd 36 fe 61 bd 63 1d 6c 3d
       0.07962879 -0.09906514 -0.055174075 0.057645213
000300 46 fe dd 3d 8e 2c 91 3d ee 51 0e 3d 99 d2 78 bd
       0.108395144 0.07088576 0.034746103 -0.060747717
000310 84 f2 97 3d 4f 3d a6 3c eb a2 00 3e 46 4b 3b bd
       0.07419303 0.020292906 0.12562148 -0.045726083
000320 68 82 91 bc 7e 0a da bd 10 51 a5 bd 7f 25 2f bc
       -0.017762378 -0.106465325 -0.08072102 -0.010690092
000330 20 0e cd 3d 52 ff a9 3c 85 06 3a be 88 b2 15 bd
       0.1001246 0.020751629 -0.1816655 -0.036547214
000340 a0 ba 1c 3e 73 e1 73 3d 97 6d 03 3e f2 db 4f 3d
       0.15305567 0.059541177 0.12834774 0.050746866
000350 d5 cd fd bd 63 ed aa 3d 86 f8 d9 bc 18 8d 4f bc
       -0.12392775 0.08346059 -0.026607763 -0.012667917
000360 e0 5a 5b 3e 40 cc d4 bd aa c6 fa bd 69 8a 08 bd
       0.21421385 -0.1039052 -0.122449234 -0.033335123
000370 ad 26 8d bd b1 26 6d bd 7e b6 f8 3d 23 b9 0b 3d
       -0.068921424 -0.057898227 0.121441826 0.034112107
000380 f5 0b 3d 3d 72 46 e5 bc b3 65 58 3c b9 5b 02 be
       0.04615398 -0.027987693 0.013207841 -0.12730302
000390 b4 ad 40 3c 8c 76 ba 3b b0 83 dd bc ad 5e 63 3d
       0.011760164 0.0056904014 -0.027040333 0.05551021
0003a0 7e d8 ce bc fc f3 78 bc 3d 7a 27 3b c1 bb 8d bb
       -0.025249716 -0.015194889 0.0025555037 -0.0043253605
0003b0 bf d1 0c 3e e6 e9 62 3d 92 8d dd 3d c5 3c b0 3d
       0.13751887 0.055398844 0.10818018 0.08605341
0003c0 84 88 22 be 44 3f dd 3d fb ca 4a bc 28 b5 41 3b
       -0.15872389 0.108030826 -0.012377496 0.002955744
0003d0 bf 00 c5 bd c3 a4 f3 ba c9 1b 42 3d 17 ba a8 bd
       -0.09619283 -0.0018588532 0.04738978 -0.08238619
0003e0 bd ad 03 3d bd 9e ea 3d 4f e1 90 bd 5b d1 ee 3d
       0.03214811 0.11456058 -0.07074224 0.11661025
0003f0 41 57 06 be 40 a0 77 bc 01 ef 82 3d 92 79 22 be
       -0.13119222 -0.01511389 0.063932426 -0.15866688

fc2.bias f4 [128]
000000 10 67 69 be 3a 8e 52 bb 52 97 9b 3d e8 df 18 3e
       -0.22793221 -0.003212823 0.075972214 0.14929163
000010 ca 97 fc 3b 27 8d c1 bd d9 45 2a 3c ef df 95 3b
       0.0077085244 -0.09450751 0.01039263 0.004573814
000020 12 4a 5a be d2 5b 3e bc a6 50 3b 3e 72 70 66 3e
       -0.21317318 -0.011618571 0.18292484 0.22503832
000030 0e b4 b1 3c e5 85 1f be 48 be af bd 4c a3 64 3d
       0.021692302 -0.1557842 -0.08581215 0.055819795
000040 ef 94 07 3e 78 82 ef bd d8 ef b5 3e b8 8c 82 3e
       0.13240407 -0.11694807 0.3553455 0.25497985
000050 d3 47 5d 3d 28 05 32 bd 0f 0f 6a 3d 0f 5f 71 3e
       0.054023575 -0.04346195 0.057143267 0.23571418
000060 71 ba 47 3d 85 28 88 3d 62 2f a7 bd eb 91 2b be
       0.04876179 0.066483535 -0.081633344 -0.16754882
000070 61 1a 30 be e9 7e e8 bc 52 44 e7 3c 07 a7 32 be
       -0.17197563 -0.028380828 0.02823082 -0.17446528
000080 4c fa 9a 3d b2 09 80 be 7e 24 b1 bd 79 12 29 bd
       0.075672716 -0.25007397 -0.086495385 -0.041277383
000090 2d 4f 79 3d 02 1e 4f be 74 61 4b be 1d fd 96 3c
       0.060866524 -0.20226291 -0.19861394 0.01843124
0000a0 01 d8 40 bd fd 24 52 bd 84 86 55 be 1e 51 4c be
       -0.047080997 -0.051304806 -0.20852095 -0.19952819
0000b0 da 80 32 3d 12 65 32 bd 1e 5a 74 be 8f 7a 78 be
       0.043579914 -0.04355342 -0.23862502 -0.24265502
0000c0 29 f6 05 3c 0d 36 3c 3e 82 78 8b bd 61 d1 07 bf
       0.008176365 0.18379994 -0.068100944 -0.5305386
0000d0 03 29 43 3e 85 56 27 be a6 4b 1e bc 97 17 ef 3d
       0.19058613 -0.16341598 -0.009661591 0.11674421
0000e0 23 57 b2 bc 09 38 bf 3d 68 15 14 be dd d2 9a 3d
       -0.021770066 0.0933686 -0.14461291 0.0755975
0000f0 af 77 94 bd 02 67 6e 3d 15 d5 1c 3e 02 52 16 be
       -0.0724939 0.058203705 0.1531566 -0.14679721
000100 71 7e 24 3e b8 fb d7 3d d2 c7 00 3d 1f 80 6c bd
       0.16063859 0.105460584 0.031440563 -0.057739373
000110 4f b4 7a be cb 82 e6 bc 2b a2 76 3e 7e 78 e1 bd
       -0.24482845 -0.028138539 0.240853 -0.1100931
000120 b6 05 cc 3d 80 c8 cd 3d 57 c1 64 be f2 1c 1a 3d
       0.09962027 0.10048008 -0.22339378 0.03762526
000130 c0 1e ba 3d 44 f2 e3 3d 9d 83 e5 bd 1f 44 df bd
       0.09087896 0.11130193 -0.11206744 -0.10901665
000140 9a 60 34 3d 97 88 50 3c a7 4e 26 3d b4 99 80 bd
       0.04403744 0.012727878 0.040602352 -0.062793165
000150 6f 72 06 be 13 98 07 3e 41 0b 07 be 64 12 54 3e
       -0.1312959 0.13241605 -0.13187887 0.2071014
000160 f8 3a 8b bd 01 1f 86 3d 6d 2c 57 3e cc 7c 3d be
       -0.06798357 0.06548882 0.21013041 -0.18504637
000170 f2 e6 2c 3d 9f 39 31 3e 46 86 20 3d 3e 22 8c be
       0.042212434 0.17307137 0.039190553 -0.27369875
000180 47 8f 32 be 57 e8 37 3d 63 b1 a9 39 a2 25 d8 3d
       -0.17437468 0.04489931 0.00032366355 0.10554053
000190 86 01 6a bc 32 49 c3 3d cc 82 c6 bd 86 7f 34 3e
       -0.01428259 0.09535445 -0.09692916 0.17626771
0001a0 65 41 f9 bd 75 00 8c 3e 97 07 18 bd 50 55 be 3d
       -0.12170676 0.273441 -0.037116613 0.09293616
0001b0 c0 ec e0 bb 85 c2 23 bd 96 0e 08 3e c8 98 31 be
       -0.0068641603 -0.03998043 0.13286814 -0.17343438
0001c0 b8 ec 99 3d 3b de 1c bd 95 71 5f bd 62 7c 2b 3e
       0.07515854 -0.038297873 -0.05455168 0.16746667
0001d0 54 81 e5 3d 5b c6 6e 3d 1e 27 80 bd b3 3f 2c be
       0.11206308 0.058294635 -0.06257461 -0.16821174
0001e0 01 5c a7 bd 96 a9 c1 3d 24 1e 33 3e ac 34 85 3d
       -0.08171845 0.09456174 0.17491966 0.06504187
0001f0 b9 27 5c be 0e 1d cd bb d4 ce fd bd d8 b1 1e 3e
       -0.21499528 -0.006259567 -0.12392965 0.1549753

fc3.weight f4 [64, 128]
000000 f7 a2 0e 3e 6e 51 4c 3e 41 b1 c8 3d fa e6 e5 bd
       0.13929354 0.19952938 0.097994335 -0.11225696
000010 44 92 0b 3b 9c 49 2a be 60 39 76 3e e6 2f de 3e
       0.0021296898 -0.16629642 0.24045324 0.4339592
000020 a6 83 a6 3d c7 ae 3c 3e 79 d1 54 be e7 38 cc b9
       0.08130579 0.18426047 -0.20783032 -0.00038952308
000030 9b 89 bf bd c9 50 4b 3e e1 54 23 bd e7 92 14 3d
       -0.09352418 0.19855036 -0.03987587 0.03627291
000040 92 88 2c bd 95 f7 9b 3c af c5 dd bc 92 67 08 bb
       -0.04212243 0.019038955 -0.027071802 -0.0020813686
000050 90 7a 6c 3d 9b 7b 7f 3e d4 d5 85 bd fc de 59 3d
       0.057734072 0.24949495 -0.06534925 0.05319117
000060 12 39 b6 3d da f7 04 3e 4a e9 1f bd 71 bc 0c be
       0.08897604 0.12985173 -0.03904084 -0.1374376
000070 41 f4 83 3e 35 96 86 bd 85 a9 07 3d 8e e5 e5 bd
       0.25772288 -0.065716185 0.03312065 -0.11225425
000080 05 77 e5 3c 2d b6 a8 bd fd b9 30 3d c3 74 81 3d
       0.028010854 -0.08237872 0.043146122 0.06321099
000090 b5 25 7a bc ff 5d 6d 3e 61 2f 17 3c c6 80 40 bd
       -0.015267779 0.23180388 0.009227605 -0.046997808
0000a0 7b 6f 40 be b4 7d 65 3d 95 46 2d 3d 04 e6 90 3d
       -0.18792526 0.056028083 0.04230364 0.07075122
0000b0 d6 02 82 be 0e 2b 9e 3e fa 93 ea bc 52 0e 8a 3d
       -0.2539279 0.30892223 -0.028635014 0.06741013
0000c0 d5 f1 2b bc 99 be a7 bd cf e0 ce 3c ae f3 0f 3e
       -0.010494669 -0.081906505 0.025253681 0.140578
0000d0 7a 67 1c be ab 84 0c bd 49 50 80 bd 7c f9 d5 3d
       -0.15273848 -0.03430621 -0.06265313 0.10447976
0000e0 6b 82 30 3d 81 43 99 bc f7 ef 6a 3c b1 95 a0 3e
       0.043093126 -0.018708946 0.014339439 0.31364205
0000f0 3c bc 05 3e 94 9e c3 3b 4c b2 95 3d 9c 5e f4 bd
       0.13060087 0.0059698317 0.07309398 -0.11932108
000100 ac 2e 17 3e 2e 33 9c bd 44 1c ae bd d6 e3 18 3e
       0.14763898 -0.07626949 -0.08501485 0.14930663
000110 64 dd ef 3d c6 e1 f7 3d 45 9c 92 bc 90 86 27 3e
       0.11712149 0.1210361 -0.01789678 0.16359925
000120 7f 97 f9 bd 31 06 f2 bc b9 1c 47 3e 39 b4 4f 3d
       -0.12187099 -0.029543968 0.1944455 0.050708983
000130 5c fd 08 be da 21 c5 bd fd 16 a1 3c 7b 15 cf 3b
       -0.13377899 -0.09625597 0.019664282 0.0063196993
000140 4c c7 ce bc da 11 37 3d 8e 95 a9 bd 08 1f 39 be
       -0.025241517 0.04469476 -0.082804784 -0.18078244
000150 a9 ab 82 3c 1f 0c cf bd 00 58 4c bd e1 7b 06 3e
       0.015950995 -0.10109734 -0.04988861 0.13133194
000160 34 47 64 bd 42 e1 cd 3c 5b ca 80 bd a4 e4 67 3d
       -0.055731967 0.025131825 -0.06288596 0.056614533
000170 d3 b2 87 3d ea 93 83 3d 85 d8 a2 3d f7 fb 25 3e
       0.06625905 0.06424697 0.07951454 0.16209398
000180 88 15 f6 3d 3e b1 6d 3c 0d e5 39 be 4b 9d aa bc
       0.120158255 0.01450759 -0.18153782 -0.020826956
000190 89 42 0d 3d b9 df 78 be ec ea 8b 3d 9a bc ae 3e
       0.03448728 -0.24304093 0.06831917 0.34128267
0001a0 c5 c6 a7 bc a6 ef 61 3d 5b 24 91 3d 40 b8 13 bd
       -0.020480523 0.055160187 0.070870124 -0.036064386
0001b0 0a 38 72 bc 54 51 51 bd 18 79 ae bd b1 02 5e bc
       -0.014783869 -0.05110295 -0.085191905 -0.013550446
0001c0 08 09 94 bc a0 71 12 bd 2b 50 39 bc c5 e4 9e be
       -0.018070713 -0.035752892 -0.011310617 -0.31033912
0001d0 cd d0 9a bd 4b eb fc bd 1c 31 28 be a8 aa 66 bc
       -0.07559357 -0.12349566 -0.16424984 -0.014078774
0001e0 53 60 9f bd 3e aa 21 3d 0e e8 dc 3d 6a 84 a7 3d
       -0.07782044 0.039468996 0.107864484 0.08179553
0001f0 59 6c c5 3b 87 1f 1c 3e b3 20 2d be 28 0b 18 bd
       0.006024879 0.15246402 -0.16907005 -0.037120014
000200 04 80 80 3d 72 4d c2 3d 8c 1c fb bd 04 55 ca bc
       0.06274417 0.09487428 -0.12261304 -0.024698742
000210 52 c0 d4 bd d2 fb 1c bc f9 e5 8d bd 0c e1 9f bd
       -0.10388245 -0.009581523 -0.069286294 -0.07806596
000220 e4 8b 8c 3b fd 3e 6e bd 08 c5 00 be 1e 21 3e 39
       0.004289137 -0.05816554 -0.12575161 0.00018132149
000230 15 87 e4 3d a2 bb a3 bd ca 0c 27 3d 1d bb 35 be
       0.11158577 -0.079947725 0.04078368 -0.1774716
000240 d7 ac 96 3d 5d 50 86 3d 3c c0 03 be 3b bf fc bc
       0.07357185 0.06558297 -0.128663 -0.030852905
000250 c7 d5 44 be f1 a9 20 be c1 9a f2 3d 38 80 bf 3d
       -0.19222175 -0.15689828 0.11845923 0.09350628
000260 b6 3b 9d 3a bf 20 3c be 65 e8 57 3d 11 46 e1 bc
       0.0011995945 -0.18371867 0.052711863 -0.02749923
000270 b7 34 ca bc 5a 91 78 3e 4a 23 2f 3e 70 49 b6 3d
       -0.02468334 0.24274197 0.17103305 0.08900726
000280 2a f2 1d bd 6d c0 bb 3d 12 1e a8 be 51 36 22 3e
       -0.038561024 0.09167562 -0.32835442 0.15841033
000290 08 aa f7 bc b2 7d 80 3d 81 d3 33 bd bc 03 52 bd
       -0.030232444 0.062739745 -0.043902878 -0.051273093
0002a0 bf d0 f9 3c 58 5a fd 3d ab 6b 0d 3e 99 f6 40 3d
       0.030495046 0.12370747 0.13810603 0.047110174
0002b0 c4 fc ee bd a5 02 18 3e 14 16 16 3e 57 62 09 bb
       -0.11669305 0.14844759 0.1465686 -0.0020963156
0002c0 d8 ff 9c bd 88 67 85 3d 24 b7 e1 3b ba 26 a8 3d
       -0.07665986 0.06513888 0.006888287 0.082105115
0002d0 e4 05 23 be b0 13 eb 3b e0 23 d3 3c 73 0f 95 bd
       -0.15920216 0.007173978 0.025773942 -0.07278337
0002e0 57 92 b2 3d 70 92 d5 bd e2 9e fb bd 11 7e 6f 3c
       0.08719318 -0.10428321 -0.12286164 0.014617459
0002f0 52 76 06 be f5 47 86 bd a4 cb 2f 3e 07 b3 3f be
       -0.13131073 -0.065566935 0.17167526 -0.18720637
000300 ec 78 a2 bd 8a 14 15 be cd 06 08 be 4e d7 b8 3d
       -0.0793322 -0.14558616 -0.13283844 0.09025441
000310 c0 b1 84 be e8 51 a0 3d 50 62 e7 bd 97 9e 17 3b
       -0.25916862 0.078281224 -0.112980485 0.0023135298
000320 01 cb 9d 3d 1b e1 eb bd 4a 55 9d 3d e7 40 d1 3d
       0.077047355 -0.11517545 0.07682283 0.10217457
000330 bb 3b 5c bd ec 8a 74 be 56 9c dd 3c 51 cc 1a be
       -0.0537679 -0.2388112 0.027052086 -0.15117003
000340 a3 71 07 3e 19 34 2c bd a3 aa ad 3b 7c 06 46 3d
       0.13226943 -0.04204187 0.0052998825 0.048346028
000350 eb c6 2a 3c 1f d3 9d 39 89 87 4d be 30 12 b2 bc
       0.010423402 0.0003010267 -0.20071234 -0.021737188
000360 fd ea 76 3c 4b 1c 2b bd bc 71 6e 3e 28 f7 ca 3d
       0.015070674 -0.04177503 0.23285574 0.099104226
000370 2f 6a 41 bc 81 60 39 bd a9 66 fd bd 9b 88 d5 bd
       -0.011805101 -0.04525805 -0.123730965 -0.10426446
000380 46 d0 da 3d 4e 0e dc bc 08 d4 5a 3d 40 dc f9 bd
       0.10684256 -0.02686229 0.053424865 -0.122002125
000390 b8 0f 69 bd a5 a1 34 bd ce ac 81 bd e3 3c 5f 3d
       -0.056899756 -0.04409947 -0.06331788 0.054501425
0003a0 a8 69 df bc 8f 56 08 3e e0 9e b9 bd 3a 76 c0 3c
       -0.02727206 0.1331427 -0.09063506 0.023493875
0003b0 4c ad 5d bc 95 cf e9 3d ab b2 2a 3e d7 1f dd bc
       -0.013530087 0.11416546 0.16669719 -0.026992721
0003c0 87 e2 96 3c 4e b1 1b 3e 42 e9 55 3d a6 16 4a 3d
       0.018418564 0.15204355 0.052224405 0.049338005
0003d0 77 29 1a bd 28 45 d1 bd 94 1e c0 bc 32 e3 37 3d
       -0.0376372 -0.10218269 -0.02345208 0.044894405
0003e0 73 7b 89 bd a0 17 93 bd 86 ca 03 bd cd 15 f9 bd
       -0.06712999 -0.071822405 -0.032175563 -0.12162361
0003f0 bc e3 cf 3d 7a 6d 26 3c e6 a1 b4 bb 45 e0 64 be
       0.10150859 0.010157937 -0.005512464 -0.22351177

fc3.bias f4 [64]
000000 54 ae 11 3c e6 c9 18 3c 98 4d 3e bb db 2d d9 3d
       0.008891661 0.00932548 -0.0029037949 0.10604449
000010 4c df e6 3b 90 71 f8 3d fc 7b 1b bd e7 cc 24 3e
       0.007045662 0.12131035 -0.037960038 0.16093789
000020 a6 4e 0d bc b5 9a 2d bd 94 2b b8 bd bf ac 8f 3c
       -0.008624708 -0.04238387 -0.08992687 0.017538426
000030 7d 60 cc 3c cc b1 83 3d 5a ec 57 bd 45 cc 05 be
       0.024948353 0.064303964 -0.052715637 -0.13066204
000040 72 31 13 3e b9 be 1f 3d bc 30 20 bd 33 14 96 be
       0.1437433 0.039000247 -0.039108977 -0.29312286
000050 89 f2 3c bd 2c 70 e2 3b 28 b7 3f 3e d3 e2 96 3c
       -0.046129737 0.0069103446 0.18722212 0.018418705
000060 26 84 98 3c 52 99 17 3d ee 38 77 3e 4f 6d 01 3e
       0.0186177 0.037011452 0.2414281 0.12639354
000070 45 33 79 3e df d7 08 be 5b 0b 75 3d 4b 30 26 3d
       0.24335964 -0.13363598 0.059825283 0.0405734
000080 c1 f2 12 3e 58 00 30 3e 6d d7 96 bc 78 79 a6 bd
       0.14350416 0.17187631 -0.01841327 -0.08128637
000090 88 ec 0c 3e 78 83 29 be 68 47 94 be 2c 82 fb 3c
       0.13762105 -0.16554058 -0.2896073 0.03070172
0000a0 7f 96 31 be cc bd d5 bc b8 71 91 bd ee 99 32 3e
       -0.17342566 -0.026091479 -0.07101768 0.17441532
0000b0 56 92 10 3c 3e d7 7e 3d 7f f8 9b 3d 47 b3 a4 bd
       0.008823952 0.06221699 0.07615756 -0.08042007
0000c0 18 46 01 bd 01 bb 7d 3e 04 f3 c2 3d 76 8f 62 3e
       -0.031560987 0.24778368 0.09519008 0.22125039
0000d0 5e 42 bc bd 45 62 e3 3d 82 a9 81 3e 9a 2d 26 be
       -0.09192346 0.11102728 0.25324637 -0.16228333
0000e0 46 a6 0c 3c 35 7d 00 3e fc b8 fe 3c 78 a0 09 be
       0.008584565 0.12547763 0.031094067 -0.1344012
0000f0 41 0c 11 be 8f 93 d7 bd bb 78 3f bd 0f de 1f bd
       -0.1416483 -0.105261914 -0.046745997 -0.03903013

fc4.weight f4 [1, 64]
000000 09 82 4e 3e 3c 25 4e be 48 c4 9a 3e 92 7a 77 3e
       0.20166792 -0.20131391 0.30227876 0.2416785
000010 e8 f3 a1 be b1 6c 20 3e 9b c9 84 3e 3f f4 fe bd
       -0.31631398 0.15666462 0.25935063 -0.1244893
000020 db 3e 2c 3e e3 33 ef bd 3d 05 8f be 30 da 55 3e
       0.16820852 -0.116798185 -0.27933684 0.20884013
000030 03 23 1f be fb 03 38 be 27 57 92 be c3 af bb 3e
       -0.155407 -0.17970268 -0.28582117 0.36657533
000040 08 48 f2 be 97 02 cc 3e 1a 66 3e be a6 3d 14 3e
       -0.4732058 0.39845726 -0.18593636 0.14476642
000050 97 b0 7c 3e 3c 22 3e be 5b 60 ba be 38 c4 a9 bd
       0.24676739 -0.18567747 -0.36401638 -0.08289379
000060 62 7b 23 be 38 6a 5f 3e 4b 65 84 3e 81 a8 43 be
       -0.15965036 0.21817863 0.2585853 -0.19107248
000070 8c c2 43 3e 21 ab ca be ab 3a 9b be 5d 8e 4c 3e
       0.19117182 -0.39583686 -0.30318198 0.19976182
000080 63 58 42 be aa ab 8c 3e eb 34 71 be 5f a2 71 be
       -0.1897903 0.2747472 -0.23555343 -0.23597096
000090 ee ec 11 be fe 57 0a 3e 22 d6 4c be b9 81 12 3f
       -0.14250538 0.13510129 -0.2000356 0.5722919
0000a0 e0 d7 2c be f1 d5 22 be f4 d0 2a be 18 9a ee be
       -0.16879225 -0.15901925 -0.16681272 -0.4660194
0000b0 48 79 af bd 3b e0 52 be c5 2c 66 3e cd d1 82 3e
       -0.085680544 -0.2059335 0.22478016 0.2555069
0000c0 1a c0 11 3e de 21 a3 3e 3e 66 ab 3e c3 78 c1 be
       0.14233437 0.31861776 0.33476442 -0.37787446
0000d0 9e a0 0f be 4f 63 06 3f ac 6c 21 3e f9 7e 0e bf
       -0.14026114 0.5249528 0.15764111 -0.55662495
0000e0 77 08 77 3e 19 c8 06 3e b5 76 3d be c3 c8 19 be
       0.24124323 0.13162269 -0.18502314 -0.15017991
0000f0 29 c0 10 3e 4e 86 3c be ae ac 14 3e 3c 0c 18 3e
       0.14135803 -0.18410608 0.14518997 0.14848417

bn1.weight f4 [256]
000000 ba aa 9b 3f 4a 3c a9 3f 8a 74 78 3f 9d 28 f7 3e
       1.2161477 1.3221524 0.97052824 0.48273173
000010 a0 db 13 3f be 39 d6 3f 6d 60 a9 3f 82 b3 92 3f
       0.57756996 1.6736372 1.3232552 1.1461031
000020 c2 53 43 3f 3e 9f a2 3f 97 56 b2 3f 26 8e 9e 3f
       0.7629968 1.2704847 1.3932675 1.238713
000030 72 4f 8c 3f 5f f0 76 3f 4f e5 9c 3f 7d e8 86 3f
       1.0961745 0.9646053 1.225748 1.05397
000040 38 18 a6 3f 15 55 68 3f cd 36 44 3f 0b 6f c4 3f
       1.2976141 0.90754825 0.7664612 1.5346388
000050 f8 02 05 3f b8 9e 16 3f 7e 41 95 3f 0e f6 48 3f
       0.51957655 0.58835936 1.1660612 0.7850045
000060 c6 d1 8c 3f 52 17 98 3f a5 8a 82 3f 22 db 45 3f
       1.1001518 1.1882117 1.0198561 0.77287495
000070 9f 55 d0 3f e3 05 dd 3e 38 71 a9 3f f8 10 0f 3f
       1.627613 0.43168554 1.3237677 0.5588527
000080 d2 da 98 3f 3a c2 91 3f 3a fc 1c 3f b7 fd 91 3f
       1.1941779 1.1387398 0.6132237 1.1405553
000090 2d e3 18 3f 80 3b 94 3f 4d 0c 08 3f f2 a3 15 3f
       0.5972164 1.1580658 0.5314377 0.58453286
0000a0 a0 db 21 3f 30 7e 8f 3f 46 19 b6 3f 91 ae 4b 3f
       0.63225746 1.1210384 1.4226463 0.7956324
0000b0 a7 ca 50 3f 9c 0a c4 3f 43 00 ab 3f a2 22 89 3f
       0.8155922 1.5315738 1.3359455 1.0713694
0000c0 fc c6 95 3f 4b 56 92 3f 0d 8a 84 3f af 1a 45 3f
       1.170135 1.1432585 1.035463 0.7699384
0000d0 75 25 a5 3f 11 c4 cc 3f aa 8c a7 3f fa ea 74 3f
       1.2902056 1.5997335 1.3089802 0.95671046
0000e0 28 b2 b0 3f 71 a3 95 3f 6e 3d a4 3e df 7f b9 3f
       1.3804369 1.1690503 0.32078117 1.4492148
0000f0 64 fb 99 3e fd 81 9e 3f d2 90 5a 3f 13 92 07 3f
       0.30074608 1.2383419 0.8537723 0.52957267
000100 c9 b4 a1 3f 02 76 80 3f 72 65 c3 3f fc ec 8a 3f
       1.2633296 1.0036013 1.5265334 1.0853572
000110 a4 cb ea 3e 92 16 f3 3f 6e 14 9d 3f 24 ef 9f 3f
       0.4585849 1.8991263 1.227186 1.2494855
000120 74 79 b8 3f 9e a6 b7 3f 3a 5c 68 3f 40 89 9e 3f
       1.4412065 1.4347723 0.90765727 1.2385635
000130 d1 93 04 3f aa d1 66 3f 81 c6 72 3f 48 26 f5 3e
       0.5178805 0.9016367 0.9483414 0.4788077
000140 f6 52 4f 3f 02 7e 0c 3f 60 5f 76 3f 2d a3 de 3e
       0.80985963 0.5487977 0.9623928 0.43483868
000150 92 66 8b 3f d3 bf ae 3f a6 e0 27 3f 2a f8 c5 3f
       1.0890677 1.365229 0.6557716 1.5466359
000160 81 65 9e 3f b7 dc 77 3f fc 12 45 3f b3 d7 36 3f
       1.2374727 0.9682116 0.7698209 0.7142288
000170 4b 1f 9f 3f 76 16 92 3f 12 71 91 3f a0 9e 8f 3f
       1.2431425 1.1413105 1.1362631 1.1220284
000180 6c 20 96 3f e8 d6 3e 3f 29 82 43 3f bf 6a 41 3f
       1.1728644 0.7454667 0.76370484 0.75553507
000190 45 8d 8f 3f 41 9c 04 3f 9c 0a ed 3e 3b 08 79 3f
       1.1214987 0.51800925 0.46297157 0.97278184
0001a0 66 27 43 3f 99 e0 84 3f c7 f4 78 3f 4c c8 1f 3f
       0.7623199 1.0381042 0.972485 0.62415004
0001b0 e0 48 5b 3f d8 be 02 3f 8a a5 90 3f ca b5 88 3f
       0.85658073 0.51072454 1.1300519 1.0680478
0001c0 ce 61 88 3f 1a 15 c0 3f fc 77 98 3f e0 17 8e 3f
       1.0654848 1.500644 1.1911616 1.1101036
0001d0 dc 0c 7b 3f 53 4b 9e 3f a0 87 00 3f 5d 87 47 3f
       0.98066497 1.2366737 0.5020695 0.7794092
0001e0 8a 08 69 3f 98 5d 7f 3f c5 fe 0a 3f ad b9 cf 3f
       0.91028655 0.9975219 0.54295 1.6228539
0001f0 74 82 a3 3f cb f8 83 3f 23 be f7 3e 69 08 b0 3f
       1.2774186 1.03103 0.4838725 1.3752567
000200 4e 91 00 3f 82 81 a2 3f aa 8f 8c 3f fb 81 86 3f
       0.5022172 1.2695773 1.0981343 1.0508417
000210 ab e2 33 3f a9 4a 69 3f 92 06 6e 3f 62 8f a3 3f
       0.7026774 0.9112955 0.92978776 1.2778132
000220 7d be 9d 3f 09 09 7f 3f ff f9 c7 3e 49 7b a5 3f
       1.2323757 0.9962316 0.3905792 1.2928249
000230 77 c7 a1 3f 88 e0 94 3f ab 83 d1 3e 90 73 7d 3f
       1.2638997 1.1631021 0.40920767 0.9900446
000240 f8 54 13 3f b7 d8 80 3f f8 b1 96 3f b7 b2 64 3f
       0.5755153 1.0066136 1.1773062 0.893352
000250 56 12 57 3f bd 2c 9a 3f b7 08 e9 3f b0 18 b4 3f
       0.84012353 1.2044903 1.8205785 1.4070034
000260 22 2d 71 3f 29 59 60 3f b6 6c 38 3f 47 42 a3 3f
       0.9420949 0.8763605 0.7204088 1.2754601
000270 28 6c 9b 3f 3f aa 86 3f 53 e3 9d 3f fa 16 28 3f
       1.2142382 1.0520705 1.2334999 0.6566006
000280 e6 d0 76 3f ac 2d 36 3f e4 2c 50 3f 09 87 a8 3f
       0.96412504 0.7116344 0.813185 1.316621
000290 76 fb c5 3f 85 3c 98 3f 71 ed c2 3f da 25 94 3f
       1.5467365 1.1893469 1.5228711 1.1574051
0002a0 54 23 0f 3f 01 99 88 3f e6 fe 86 3f 27 2f 55 3f
       0.5591328 1.0671693 1.0546539 0.83275074
0002b0 a6 cc 96 3f 34 fc 53 3f 7f af dd 3f 91 a2 97 3f
       1.1781204 0.82806706 1.7319182 1.1846486
0002c0 12 c7 8f 3f 3e 59 9c 3f ae 6a ea 3e c5 d9 3c 3f
       1.1232626 1.2214735 0.45784515 0.7376979
0002d0 af fb 91 3f 13 6d be 3f 0d 0c 96 3f ba 5b 83 3f
       1.1404933 1.4877037 1.1722428 1.0262368
0002e0 46 57 e0 3e f5 20 96 3f de c6 7e 3f 3d fd 84 3f
       0.43816584 1.1728808 0.995222 1.0389782
0002f0 db 3c ba 3f d7 56 0a 3f bd 24 97 3f 59 24 99 3f
       1.4549822 0.5403876 1.1808087 1.1964217
000300 d0 6c 7f 3f e6 aa 9f 3f 81 62 8e 3f 0e 43 4e 3f
       0.9977541 1.2474029 1.1123811 0.8057107
000310 3e b6 82 3f c5 55 40 3f 65 6c c4 3f b4 bb 88 3f
       1.0211866 0.75130874 1.5345579 1.0682282
000320 c6 11 8b 3f cc e6 57 3f fb 9e a4 3f 15 ba 43 3f
       1.0864799 0.84336543 1.2861017 0.76455814
000330 06 74 89 3f df 19 93 3f 83 f8 83 3f 1c 3b a1 3f
       1.0738533 1.149227 1.0310215 1.2596164
000340 47 c4 8f 3f c5 d5 2f 3f fa cc 9d 3f 03 d2 81 3f
       1.1231774 0.6868556 1.2328179 1.0142215
000350 24 1a 91 3f 73 71 75 3f 71 54 aa 3f dc f5 2e 3f
       1.1336102 0.95876235 1.330702 0.683439
000360 70 20 8f 3f 78 44 90 3f 9e 67 ea 3f ff 96 08 3f
       1.1181774 1.1270895 1.8312871 0.533554
000370 da a5 8c 3f d3 c0 96 3f f2 79 70 3f 86 ec ac 3f
       1.0988114 1.1777595 0.93936074 1.3509681
000380 2a 72 99 3f 90 ed 3a 3f 96 98 ad 3e 1e 79 9c 3f
       1.1987965 0.7301874 0.33905476 1.2224462
000390 8d f8 93 3f e9 ae 9c 3f c3 e3 6b 3f f3 79 5c 3f
       1.1560227 1.2240878 0.9214441 0.8612358
0003a0 e5 6f 51 3f 85 fe 1a 3f eb 7f 39 3f c4 37 05 3f
       0.8181136 0.60544616 0.7246081 0.52038217
0003b0 4e a1 a7 3f d4 59 04 3f 3b e9 1a 3f 39 64 7a 3f
       1.3096101 0.51699567 0.6051213 0.9780918
0003c0 e1 43 86 3f 64 d8 75 3f 3d 61 9c 3f 26 e2 37 3f
       1.0489465 0.9603331 1.2217175 0.7182945
0003d0 2e 09 9c 3f 94 c2 73 3f 10 5e ff 3e 95 9a 88 3f
       1.2190301 0.9521878 0.49876451 1.0672175
0003e0 df ed 80 3f 91 ac 59 3f da 44 89 3f c2 de 60 3f
       1.0072592 0.8502894 1.0724137 0.878399
0003f0 64 a6 97 3f 4d 45 c8 3e c2 13 a2 3f b7 b5 7e 3f
       1.1847653 0.39115372 1.266228 0.99496025

bn1.bias f4 [256]
000000 39 7d 51 3b e5 52 1e bd 80 88 40 3d 1e 14 ac bb
       0.0031965508 -0.038653273 0.047005177 -0.0052514216
000010 5d 2e bb bc a2 0e 3b bd a1 f3 91 bc 92 f3 eb bc
       -0.022849256 -0.04566825 -0.017816367 -0.028802667
000020 09 ba 92 3c b6 5c a0 3b 3e 90 eb bc 2e e6 e0 bc
       0.017910974 0.0048938645 -0.028755303 -0.027453508
000030 ed 6f 31 bc 49 90 e5 3b 7d 43 2e bd c6 1d 80 3c
       -0.010829908 0.0070057255 -0.04254483 0.015639197
000040 70 da d7 3c 21 0e bc 3c ea 78 38 3c 43 ed 1a bd
       0.026349276 0.022955956 0.011259297 -0.037823927
000050 d2 10 a2 bb 94 77 2b bc 94 91 f0 bd b9 a7 de ba
       -0.004945853 -0.010465521 -0.11746517 -0.0016987241
000060 6d 02 12 3d c2 f1 1c bd 3e c1 ab 3c 30 3d 8d bd
       0.035646845 -0.038316496 0.020966168 -0.06896436
000070 c3 b2 79 bd f9 f4 60 bc 50 51 1d bd af 92 c4 bb
       -0.060961496 -0.013730281 -0.038407624 -0.0059989314
000080 2d 24 a7 3b 6b e0 ee bc 5c 7e 1c 3d 79 6f 12 3d
       0.005100748 -0.029159745 0.038206443 0.03575084
000090 4d ff c2 bb 19 b2 ef bd 73 f3 4d be 13 ab 62 3c
       -0.0059508444 -0.11703891 -0.201124 0.013834733
0000a0 4e a2 39 3a 19 ad 9e 3d 2e eb 35 bd f9 e0 73 bc
       0.0007081375 0.077478595 -0.044413738 -0.014885181
0000b0 59 b2 38 be 38 10 07 bd 43 a0 a8 3c 53 23 00 bd
       -0.18036784 -0.03297445 0.020584231 -0.031283688
0000c0 de 4c 56 bd 69 41 81 bd df 70 23 3c d8 b2 af ba
       -0.0523194 -0.06311304 0.009975641 -0.001340474
0000d0 77 d5 90 bd b3 d6 50 bc 22 fa 93 3c 22 f2 45 bc
       -0.07071965 -0.012746501 0.018063609 -0.012081655
0000e0 94 33 37 bd 26 12 c6 3c 0a b8 98 bb db 07 2c bd
       -0.044726923 0.024178576 -0.004660611 -0.04199968
0000f0 d6 74 07 3b a4 69 55 bc 95 75 9d bd f4 2c 0d bb
       0.0020669005 -0.013025675 -0.076884426 -0.0021541687
000100 77 15 83 bc ea 0d 42 3d 34 dd bd 3d 8c 6e d1 3c
       -0.016001446 0.04737655 0.09270707 0.025565408
000110 b6 d4 4a bc ec 87 0b 3d 19 cc 3a bd 33 e7 8d bc
       -0.012379816 0.034065172 -0.0456048 -0.017322158
000120 04 1b 0f bd 8b 7c 42 bd e6 04 af 3c 1d fb 95 bb
       -0.034937873 -0.047482055 0.02136464 -0.004577054
000130 73 c0 10 bc 43 35 fc 3b 90 ff 32 3c 10 68 f6 bc
       -0.008834946 0.007696779 0.010925189 -0.030078918
000140 10 b4 8f 3a 87 4e d4 bb 67 3e ce 3c 2a 86 66 3b
       0.0010963697 -0.0064790878 0.02517624 0.0035175183
000150 40 bb 25 3d 26 9a 19 bd 77 43 1c 3b 5b eb 31 bd
       0.04046178 -0.037500523 0.0023843923 -0.043437343
000160 bd 45 0f bd 25 06 d9 bc 0d 92 54 3c 85 02 b3 bc
       -0.034978617 -0.026492188 0.012974274 -0.021851787
000170 07 e0 9b bc e4 3b 62 bc 69 64 0d bc d9 78 50 bd
       -0.019027723 -0.013808224 -0.008629897 -0.0508965
000180 6c c2 ca b9 8f 29 5b 3c 04 7e 4b 3c e8 6c b3 bc
       -0.00038673298 0.013376608 0.012420181 -0.021902516
000190 b8 f7 2b bd 2b 22 56 3b a6 61 17 bd 68 18 f9 3c
       -0.04198429 0.0032674174 -0.03695836 0.030407146
0001a0 db 95 21 bb 51 9a d6 3c f8 7d 5e 3d f9 ae 21 be
       -0.0024655971 0.02619663 0.054319352 -0.15789403
0001b0 c1 e0 21 3b b8 cb 3f 3c c9 e3 b8 bd 71 43 8a 3e
       0.0024700614 0.011706285 -0.090278216 0.2700458
0001c0 64 1e 22 3d fb f6 36 bd 1a 65 92 3c e9 d8 2a bd
       0.039579764 -0.044669133 0.017870475 -0.041710768
0001d0 d4 56 00 3d be 09 d0 bc 72 d7 34 be 6f de 54 bc
       0.031332806 -0.02539527 -0.17660311 -0.012992485
0001e0 77 5c b9 3c 60 3a 59 bd 4b a4 93 bc 41 0b ae bc
       0.022627098 -0.053034186 -0.018022677 -0.0212456
0001f0 1c a6 de 3c 03 07 c3 bb 89 7e bb bb fc fd d7 bd
       0.027178816 -0.0059517636 -0.0057218713 -0.105464906
000200 23 5d 59 bc 2e 59 91 bd bb 20 f2 bc 3f 4f 60 3c
       -0.013266834 -0.07097088 -0.029556623 0.013690769
000210 9c 38 7e 3c 86 9d 74 bc fa a6 fd 3c 0d 85 f9 bd
       0.015516426 -0.014930135 0.03096341 -0.121835805
000220 08 dd 5b bd 36 e3 a2 3b 40 cf d5 bb 0f b8 bb bc
       -0.05367759 0.0049709333 -0.0065249503 -0.022914914
000230 74 49 b6 bc 68 5e 32 3d f8 de 4f bb 54 57 3c bc
       -0.022251822 0.043547064 -0.0031718593 -0.01149543
000240 10 b2 95 bb e4 84 23 bc c6 1c d5 bc 56 4e 5c 3c
       -0.004568346 -0.009980414 -0.026014697 0.013446411
000250 6a c0 63 3c 6d 41 97 3c 53 7b 1c bc 1c 8d 47 bd
       0.013900856 0.018463815 -0.009550887 -0.048718557
000260 5d 72 9f 3c 26 a2 c0 3c f7 1c 1e bc 8b 6d 0f bd
       0.019463712 0.023514818 -0.00965046 -0.035016578
000270 7b 69 2b bc b6 d3 a2 3d 9a c3 27 bd dc bb 6e 3c
       -0.01046216 0.07950537 -0.040958025 0.014571156
000280 8f a9 28 3c 21 48 cd bc 5b df 6e bb 06 58 41 be
       0.010294332 -0.025058808 -0.0036449048 -0.18881235
000290 a5 d5 d8 bc 49 3d 20 bd 25 72 77 be dd 98 a4 bc
       -0.026469061 -0.039120946 -0.24164636 -0.020092422
0002a0 26 25 19 bc 9a 78 62 bd 18 2b 04 3d b0 ec 1c 3d
       -0.009347236 -0.055290796 0.03226766 0.03831166
0002b0 1b c0 8f bb ae 9c bd b9 d5 ef 2e bd 2a db dc bb
       -0.0043869144 -0.00036165625 -0.04270919 -0.0067399936
0002c0 14 c9 43 3c b8 d8 ee bc 25 e1 92 bd 63 d9 02 3c
       0.011949796 -0.029156074 -0.07171849 0.007986399
0002d0 47 28 a6 3a 22 22 9c 3b 15 de 51 3c 99 3d b3 3c
       0.0012676799 0.004764811 0.012809296 0.021879958
0002e0 04 24 5f bb 27 c4 fc bc 8b 22 17 3d f9 16 1f bc
       -0.0034048567 -0.030855251 0.036898177 -0.009710067
0002f0 b2 f0 ec bc ba 09 73 bc 43 ee fb 3c f5 1c cf bc
       -0.028923366 -0.014833862 0.03075326 -0.025282362
000300 dd 28 0f 3c 4e 74 a8 bc c5 de 04 3c 44 58 bc 3c
       0.00873777 -0.02056327 0.008109753 0.022991307
000310 65 47 dd bb 48 5c 1d bc 7d 3e 71 bd 6a 30 97 3c
       -0.0067528957 -0.009604521 -0.058897484 0.018455703
000320 61 25 09 3c 43 77 1d bc 5d de c4 bc f4 1a fc bd
       0.008370728 -0.009610954 -0.024031812 -0.123098284
000330 ff e1 28 be 5a 04 ce 3c e3 0c 9c bd ca 43 c7 3d
       -0.1649246 0.02514856 -0.076196454 0.097297266
000340 46 ed 1a 3b e0 a5 c9 3b 84 bb e1 bd 41 12 12 3d
       0.002363996 0.006153807 -0.11022094 0.03566194
000350 31 e7 c4 bd e4 1e e7 3c 09 4a 46 bd c8 47 b3 bd
       -0.09614409 0.028212972 -0.04841045 -0.087539256
000360 b2 30 09 3d 4a e5 b5 bc 14 0e cc bc c0 97 f4 bd
       0.033493705 -0.02220406 -0.024909057 -0.119430065
000370 d6 29 0b bc b8 3f 91 bc 79 df bd 3c 63 75 5e 3c
       -0.008493861 -0.017730579 0.02317785 0.013577792
000380 da f3 72 bc 39 ba 3c bc ae cf d7 bc a1 5c 2f be
       -0.014828647 -0.011519008 -0.026344147 -0.17125179
000390 d8 68 72 3b 2b 3c 88 bc 27 e6 bc 3c a7 1e 81 3c
       0.0036988761 -0.016630253 0.023058964 0.015761686
0003a0 4c 21 92 3c f0 29 cd bb 0d 76 c5 bd 84 81 44 be
       0.017838143 -0.006261103 -0.09641657 -0.19190031
0003b0 0b 92 6c bc 99 41 67 bc 2a 70 6e 3a 8c 67 36 3d
       -0.014439116 -0.014114761 0.0009095693 0.044532344
0003c0 c9 8b c2 3c f5 ce a2 39 d3 37 31 be 2f bd 00 bd
       0.023748295 0.00031053243 -0.17306451 -0.03143042
0003d0 85 23 10 bd e9 e6 a9 3c cc 40 3e bd 27 f7 bc bc
       -0.035190124 0.02073999 -0.046448514 -0.02306707
0003e0 b4 e6 5e 3b fc 5b 67 3c 8f 00 0c bb 29 e5 ca 3c
       0.0034012021 0.014121052 -0.0021362638 0.024767475
0003f0 ab e4 06 bd 8e a9 54 bc 9e 4e ec bc d4 6c e2 3c
       -0.03293292 -0.012979878 -0.028846081 0.027639784
