input/model/ANN_retweet_c_dan_gan.pth (torch, 225575 bytes, 19 tensors)

fc1.weight f4 [256, 44]
0	0xbe2ca0df	-0.16858242
1	0xbe2a3eb7	-0.16625486
2	0xbc692d09	-0.014231929
3	0x3ca0f4ac	0.019647919
4	0xbb5b4f53	-0.003346403
5	0xbeb4e957	-0.35334274
6	0x3dff0810	0.1245271
7	0xbde49b76	-0.11162464
8	0xbfb1d8fd	-1.3894345
9	0xbd714f1a	-0.058913328
10	0x3dfed7c9	0.124435015
11	0x3df2c66e	0.11854254
12	0x3cf9bf54	0.03048674
13	0xbc5b98b8	-0.01340311
14	0xbd47e138	-0.04879877
15	0x3ccb8c39	0.024847137
16	0x3e0c5d3b	0.1370744
17	0x3e2bf585	0.16792877
18	0xbe2a7112	-0.16644695
19	0x3e94d033	0.29065093
20	0xbfcc59f5	-1.5964953
21	0x3ec15dd8	0.3776691
22	0xbec8c7a1	-0.39214805
23	0x3d1b691c	0.037942037
24	0x3cff7b65	0.031186769
25	0x3e080e7d	0.13286777
26	0x3e810d4b	0.25205454
27	0xbc63272f	-0.013864323
28	0x3e1138d4	0.14181834
29	0xbdbbd780	-0.09171963
30	0x3dbba4e4	0.0916231
31	0x3d991976	0.074755594
32	0x3e128473	0.14308338
33	0x3e72fabe	0.23728463
34	0x3e31d436	0.17366108
35	0x3e334bcb	0.17509381
36	0x3da0eb5a	0.0785739
37	0xbd10124d	-0.035173703
38	0xbd1410ec	-0.03614895
39	0xbe89c14c	-0.26905286
40	0xbcfd27f3	-0.030902838
41	0x3cb3fa7a	0.021970022
42	0x3d43e6ae	0.047827415
43	0xbd1454f0	-0.036213815
44	0xbe3d6503	-0.18495564
45	0xbdcecda5	-0.10097817
46	0x3cb8e2f3	0.022569155
47	0xbdd0353e	-0.10166405
48	0xbdede9e2	-0.11616875
49	0x3e363032	0.17791823
50	0xbdda8747	-0.10670333
51	0xbe994ae2	-0.29939944
52	0x3f9616e0	1.1725731
53	0x3e3ee941	0.18643667
54	0xbd613e2b	-0.05499093
55	0x3c49bc00	0.012312889
56	0xbea319e2	-0.31855685
57	0x3de59126	0.112093255
58	0x3d5b6e58	0.05357203
59	0xbd3a55bc	-0.04549192
60	0xbf062942	-0.52406704
61	0xbf0c72be	-0.5486258
62	0x3f2e7025	0.6813987
63	0x3ebc81ab	0.3681768
64	0x3ecbd8af	0.39813754
65	0x3e7d9403	0.24763493
66	0xbd972755	-0.07380549
67	0xbf11c454	-0.569402
68	0xbf373abb	-0.7157399
69	0x3e644b69	0.22294392
70	0xbf168e20	-0.58810616
71	0x3e4ecfbb	0.2019643
72	0xbf279e2a	-0.65475714
73	0xbf52fa54	-0.8241322
74	0xbedd19bb	-0.43183693
75	0xbe5fafcd	-0.21844406
76	0xbe99245e	-0.29910558
77	0xbdb9948a	-0.09061535
78	0x3eb5d605	0.35514846
79	0xbe7a7848	-0.24459946
80	0xbee24234	-0.44191134
81	0xbbbc88de	-0.0057536205
82	0xbebaf5c4	-0.3651563
83	0xbefced6c	-0.4939989
84	0xbe3866b3	-0.18007927
85	0x3f69ba07	0.9129948
86	0xbebe8848	-0.3721335
87	0xbf09cf1d	-0.53831655
88	0x3d80b096	0.06283681
89	0xbe3dcbe8	-0.18534815
90	0x3db88fe0	0.09011817
91	0xbe3f7245	-0.18695934
92	0xbe8bafb7	-0.27282497
93	0xbefa627e	-0.4890327
94	0x3e14c66c	0.14528817
95	0x3dbc9bf1	0.09209431
96	0xbfc44b5e	-1.53355
97	0xbf2014ee	-0.62531936
98	0xbe08bbca	-0.13352886
99	0x3ed432a6	0.41444892
100	0x3ce37334	0.027764894
101	0x3e2c90a4	0.16852051
102	0x3d190eb4	0.037367538
103	0xbdfb2bb2	-0.122641936
104	0x3ef30b49	0.47469547
105	0xbeaf1712	-0.3419729
106	0x3e51979e	0.20467994
107	0x3bc9e4ff	0.0061613317
108	0xbf85b67e	-1.0446317
109	0x3eb2eb17	0.34944984
110	0xbe82d828	-0.2555554
111	0x3e7e663f	0.24843691
112	0xbdc3b029	-0.09555084
113	0xbe8b6093	-0.27222118
114	0x3e62c58c	0.2214567
115	0xbd048da6	-0.03236165
116	0x3d133248	0.035936624
117	0xbda7e144	-0.08197263
118	0xbd486541	-0.04892469
119	0xbc526cea	-0.01284335
120	0x3e55e08c	0.20886439
121	0x3dc7437f	0.09729671
122	0xbe6b3396	-0.22968897
123	0x3e0917e0	0.13388014
124	0x3e80708d	0.2508587
125	0x3df9ae54	0.121914536
126	0x3deac637	0.11463588
127	0x3e8efd07	0.2792742
128	0xbe94a8c6	-0.29035014
129	0x3e0efdd8	0.13964021
130	0x3da49084	0.08035377
131	0x3e871ff5	0.2639157
132	0x3ccfd5cf	0.025370507
133	0x3da87465	0.082253255
134	0x3de76174	0.112978846
135	0xbda93ca1	-0.08263517
136	0xbe0f44cf	-0.13991092
137	0xbf8861b4	-1.0654817
138	0x3f442025	0.7661155
139	0xbef5e6cc	-0.48027647
140	0xbfa2fba7	-1.2733048
141	0x3f02c0a3	0.5107519
142	0xbf159991	-0.5843745
143	0x3e98c57d	0.29838172
144	0x3f5a7ea8	0.8534951
145	0xbc630c07	-0.013857848
146	0xbd93f470	-0.07224357
147	0x3c99fa85	0.018796215
148	0x3f885b54	1.0652871
149	0x3fba4814	1.4553246
150	0xbfeb5105	-1.83841
151	0xbf22177f	-0.633171
152	0x3f1fecaf	0.62470526
153	0xbb15f138	-0.0022879373
154	0x3df81e46	0.12115149
155	0x3f268d28	0.6505914
156	0xbe5a8773	-0.21340732
157	0x3f873ab2	1.0564787
158	0x3f855235	1.0415713
159	0xbfaf91ac	-1.371633
160	0x3e23c87f	0.15994452
161	0x3eec34b4	0.4613396
162	0x3f548e7d	0.8302992
163	0x3f1e6252	0.61868775
164	0x3e49996c	0.19687432
165	0xbd4a5a77	-0.04940268
166	0xbf600180	-0.8750229
167	0x3e26ef94	0.1630233
168	0x3f8b2bc5	1.0872732
169	0xbeed72f9	-0.4637678
170	0x3e43b915	0.19113572
171	0xbe7ad54d	-0.2449543
172	0xbf2d0e0d	-0.67599565
173	0xbfc2036a	-1.5157292
174	0x3f328768	0.69737864
175	0x3f15af3e	0.58470523
176	0xbe345a9b	-0.17612688
177	0xbe820285	-0.25392547
178	0x3cd065bc	0.025439136
179	0xbe217e73	-0.15770893
180	0x3e3f7b6b	0.18699424
181	0xbaaa866d	-0.0013010033
182	0x3d3781c7	0.0448015
183	0xbdb03040	-0.08602953
184	0x3f14624e	0.579625
185	0xbebe71c0	-0.3719616
186	0xbe8b24f6	-0.27176636
187	0x3e2e92ac	0.17048138
188	0x3d52a038	0.051422328
189	0x3dd5dd7c	0.104426354
190	0xbd15fe07	-0.036619212
191	0xbc73f45b	-0.014889802
192	0xbef9e7e4	-0.4880973
193	0xbe03f05f	-0.12884663
194	0x3ea8e6a1	0.32988456
195	0xbe5efcb3	-0.21776085
196	0x3ee5f823	0.44915876
197	0x3edfb592	0.43693215
198	0x3f0ac9af	0.54213995
199	0x3d695308	0.05696395
200	0xbe0dbd4e	-0.13841745
201	0xbd67dcc1	-0.05660701
202	0x3e15df39	0.14635934
203	0x3c90df3d	0.017684573
204	0xbea7da31	-0.32783654
205	0xbdeacdf9	-0.114650674
206	0x3d84315e	0.064547285
207	0xbc8432a1	-0.016137423
208	0x3ed699cc	0.41914213
209	0xbf1bfe67	-0.6093506
210	0xbd8f53f4	-0.06998435
211	0xbd7267b9	-0.05918095
212	0x3b03c04c	0.0020103632
213	0x3cce8d16	0.02521376
214	0x3d47bfef	0.048767027
215	0xbd6148d8	-0.05500111
216	0xbe597f47	-0.21239959
217	0xbdc35349	-0.0953737
218	0x3d8615aa	0.06547101
219	0xbed1282d	-0.40850964
220	0x3cea4945	0.02859939
221	0x3c2669a3	0.010157022
222	0xbe17b959	-0.14816798
223	0x3e42073e	0.18948075
224	0x3e966a07	0.29377767
225	0xbeec8d41	-0.46201518
226	0x3e8cd875	0.27508894
227	0x3f5e52c2	0.8684503
228	0xbff22bcc	-1.8919616
229	0x3e5571a9	0.20844139
230	0x3dfa9b50	0.12236655
231	0x3f0ddfb3	0.5541946
232	0x3eae1b29	0.34005097
233	0x3da19d24	0.078913
234	0x3ca92c36	0.020650964
235	0x3c3f4bd6	0.011675796
236	0xbebead15	-0.37241426
237	0x3f033699	0.51255184
238	0xbe9f00bf	-0.31055257
239	0xbdf03325	-0.11728505
240	0xbf60560c	-0.876313
241	0xbf924d41	-1.1429826
242	0xbebd61ce	-0.36988682
243	0x3e36a935	0.17837985
244	0xbfa2315c	-1.2671313
245	0xbdc6416b	-0.09680446
246	0xbf4cb1d2	-0.7995883
247	0xbeb2df93	-0.349362
248	0x3e77bf3f	0.24194048
249	0x3f847b7b	1.0350183
250	0x3ed9cb4b	0.42537913
251	0xbe869796	-0.26287526
252	0x3cee2b6c	0.02907344
253	0x3ea7af32	0.3275085
254	0xbf136286	-0.5757221
255	0x3da9870a	0.0827771

fc1.bias f4 [256]
0	0x3dd328e2	0.10310532
1	0xbd9c75c1	-0.07639647
2	0xbdd8e58b	-0.10590657
3	0x3d3030ec	0.043015406
4	0xbcfcdc17	-0.030866666
5	0x3caf1c9d	0.021375949
6	0xbdc32c1a	-0.09529896
7	0x3d4187cd	0.04724865
8	0xbdc0bfde	-0.09411596
9	0xbdbfc902	-0.09364511
10	0x3e16d656	0.147302
11	0x3dbf4702	0.093397155
12	0xbdcd7a16	-0.10033052
13	0x3dd3fcbd	0.103509404
14	0x3dd8ebf3	0.10591879
15	0xbd0e191c	-0.034691915
16	0x3dcd8ead	0.10036979
17	0xbde17e49	-0.11010415
18	0x3d3ad257	0.045610752
19	0x3df974c4	0.121804744
20	0x3d68bb1f	0.056819078
21	0x3da8549a	0.082192615
22	0x3e10042f	0.14064096
23	0x3da1d946	0.0790277
24	0xbd98d126	-0.07461767
25	0xbd3fa2d0	-0.04678613
26	0xbdc4e3af	-0.0961374
27	0xbccfc2f8	-0.025361523
28	0x3d3023f3	0.043003034
29	0x3d90b488	0.070656836
30	0x3e03a08b	0.12854211
31	0x3e0a3ef1	0.13500573
32	0xbddb926a	-0.10721286
33	0x3d00bb45	0.031428594
34	0x3d961570	0.07328308
35	0xbe18dbc3	-0.14927582
36	0x3df8325e	0.12118982
37	0x3e07498b	0.13211648
38	0x3dcec4ff	0.10096168
39	0xbdeb18f7	-0.11479371
40	0x3da90906	0.08253674
41	0x3d49cb0e	0.049265914
42	0x3cb496da	0.022044588
43	0x3df2b11d	0.11850188
44	0x3e12b854	0.14328128
45	0xbdaeb4dc	-0.0853059
46	0x3c285de8	0.010276295
47	0x3d2d0b9b	0.042247396
48	0x3d0e1d55	0.034695942
49	0xbc8e55cd	-0.017374897
50	0xbc1e20e3	-0.0096513955
51	0x3dcfa27a	0.10138412
52	0x3db1964f	0.08671247
53	0x3d978d5f	0.07400011
54	0x3ad8e06b	0.0016546374
55	0x3d1af932	0.037835307
56	0xbd436a60	-0.04770887
57	0xbd21e713	-0.03952701
58	0xbdd6e555	-0.1049296
59	0x3e36b9d2	0.17844322
60	0x3cc57de9	0.02410789
61	0xbe00fbf6	-0.12596115
62	0xbd78c605	-0.06073572
63	0x3cf8507b	0.030311814
64	0xbe00a569	-0.12563099
65	0xbd4c7b78	-0.049922436
66	0x3d6485f0	0.055791795
67	0xbd4d2247	-0.050081518
68	0x3db39e14	0.087703854
69	0xbc1300ed	-0.008972389
70	0xbdec4367	-0.115362935
71	0x3d21d441	0.03950906
72	0x3d9ce1a0	0.07660222
73	0xbd369384	-0.044574276
74	0x3df47583	0.11936476
75	0x3c627f6c	0.013824325
76	0xbcd106bd	-0.025515908
77	0x3cd8d16f	0.026467053
78	0x3e05e67c	0.13076204
79	0xbdaf87b3	-0.085708044
80	0x3dd8f109	0.10592849
81	0xbdacfd13	-0.084467076
82	0xbc858aec	-0.016301595
83	0xbdd315a8	-0.10306865
84	0x3df95654	0.12174669
85	0xbd91e943	-0.07124569
86	0xbce97093	-0.028496062
87	0x3b2963eb	0.002584691
88	0x3dd07acc	0.10179672
89	0xbd8b59fe	-0.06804274
90	0x3dc840fc	0.0977802
91	0x3de13eae	0.10998283
92	0x3d157cad	0.036495853
93	0xbd767486	-0.06016972
94	0xbce26b6d	-0.027639115
95	0x3e099af8	0.13438022
96	0xbd15c0f8	-0.036560982
97	0x3c9f6876	0.01945899
98	0xbd6493c6	-0.05580499
99	0xbcd91892	-0.026500974
100	0x3e08afae	0.13348266
101	0xbc8c5594	-0.01713065
102	0xbe05d18a	-0.13068214
103	0x3ced3c47	0.028959407
104	0x3c10f51e	0.008847503
105	0xbdd53987	-0.10411363
106	0xbd2f18eb	-0.042748373
107	0xbdbc30dd	-0.091890074
108	0x3e0a0e29	0.13481964
109	0x3e22e44f	0.15907405
110	0x3e2ef8ff	0.17087172
111	0xbe0acc64	-0.13554531
112	0xbd54ae18	-0.05192384
113	0xbd435fee	-0.047698908
114	0xbdb56f40	-0.0885911
115	0x3df75865	0.12077407
116	0xbcc3bdc0	-0.02389419
117	0x3d2c98a2	0.04213775
118	0xbe1c3a0e	-0.15256521
119	0x3e0a47a6	0.13503894
120	0x3e16bdff	0.14720915
121	0x3db43d01	0.08800698
122	0xbe180a15	-0.14847596
123	0x3e120ef6	0.1426352
124	0xbd9f7f5b	-0.07787963
125	0x3ce43d6b	0.027861318
126	0xbd8d68e4	-0.06904772
127	0x3dbc965b	0.092083655
128	0x3e07d798	0.13265836
129	0x3dd6921e	0.104770884
130	0x3ce752a5	0.02823765
131	0x3dae185e	0.085007414
132	0xbd27d7b9	-0.040977214
133	0x3de3c125	0.11120824
134	0x3d4e431b	0.050356966
135	0x3db01edc	0.08599636
136	0xbc5ed6fc	-0.013601061
137	0xbd6245d4	-0.055242375
138	0x3c50606b	0.0127183
139	0x3db870f9	0.09005923
140	0xbdb7a9e2	-0.089679495
141	0xbd560b9b	-0.05225716
142	0x3e1987c7	0.14993201
143	0xbba87057	-0.005140345
144	0x3da2dffb	0.07952877
145	0xbe079268	-0.13239443
146	0x3e304bbe	0.17216393
147	0xbdb215af	-0.08695542
148	0xbd1992d7	-0.037493553
149	0x3e03a0cd	0.1285431
150	0xbe08338b	-0.13300912
151	0x3da57c3d	0.08080337
152	0xbda65a41	-0.08122683
153	0xbd6f97d4	-0.058494404
154	0xbc849bb6	-0.01618753
155	0x3d628c82	0.05530978
156	0xbd974c37	-0.07387584
157	0x3db90453	0.09034028
158	0xbe07919f	-0.13239144
159	0x3d28a665	0.04117431
160	0x384310a1	4.650711e-05
161	0xbdefa5c3	-0.117015384
162	0x3e0433e8	0.12910426
163	0xbce3d0a8	-0.027809456
164	0x3db1650d	0.08661852
165	0xbc9f01f8	-0.019410118
166	0xbe155b62	-0.14585641
167	0xbc452b02	-0.01203418
168	0x3d1144a1	0.03546584
169	0xbd61719f	-0.05504
170	0xbdc95521	-0.0983069
171	0x3e1411d0	0.1445992
172	0xbda20eb6	-0.07912962
173	0xbe10d0dd	-0.14142175
174	0x3cd28712	0.025699172
175	0x3d83a59c	0.06428072
176	0xbac6e79d	-0.0015175227
177	0x3e060c4c	0.13090628
178	0x3df22cab	0.11824926
179	0xbd7d2afc	-0.06180857
180	0xbd938853	-0.07203736
181	0xbc6f8642	-0.014619412
182	0x3de00c82	0.10939886
183	0xbdeb43c1	-0.114875324
184	0x3bbaa023	0.0056953593
185	0xbe05be5e	-0.130609
186	0xbdb1a931	-0.08674849
187	0x3dd6820a	0.10474022
188	0x3d5d6a88	0.054056674
189	0x3d31bf53	0.04339535
190	0xbda2312a	-0.079195336
191	0xbded12b8	-0.11575836
192	0xbbf6a0ed	-0.007526508
193	0xbdd96bb3	-0.10616245
194	0xbdf7fef2	-0.12109174
195	0x3ae8748d	0.001773493
196	0x3df00f1c	0.11721632
197	0xbd13a539	-0.03604624
198	0xbd74b21d	-0.059740175
199	0xbd927517	-0.07151239
200	0x3dea507c	0.114411324
201	0xbdc7d362	-0.09757115
202	0xbd801d83	-0.06255629
203	0xbd0947ba	-0.03351567
204	0xbcf5ed27	-0.03002031
205	0x3e050ed1	0.12993933
206	0x3d20beb3	0.039244365
207	0x3c3779c6	0.011198467
208	0x3a8c31b2	0.0010695963
209	0x3d0d31b5	0.034471232
210	0xbdbbd794	-0.09171978
211	0x3dccb818	0.099960506
212	0x3e126d3e	0.14299485
213	0x3e1d8c62	0.15385583
214	0xbd44d7cf	-0.048057374
215	0x3dc2502f	0.0948795
216	0x3dcb39af	0.09923112
217	0xbb2ed21a	-0.0026675523
218	0x3de6a947	0.11262756
219	0xbe1a471b	-0.15066187
220	0x3dd10b96	0.10207288
221	0xbca80937	-0.020512206
222	0x3dd523f7	0.104072504
223	0x3d13d2da	0.036089756
224	0xbcb6d9ed	-0.022320712
225	0xbc30c1eb	-0.010788421
226	0xbd1be505	-0.038060207
227	0x3ca7ec20	0.020498335
228	0xbd3c5cd6	-0.045986973
229	0xbe07a3eb	-0.13246123
230	0x3d4163a4	0.047214165
231	0x3dd5fcf0	0.104486346
232	0xbcef2251	-0.029191168
233	0xbd95446c	-0.07288441
234	0xbdec501e	-0.11538719
235	0x3ac722f1	0.0015192908
236	0x3de416e0	0.111371756
237	0xbd6cf0e3	-0.057846915
238	0x3d88b994	0.06676021
239	0x3dc5c008	0.09655768
240	0xbdc827c8	-0.09773213
241	0xbde44924	-0.11146763
242	0xbcd150e7	-0.025551273
243	0x3b8afe4b	0.00424174
244	0xbd69ab6b	-0.057048243
245	0x3d6e8120	0.058228612
246	0x3cfed5c2	0.031107787
247	0xbc037058	-0.00802239
248	0xbd64e75a	-0.055884697
249	0xbd533a1e	-0.051569097
250	0xbdab4a36	-0.08363764
251	0xbdc7f86b	-0.09764179
252	0xbbbd2817	-0.0057726013
253	0x3deb77aa	0.114974335
254	0xbd934a6b	-0.071919285
255	0xbc1893dc	-0.009312596

fc2.weight f4 [128, 256]
0	0x3d57db7e	0.05269956
1	0xbde3ba7b	-0.11119553
2	0x3ca37245	0.019951949
3	0x3c9dc26f	0.019257752
4	0xbc34dba6	-0.011038696
5	0x3dc4a353	0.09601464
6	0x3d01882f	0.031624015
7	0x3c5bb2cb	0.013409327
8	0xbbd05a3c	-0.006358413
9	0xbd23176c	-0.03981726
10	0x3cb0d9a4	0.021588154
11	0xbd823016	-0.06356828
12	0x3d278934	0.04090233
13	0xbca49897	-0.020092292
14	0x3d12302f	0.035690483
15	0x3cdb42cd	0.026765252
16	0x3df46914	0.119341046
17	0x3e0f54bd	0.13997169
18	0xbd932431	-0.07184637
19	0x3cf42073	0.02980063
20	0xbe581ddf	-0.21105145
21	0xbd9b1d0e	-0.07573901
22	0xbc9b2bc1	-0.018941762
23	0x3d529ab9	0.051417086
24	0xbe15da22	-0.14633992
25	0x3e87d0d1	0.26526502
26	0x3d930843	0.0717931
27	0x3da5701a	0.08078022
28	0x3e74465c	0.23854965
29	0x3d376f1f	0.044783708
30	0x3e24d1df	0.16095684
31	0x3bd77175	0.0065748044
32	0x3d1ad167	0.037797358
33	0xbd94b924	-0.07261875
34	0x3e70103e	0.23443696
35	0xbd942f13	-0.07235541
36	0xbd8382c2	-0.064214244
37	0x3ea5b0e0	0.32361507
38	0x3d203672	0.039114423
39	0x3d644c69	0.055736933
40	0xbd597f45	-0.05309989
41	0x3cbec446	0.02328695
42	0x3d619bbb	0.055080157
43	0xbc808cf9	-0.015692221
44	0xbce9a335	-0.028520206
45	0xbb3c5b8e	-0.0028741094
46	0xbe09ee7d	-0.13469882
47	0xbc20f474	-0.009823907
48	0x3bcacaeb	0.0061887405
49	0xbdd8dfa0	-0.10589528
50	0xbd3f40c4	-0.046692625
51	0x3e1ea39a	0.15492097
52	0x3da0819e	0.078372225
53	0xbd3653f4	-0.044513658
54	0x3c5ecea5	0.013599073
55	0xbc439294	-0.011936802
56	0x3dcf4a62	0.10121609
57	0xbd26d37f	-0.040729042
58	0x3d81f1a7	0.0634492
59	0x3e80fa01	0.25190738
60	0xbdb8af4c	-0.0901781
61	0x3d3eb2e1	0.04655731
62	0x39cc6610	0.00038985955
63	0xbd80e791	-0.06294168
64	0xbce37bdb	-0.02776902
65	0xbdda8ee3	-0.10671785
66	0x3d03a4d1	0.032139603
67	0xbe47c9d4	-0.19510585
68	0xbe03a459	-0.12855662
69	0x3d355fe8	0.044280916
70	0x3d084955	0.03327306
71	0x3d6256ec	0.055258676
72	0xbcef2b47	-0.029195441
73	0x3e030295	0.12793954
74	0x3defe9bb	0.117145024
75	0x3dec8bb4	0.11550084
76	0x3d028824	0.031868115
77	0x3cbe5cd8	0.02323763
78	0xbb64eb83	-0.0034930415
79	0x3d6bd4e9	0.057576094
80	0x3e255b69	0.16148151
81	0x3dcbd793	0.09953227
82	0xbc83da4d	-0.016095305
83	0xbeed8c98	-0.46396327
84	0xbd60a2c6	-0.054842733
85	0xbd00fcc9	-0.031491075
86	0xbd546bbf	-0.051860567
87	0x3e22aa5d	0.15885301
88	0x3c75392d	0.014967245
89	0x3b200a18	0.002442008
90	0xbcd7bf74	-0.02633641
91	0xbca09eb6	-0.01960693
92	0xbd92b1e9	-0.0716284
93	0xbb319abe	-0.002710029
94	0x3d9950c9	0.07486112
95	0xbd68c938	-0.056832522
96	0x3d8067f6	0.06269829
97	0x3d501610	0.05080229
98	0x3dc15442	0.09439899
99	0x3e00ab0c	0.12565249
100	0xbb5e09bd	-0.0033880316
101	0xbdd80edc	-0.10549709
102	0x3d8da33f	0.06915902
103	0xbd5d3d32	-0.05401344
104	0xbdc2b1de	-0.09506582
105	0xbd07f271	-0.033190195
106	0xbb8cc9f7	-0.004296537
107	0x3d565a44	0.052332178
108	0xbd28d66b	-0.04122011
109	0x3e7cd095	0.24688943
110	0x3d4b130c	0.04957871
111	0xbce8fb13	-0.028440034
112	0x3d43cf8c	0.047805354
113	0x3cce7a09	0.025204675
114	0xbab9d0b8	-0.0014176583
115	0xbca2748e	-0.019830968
116	0x3cc62526	0.024187636
117	0xbcdccd14	-0.026953258
118	0xbd78103d	-0.06056236
119	0x3c759cae	0.014990969
120	0x3db2ebe1	0.087363966
121	0x3d0321ca	0.032014646
122	0xbd0ca5ae	-0.034337692
123	0x3b0bea23	0.0021349273
124	0x3c70eab5	0.014704396
125	0xbcd8e659	-0.026477026
126	0x3e5892d0	0.21149755
127	0xbeee533b	-0.46547875
128	0x3e00dcde	0.12584254
129	0x3d324d31	0.043530647
130	0x3dd0b636	0.10191004
131	0x3d79d9d5	0.060998756
132	0x3dc77eca	0.0974098
133	0x3da7163d	0.081585385
134	0xbb08097a	-0.0020757602
135	0x3d5efd28	0.054440647
136	0xbd389eb3	-0.045073222
137	0x3e03aa1f	0.12857865
138	0xbe5e51ce	-0.21710894
139	0xbd25b04b	-0.04045133
140	0x3cba97c2	0.022777442
141	0x3db4907b	0.0881662
142	0x3e1e8211	0.15479304
143	0x3ce03c97	0.027372641
144	0xbb15beb7	-0.002284927
145	0x3e004ae5	0.1252857
146	0x3d95359f	0.07285618
147	0x3d8f9aba	0.070119336
148	0xbd94a06a	-0.07257159
149	0xbcdf095f	-0.027226148
150	0xbe31a833	-0.17349319
151	0x3e37f3bd	0.17964073
152	0x3e2a8f97	0.16656338
153	0xbd11e083	-0.0356145
154	0x3d66bd7e	0.056333058
155	0xbe103482	-0.1408253
156	0x3e458486	0.19288835
157	0xbbb092c2	-0.0053885886
158	0x3e446a79	0.19181241
159	0x3d23864f	0.03992301
160	0x3d435dfd	0.047697056
161	0x3d6a40d4	0.05719073
162	0xbbf4875a	-0.007462424
163	0x3d7a516c	0.061112806
164	0x3cecac5d	0.028890783
165	0x3c6daf1d	0.014507082
166	0xbc9761a0	-0.018479168
167	0xbd0e687e	-0.03476762
168	0xbc451941	-0.012029947
169	0x3ca07d1c	0.019590907
170	0x3dd2dd4b	0.102961145
171	0x3e1ac8b3	0.15115623
172	0xbd425743	-0.0474465
173	0x3cbe74f6	0.02324913
174	0xbd0fddd6	-0.03512367
175	0x3d76b055	0.060226757
176	0xbd0921ad	-0.03347938
177	0xbc02789c	-0.007963326
178	0x3d2f2cbd	0.042767275
179	0xbe25cfb2	-0.1619251
180	0x3c0558fd	0.008138892
181	0x3d3552bf	0.044268366
182	0x3dbdd9db	0.09270068
183	0x3e071bbc	0.13194174
184	0x3d219ffa	0.039459206
185	0x3d55f186	0.052232288
186	0x3c807e35	0.01568518
187	0xbd647ce8	-0.055783182
188	0x3e6d0714	0.23147231
189	0x3d98cd03	0.07460978
190	0xbd3272b2	-0.043566413
191	0x3c0d09d1	0.008608297
192	0xbe2ca9d6	-0.16861662
193	0xbdbaa2dc	-0.09113094
194	0x3e941d3b	0.2892855
195	0xbdc1a97b	-0.09456154
196	0x3e1a45dc	0.15065712
197	0xbda85cc3	-0.08220818
198	0x3d81bf67	0.06335335
199	0x3c4b1957	0.012396178
200	0xbd821581	-0.06351758
201	0xbccb7eb5	-0.024840692
202	0x3d79ce6f	0.060987886
203	0xbc812312	-0.015763793
204	0x397ed42d	0.0002430237
205	0x3d914148	0.070925295
206	0xbd97c126	-0.07409887
207	0x3e438b4d	0.19096108
208	0xbda2c19d	-0.07947085
209	0xbce728be	-0.02821767
210	0xbdc44adc	-0.09584591
211	0x3e3bf8d5	0.1835664
212	0xbd30d936	-0.0431759
213	0xbcf2c4be	-0.02963483
214	0xbc1af301	-0.009457351
215	0x3c344500	0.011002779
216	0x3c267764	0.010160301
217	0x3d7d1ffb	0.061798077
218	0x3d37bdc2	0.0448587
219	0x3e37c4df	0.17946194
220	0xbcdc6af8	-0.026906475
221	0x3d70915c	0.058732376
222	0xbdc7ec32	-0.097618476
223	0xbcf43e5a	-0.029814888
224	0x3c8f373d	0.017482394
225	0x3e2dbf6d	0.16967554
226	0x3cefa29d	0.029252345
227	0xbe867f15	-0.2626883
228	0x3ddcacca	0.107751444
229	0x3d73120c	0.059343383
230	0x3d235ee2	0.03988541
231	0xbb87c24d	-0.0041430355
232	0x3d0884e5	0.033329863
233	0x3ce239f9	0.027615534
234	0xbec4e383	-0.38454828
235	0xbda8cdcc	-0.08242378
236	0x3e026f1d	0.12737699
237	0xbe6ab291	-0.2291968
238	0xbc8e8ca6	-0.01740105
239	0xbc8b118f	-0.016976146
240	0xba9613e7	-0.0011450023
241	0x3ceb9989	0.028759735
242	0x3d878fdf	0.06619238
243	0x3caa57d7	0.020793838
244	0x3d00c3f2	0.031436868
245	0x3dfa47b0	0.122207046
246	0xbcd501c9	-0.026001828
247	0xbda36da7	-0.07979899
248	0x3e0dcab0	0.1384685
249	0xbc0bc40e	-0.00853063
250	0x3d41d43b	0.04732154
251	0x3e035e91	0.12829043
252	0xbe17573f	-0.14779375
253	0xbdd8263b	-0.10554167
254	0xbded10a2	-0.11575438
255	0x3e650977	0.22366892

fc2.bias f4 [128]
0	0xbcd9d44d	-0.02659049
1	0xbd534682	-0.051580913
2	0x3d37a4d7	0.044834938
3	0x3c48cafb	0.012255426
4	0xbdc8c2a0	-0.09802747
5	0x3da55a9a	0.080739215
6	0x3c8cfda0	0.017210782
7	0x3d31fcdb	0.043454032
8	0x3e754cdc	0.23955101
9	0x3d064067	0.032776263
10	0xbdbff8e5	-0.09373645
11	0x3cb2b5bd	0.021815175
12	0x3c3ff57e	0.011716245
13	0xbc06e277	-0.008232704
14	0x3d89c88b	0.06727704
15	0xbe2c1354	-0.16804248
16	0x3d6af6dc	0.05736433
17	0xbcf15a2f	-0.029461948
18	0x39c15838	0.00036877557
19	0x3d67c9d7	0.056588974
20	0x3b823f2b	0.0039748154
21	0xbd4037be	-0.04692816
22	0xbcfc2479	-0.03077911
23	0xbd210c5c	-0.039318427
24	0x3d87f40a	0.06638344
25	0xbcd3f813	-0.025875127
26	0xbe07a642	-0.13247016
27	0x3d142f69	0.036178026
28	0x3c8d2ee7	0.017234279
29	0xbd63340a	-0.05546955
30	0x3d7fc344	0.06244208
31	0xbd8dfe6b	-0.06933292
32	0x3d9dc1a9	0.07702953
33	0x3d024400	0.03180313
34	0x3ceabc03	0.028654104
35	0x3bf6a34c	0.0075267907
36	0x3e5175a1	0.20455028
37	0xbc5cce77	-0.013476959
38	0x3caf448d	0.021394992
39	0x3deae17d	0.1146879
40	0xbd73ad4e	-0.059491448
41	0xbcd83bfe	-0.026395794
42	0x3d79a935	0.060952384
43	0xbc82fc5a	-0.015989471
44	0xbd0d7465	-0.03453483
45	0x3d4f2ed3	0.050581764
46	0xbd780098	-0.06054744
47	0xbaff28ed	-0.0019467153
48	0x3cb6b8f4	0.02230499
49	0x3d075edd	0.033049453
50	0xbdd8eed8	-0.10592431
51	0xbcd8714e	-0.026421215
52	0xbc86f25d	-0.01647299
53	0xbbf0c36d	-0.0073475153
54	0xbcb06d05	-0.02153636
55	0xbc3faed5	-0.011699398
56	0xbe172cee	-0.14763233
57	0x3d327c07	0.043575313
58	0x3c9b8e03	0.018988615
59	0xbcc36892	-0.023853574
60	0xbce22347	-0.027604712
61	0xbda9e07b	-0.082947694
62	0x3dcbe8a3	0.09956481
63	0xbd09edfe	-0.033674233
64	0xbdbbdc77	-0.0917291
65	0xbb9c7df4	-0.004775757
66	0x3da4e18a	0.08050831
67	0xbcaf29aa	-0.021382172
68	0xbcdf3eb9	-0.027251588
69	0xbb9cbf3c	-0.004783539
70	0xbc05200b	-0.008125315
71	0xbd6f48f7	-0.058419194
72	0x3cbd23e0	0.023088396
73	0xbd3cfac9	-0.046137605
74	0xbdee637b	-0.11640068
75	0xbdf20a22	-0.11818339
76	0x3d13228d	0.035921622
77	0xbd8074d4	-0.06272283
78	0x3cd91935	0.026501277
79	0xbe124f52	-0.14288071
80	0xbdc8866e	-0.097912654
81	0x3db3d43f	0.08780717
82	0x3c006d77	0.007838598
83	0x3e02189d	0.12704702
84	0xbbe7183e	-0.0070524504
85	0xbc61bbc8	-0.013777681
86	0xbd6a7787	-0.057242896
87	0xbd651511	-0.055928294
88	0x3d9cea3f	0.076618664
89	0xbde06202	-0.109561935
90	0x3c772681	0.015084864
91	0xbc4c868d	-0.012483251
92	0x3d815044	0.063141376
93	0x3e26c0d4	0.16284496
94	0x3d8146b3	0.06312313
95	0x3d857ea5	0.06518296
96	0xbc1f5ee6	-0.009727215
97	0x3d7c1621	0.06154454
98	0x3e005347	0.12531768
99	0xbdbb8af7	-0.09157365
100	0xbdaaaee2	-0.083341375
101	0x3dbf98d6	0.09355323
102	0x3cfa9958	0.030590698
103	0x3e417a85	0.18894394
104	0x3d9c415e	0.07629655
105	0x3b867254	0.0041029844
106	0x3d1a4673	0.03766484
107	0xbcabc90d	-0.020969892
108	0x3dcadea6	0.09905748
109	0x3c97fb3b	0.018552413
110	0x3df1c286	0.118046805
111	0x3e4bfb9c	0.199202
112	0x3cdd607f	0.027023552
113	0x3d280590	0.04102093
114	0xbca68859	-0.020328688
115	0xbd0d435e	-0.034488074
116	0x3da66a20	0.081257105
117	0xbdbc8548	-0.09205109
118	0x3d5a6f88	0.05332902
119	0xbd48a14b	-0.048981946
120	0x3d98c16b	0.074587665
121	0x3cefa136	0.029251676
122	0x3c876b3c	0.016530626
123	0xbd5de15f	-0.05417001
124	0x3d19a5a2	0.037511475
125	0xbdd92bed	-0.10604081
126	0x3cfd08b6	0.030887943
127	0xbe2e2892	-0.17007664

fc3.weight f4 [64, 128]
0	0xbd9be55f	-0.076121084
1	0xbdcf7239	-0.10129208
2	0x3c64ea29	0.013971844
3	0x3d1d0975	0.038339097
4	0xbcce36ad	-0.025172556
5	0x3d5a74d7	0.053334083
6	0x3dcb9280	0.09940052
7	0x3ebdfdba	0.3710764
8	0x3b61f894	0.003448044
9	0xbe6e90b7	-0.23297392
10	0xbe0fc1fb	-0.14038841
11	0x3d6cd670	0.05782169
12	0xbd620245	-0.055177946
13	0xbc89366f	-0.016749589
14	0xbd97ec61	-0.074181326
15	0x3d02739d	0.03184854
16	0xbd9192f0	-0.07108104
17	0x3df03b10	0.11730015
18	0xbe47b84c	-0.19503897
19	0x3d9ffef8	0.07812303
20	0xbdb2fa89	-0.08739192
21	0xbda90b2a	-0.082540825
22	0xbd2912d3	-0.041277718
23	0xbc0ea43b	-0.008706148
24	0x3d8ff770	0.07029617
25	0x3e0f3764	0.13985974
26	0x3e56db72	0.20982149
27	0xbd7c07c8	-0.06153086
28	0xbe97be7c	-0.29637516
29	0x3cba9c0c	0.022779487
30	0xbe18aba8	-0.14909232
31	0x3d8d53a3	0.06900718
32	0x3e4792a5	0.19489534
33	0x3e76d270	0.24103713
34	0xbdeb33b4	-0.11484471
35	0x3dbd2d68	0.09237176
36	0x3ec73cbe	0.3891353
37	0x3de998cf	0.11406099
38	0x3d861fda	0.06549044
39	0x3ba763de	0.0051083406
40	0xbb107c8d	-0.0022046894
41	0xbe002a21	-0.12516071
42	0xbeb68bc1	-0.356535
43	0x3d05f258	0.03270182
44	0x3c64828f	0.013947143
45	0xbe4c5ada	-0.19956532
46	0x3d8d9cc4	0.06914666
47	0xbd964c6c	-0.07338795
48	0xbe2d2494	-0.16908485
49	0x3c5dc50d	0.01353575
50	0xbd37f355	-0.044909794
51	0xbeef59f5	-0.4674832
52	0xbdae37cd	-0.08506737
53	0xbdf69037	-0.120392255
54	0xbcade4ba	-0.02122723
55	0xbdadeaa6	-0.08492021
56	0xbe16e744	-0.14736658
57	0x3d5792ea	0.052630343
58	0xbe41bd10	-0.18919778
59	0x3c2d5813	0.010580081
60	0x3a428f81	0.00074218964
61	0x3cf6de2c	0.030135237
62	0xbe2b1885	-0.16708572
63	0xbda33a80	-0.07970142
64	0xbcc9818f	-0.024597911
65	0xbe697c68	-0.22801363
66	0xbdb3b877	-0.08775418
67	0x3e5977ae	0.2123706
68	0xbd957601	-0.07297898
69	0xbc475b84	-0.012167815
70	0xba77ddd2	-0.0009455356
71	0xbd8951a2	-0.06705023
72	0xbd1bf624	-0.038076535
73	0x3db94d3f	0.09047937
74	0x3e1efd67	0.15526353
75	0x3dd3a2ec	0.10333809
76	0xbce9768b	-0.028498909
77	0xbd1bbeb8	-0.03802368
78	0x3d3c7b11	0.046015803
79	0x3d966dc5	0.073451556
80	0x3d2c24a5	0.042027134
81	0x3dc1bc2f	0.09459721
82	0xbc9bf904	-0.019039638
83	0xbf089ab8	-0.5336108
84	0xbc803440	-0.015649915
85	0xbe015ab8	-0.12632263
86	0x3c3ebf6b	0.011642317
87	0x3be5b3b5	0.007009948
88	0x3d0fa7f9	0.0350723
89	0x3dd1761b	0.10227605
90	0x3d39fd76	0.045407735
91	0xbca47baa	-0.020078499
92	0x3bcf3735	0.00632372
93	0xbdd7bb95	-0.10533825
94	0xbd59d741	-0.053183798
95	0x3a95b71d	0.001142237
96	0xbd77062c	-0.06030862
97	0xbd1b7e30	-0.03796214
98	0x3ec3db60	0.38253307
99	0x3aa55627	0.0012614176
100	0xbe488a19	-0.1958393
101	0x3e1b2ada	0.15153065
102	0x3c1d64f4	0.009606589
103	0x3e52c22d	0.20581885
104	0xbc887de7	-0.016661597
105	0x3d3b2397	0.045688238
106	0xbe1dbf5c	-0.15405029
107	0xbe0164d2	-0.12636116
108	0xba44e3ea	-0.00075107685
109	0x3e0ed6b5	0.13949092
110	0xbdc68ccf	-0.09694826
111	0x3e8eb359	0.27871206
112	0xb89c14f8	-7.4425654e-05
113	0x3e3c6a13	0.18399839
114	0x3d635834	0.05550404
115	0x3e07fbc1	0.1327963
116	0x3df34f56	0.118803665
117	0xbe05b644	-0.1305781
118	0x3d9d735e	0.0768802
119	0x3d7c99c0	0.061670065
120	0x3d3e7594	0.04649885
121	0x3be6fb0c	0.00704897
122	0x3dd44172	0.10364045
123	0x3dc81286	0.09769158
124	0x3e05c4a3	0.13063292
125	0xbefab2bc	-0.48964489
126	0x3d445ca7	0.047939923
127	0x3c379e4e	0.011207176
128	0xbd1cadf5	-0.038251836
129	0xbe1593a9	-0.14607109
130	0x3d8f3b34	0.06993714
131	0xbdb18c10	-0.08669293
132	0xbd02e970	-0.031960905
133	0x3dd4c964	0.10389975
134	0xbd702920	-0.05863297
135	0x3d4d5cc0	0.05013728
136	0x3dc6891d	0.09694121
137	0xbe6f5403	-0.23371892
138	0xbd4af39c	-0.04954873
139	0xbb92c171	-0.0044786264
140	0x3c71e804	0.0147647895
141	0xbdc529ad	-0.0962709
142	0x3e141978	0.1446284
143	0x3d88fa33	0.06688347
144	0xbdb2c767	-0.08729439
145	0x3d6fdf3c	0.058562502
146	0xbd8ba8e2	-0.06819321
147	0x3d78523e	0.060625307
148	0x3c4b117d	0.012394306
149	0x3ba6b79c	0.005087806
150	0x3d878cd4	0.06618658
151	0x3d2ab25c	0.041674003
152	0xbbf03cf9	-0.0073314873
153	0x3c86b47b	0.016443482
154	0xbd927ed0	-0.07153094
155	0x3d75d0d4	0.060013607
156	0xbe76d0a8	-0.24103034
157	0x3d45959c	0.04823838
158	0x3b86dfb6	0.004116024
159	0xbb9be95a	-0.0047580423
160	0xbd5cd0b9	-0.05390999
161	0x3e0de2f4	0.13856107
162	0xbe6fe47f	-0.23427008
163	0x3d5f3c8c	0.0545011
164	0x3d9c4e23	0.07632091
165	0x3a978b6f	0.001156194
166	0xbdaac45e	-0.08338235
167	0x3c928e62	0.017890159
168	0xbda6e604	-0.08149341
169	0xbe70f627	-0.235314
170	0xbe2c8d61	-0.16850807
171	0xb9bad59d	-0.0003563584
172	0xbdd5c156	-0.104372665
173	0x3d11ea5d	0.035623897
174	0x3c7f8370	0.015595302
175	0x3d82d6c9	0.06388623
176	0xbe33d3da	-0.17561284
177	0x3d0fb394	0.03508337
178	0xbd8c0789	-0.06837375
179	0xbe6eeac4	-0.23331743
180	0x3d487970	0.048943937
181	0xbbd70566	-0.006561923
182	0xbd24fc3a	-0.040279604
183	0xbd319bc2	-0.043361433
184	0xbe8ac7c2	-0.27105528
185	0x3bd9bb9f	0.0066446806
186	0xbdb7b6ab	-0.08970388
187	0x3dca7bef	0.0988692
188	0x3d6b4c3c	0.05744575
189	0x3d3e9420	0.04652798
190	0xbd25c828	-0.040474087
191	0x3d2f4ea5	0.04279961
192	0x3cd6a7b7	0.02620302
193	0xbd4923a4	-0.049106255
194	0xbdb7e980	-0.089800835
195	0xbc830d69	-0.015997605
196	0x3d316fe7	0.04331961
197	0xbdfcff3a	-0.12353368
198	0xbccb81fa	-0.024842251
199	0xbb0ae391	-0.002119277
200	0x3d8fda8a	0.07024105
201	0xbcda01f1	-0.026612254
202	0xbdbddf49	-0.09271104
203	0x39a56ca9	0.0003155221
204	0x3d59351d	0.05302917
205	0x3d4a1931	0.04934043
206	0xbdb6e853	-0.08931031
207	0x3dcde7a6	0.10053949
208	0x3d9aa2f2	0.075506106
209	0x3e3bb396	0.18330225
210	0x3e2b5883	0.16732983
211	0xbed2cbbc	-0.41171062
212	0xbd8b4747	-0.068007044
213	0xbc5bb45a	-0.013409698
214	0xbd166fd9	-0.03672776
215	0x3dc67e63	0.09692075
216	0x3d8d7694	0.069073826
217	0x3e0e704e	0.13910028
218	0x3d95a9ef	0.07307803
219	0x3d9cafd3	0.07650723
220	0xbdb17758	-0.08665341
221	0xbdb08c66	-0.08620529
222	0xbd1dc4e3	-0.038517844
223	0xbd417d04	-0.047238365
224	0xbe75c900	-0.24002457
225	0x3d78c9c0	0.06073928
226	0x3dce98bc	0.100877255
227	0x3c8fc9d3	0.017552292
228	0xbcccba6b	-0.024991235
229	0x3df0cc6e	0.11757742
230	0xbdaa4cfd	-0.083154656
231	0xbd38c7aa	-0.04511229
232	0x3e075435	0.13215716
233	0xbd900990	-0.07033074
234	0xbe643172	-0.22284487
235	0xbe54d058	-0.20782602
236	0x3ce0a6a1	0.027423205
237	0x3dd7760b	0.10520562
238	0xbddb9545	-0.1072183
239	0x3d958ad1	0.07301868
240	0x3d11de55	0.035612423
241	0x3d77f6a1	0.060537938
242	0x3e04f301	0.12983324
243	0xbc622883	-0.013803604
244	0xbd06e60d	-0.032934237
245	0xbc9f32d5	-0.019433418
246	0xbbc4e157	-0.006008308
247	0xbd4dc6a1	-0.050238255
248	0xbd69f919	-0.057122324
249	0x3e367683	0.17818646
250	0x3dca74f0	0.09885585
251	0x3c788f2a	0.015170852
252	0x3e094a08	0.13407147
253	0xbd674db6	-0.056470595
254	0x3d197dd2	0.037473507
255	0xbd8139ac	-0.06309828

fc3.bias f4 [64]
0	0xbd56b95e	-0.052422874
1	0xbd8c1331	-0.06839598
2	0xbbc53c8f	-0.006019182
3	0xbd567554	-0.052357987
4	0xbd001df5	-0.03127857
5	0xbd09471f	-0.033515092
6	0x3d9df505	0.077127494
7	0x3ce7c74a	0.02829327
8	0x3c935794	0.017986096
9	0xbd5bcd74	-0.053662732
10	0x3d531abc	0.051539168
11	0xbc8afe44	-0.016966946
12	0xbcc235fb	-0.02370738
13	0x3dc8693e	0.09785698
14	0x3ba0f1c4	0.004911633
15	0xbe2c8d04	-0.16850668
16	0x3def0350	0.11670554
17	0xbd62eada	-0.055399753
18	0xbd972fc3	-0.07382157
19	0x3bee8c0a	0.0072798776
20	0x3de9213e	0.113832936
21	0x3e3f87a2	0.18704084
22	0x3dd6d6f4	0.10490218
23	0xbd08e2f3	-0.03341956
24	0xbd67ba61	-0.05657423
25	0x3c217e2e	0.009856744
26	0x3e0f1edd	0.13976617
27	0xbcce5328	-0.025186136
28	0x3c81c738	0.015842065
29	0x3e3375ab	0.17525356
30	0x3c5eccd2	0.013598638
31	0xbdcb00f2	-0.0991229
32	0x3d98b53e	0.07456444
33	0xbe00ad87	-0.12566195
34	0xb9fa5dc7	-0.00047753585
35	0x3db8f853	0.09031739
36	0xbcff32ae	-0.031152096
37	0x3d4c2f4d	0.049849797
38	0x3dfb3ed2	0.122678414
39	0xbe07e5d0	-0.1327126
40	0x3dbf53b1	0.09342135
41	0x3d61e012	0.05514533
42	0xbcca1233	-0.024666881
43	0x3d2dc29f	0.042421933
44	0x3c6f69ff	0.014612674
45	0xbd386c6c	-0.045025274
46	0x3d3e3caa	0.046444573
47	0x3d06570b	0.032797854
48	0x3e01b239	0.12665643
49	0xbd88640a	-0.06659706
50	0xbd41a59a	-0.04727707
51	0xbd85a831	-0.065262206
52	0xbddd2fe2	-0.108001485
53	0xbd7ce545	-0.061742086
54	0x3d22e7aa	0.039771713
55	0xbd836565	-0.06415824
56	0x3e0d6dcd	0.13811417
57	0x3d8af017	0.06784075
58	0xbb59a023	-0.0033207021
59	0x3bdf4c53	0.0068145185
60	0xbdab404b	-0.08361872
61	0x3de9a82b	0.114090286
62	0x3d804f81	0.06265164
63	0x3d609c2e	0.054836445

fc4.weight f4 [1, 64]
0	0xbeabc2f7	-0.33547184
1	0xbe1493b0	-0.14509463
2	0xbe55cbf9	-0.2087859
3	0xbecaa84f	-0.39581534
4	0xbef7f558	-0.4842937
5	0x3d84d3e0	0.064857244
6	0xbe8fc072	-0.28076512
7	0xbe750c4d	-0.23930474
8	0xbd2deb51	-0.042460743
9	0xbe5b3937	-0.21408544
10	0x3e773892	0.24142674
11	0x3e937002	0.28796393
12	0xbe81b38f	-0.25332305
13	0xbe28575d	-0.16439576
14	0xbe7ed97f	-0.24887656
15	0xbe7e547c	-0.24836916
16	0xbefec4f8	-0.4975965
17	0x3ddba2d5	0.10724417
18	0xbe430efc	-0.19048685
19	0xbea77d89	-0.32712963
20	0xbe6de8d9	-0.23233356
21	0xbeb046ad	-0.3442892
22	0xbe6b1651	-0.22957732
23	0x3e1c0ab4	0.15238458
24	0xbdf6a079	-0.120423265
25	0xbcaaa12a	-0.020828802
26	0xbe8b054d	-0.27152482
27	0xbe3077e6	-0.17233238
28	0xbe98b54a	-0.29825813
29	0xbeb3d96e	-0.35126823
30	0x3df54c14	0.119774014
31	0xbe0a463b	-0.13503353
32	0xbe866880	-0.26251602
33	0xbeb48288	-0.35255837
34	0xbeedb3f4	-0.46426356
35	0xbe853ef3	-0.2602459
36	0xbe9951c3	-0.29945192
37	0x3e1c1da0	0.15245676
38	0x3ecd63e1	0.40115264
39	0xbe9713b0	-0.29507208
40	0xbe2fc526	-0.1716505
41	0xbe48ce7f	-0.19610022
42	0xbea868b2	-0.32892376
43	0x3e52143c	0.20515531
44	0x3d5ad4fb	0.05342577
45	0xbe7c691f	-0.24649476
46	0xbea51e50	-0.3224969
47	0xbd205dae	-0.03915184
48	0xbeb9d9a2	-0.36298853
49	0xbf19952f	-0.5999326
50	0xbe8d1588	-0.2755549
51	0xbea2616a	-0.31714946
52	0x3e4723ca	0.19447246
53	0x3ed2003b	0.410158
54	0xbe42194b	-0.18954961
55	0x3ecf6e24	0.40513718
56	0x3ea6d2b6	0.32582635
57	0x3f08fc5b	0.53510064
58	0xbe3dcb29	-0.1853453
59	0xbe91d67c	-0.2848395
60	0xbd3490ff	-0.04408359
61	0x3e722b5f	0.23649357
62	0xbe28e8cb	-0.16495053
63	0xbecfd467	-0.40591738

bn1.weight f4 [256]
0	0x3f8a736f	1.0816478
1	0x3f8879a7	1.0662125
2	0x3f73b7ee	0.9520253
3	0x3f5bc052	0.8584033
4	0x3f8a0193	1.078173
5	0x3f92fe73	1.1483902
6	0x3f46b12e	0.77614105
7	0x3f5a3e39	0.85251194
8	0x3f517b1f	0.8182849
9	0x3f547f43	0.83006686
10	0x3f4da390	0.803277
11	0x3f5167f1	0.81799227
12	0x3f55a765	0.8345855
13	0x3f74b682	0.95590985
14	0x3f4dcbe6	0.8038925
15	0x3f924eec	1.1430335
16	0x3f8a10be	1.0786359
17	0x3f9b2405	1.2120367
18	0x3f97f74d	1.1872345
19	0x3f8ed524	1.1158795
20	0x3f72065d	0.9454096
21	0x3f81ad47	1.0131005
22	0x3f826c37	1.0189275
23	0x3f83892e	1.0276239
24	0x3fa67eda	1.3007462
25	0x3f903a41	1.1267778
26	0x3f7246de	0.94639385
27	0x3f8681d6	1.0508373
28	0x3f93a2fe	1.1534116
29	0x3f822be6	1.0169647
30	0x3f94a660	1.1613274
31	0x3f6cbd79	0.9247661
32	0x3f862924	1.0481305
33	0x3f7a3613	0.9773876
34	0x3f977642	1.1832964
35	0x3f68ae4c	0.90890956
36	0x3f84c4f8	1.037261
37	0x3f8d07d4	1.1018014
38	0x3fb2f985	1.3982397
39	0x3f59283c	0.8482702
40	0x3f3dd7e7	0.74157566
41	0x3f655cce	0.89594734
42	0x3f8164a7	1.0108842
43	0x3f674859	0.9034477
44	0x3f961e5b	1.1728014
45	0x3fd40008	1.656251
46	0x3f77ab8e	0.96746147
47	0x3f4025b4	0.7505753
48	0x3f70ea57	0.94107574
49	0x3f58fb14	0.84758115
50	0x3f8002a8	1.0000811
51	0x3fb45ed0	1.4091434
52	0x3f5f6e0f	0.8727731
53	0x3fa738c9	1.3064204
54	0x3f68a6cb	0.90879506
55	0x3f396156	0.7241415
56	0x3f4f8964	0.81069016
57	0x3f4de814	0.8043225
58	0x3f995d42	1.1981585
59	0x3fd35bbe	1.6512372
60	0x3f9b0ffc	1.2114253
61	0x3f929675	1.1452166
62	0x3f3ff68e	0.7498559
63	0x3f82fd85	1.0233618
64	0x3f5ce3e1	0.86285216
65	0x3f8de659	1.1085922
66	0x3f64e042	0.8940469
67	0x3f9af3da	1.2105668
68	0x3f87a032	1.0595763
69	0x3f869cf0	1.0516644
70	0x3f7d7ab9	0.99015385
71	0x3f8eea06	1.1165168
72	0x3f717d20	0.9433155
73	0x3f883b54	1.0643106
74	0x3f8f658e	1.1202867
75	0x3f76f1e2	0.96462834
76	0x3f4e5a2a	0.8060633
77	0x3f69db27	0.91350025
78	0x3f438b96	0.76384866
79	0x3f51de25	0.8197959
80	0x3fbc7ac0	1.472496
81	0x3f909268	1.129468
82	0x3f5ba556	0.8579916
83	0x3fbe51e3	1.486874
84	0x3f5e6eb5	0.86887676
85	0x3f616e12	0.8805858
86	0x3f605489	0.8762899
87	0x3f8e63c1	1.1124192
88	0x3f55fc85	0.8358844
89	0x3f40f931	0.75380236
90	0x3f511b6b	0.8168246
91	0x3f3ea1a8	0.7446542
92	0x3f5bcc19	0.85858303
93	0x3f86b6ce	1.0524538
94	0x3f531171	0.8244849
95	0x3f316846	0.69299734
96	0x3f72e82e	0.9488553
97	0x3f7b8378	0.9824748
98	0x3f73c6c2	0.95225155
99	0x3f8b4823	1.0881389
100	0x3f711c56	0.9418386
101	0x3f6cd24a	0.92508376
102	0x3f7caa62	0.98697484
103	0x3f466aef	0.7750692
104	0x3f864b0a	1.049165
105	0x3f5d82f5	0.8652795
106	0x3f885bb9	1.0652992
107	0x3f983c99	1.1893493
108	0x3f4a3152	0.78981507
109	0x3f9ea0f0	1.2392864
110	0x3fbdcfd2	1.4829047
111	0x3f534263	0.82523173
112	0x3f7b9512	0.9827434
113	0x3f828afc	1.0198665
114	0x3fa36b5a	1.2767136
115	0x3f5d67cd	0.8648651
116	0x3f74a6d5	0.95567065
117	0x3f593950	0.84853077
118	0x3f7e853b	0.99422044
119	0x3f67d4ef	0.90559286
120	0x3f64c7a2	0.89367115
121	0x3f9c2cef	1.2201213
122	0x3f83070c	1.0236526
123	0x3f5eebc7	0.8707852
124	0x3f386f9c	0.720453
125	0x3f745973	0.9544899
126	0x3ff35699	1.9010803
127	0x3fbae60d	1.4601456
128	0x3f8958d5	1.0730234
129	0x3f3c998f	0.7367181
130	0x3f986053	1.1904396
131	0x3f560466	0.8360046
132	0x3f750e86	0.95725286
133	0x3f464839	0.77453953
134	0x3f87ca15	1.0608546
135	0x3f924f23	1.1430401
136	0x3f76eaee	0.96452224
137	0x3f88820b	1.0664686
138	0x3f89d322	1.0767558
139	0x3f598ad4	0.8497746
140	0x3f88d7f4	1.0690904
141	0x3fa4ee9d	1.2885319
142	0x3f8a6b0b	1.0813917
143	0x3fa97fbf	1.324211
144	0x3f628a61	0.884924
145	0x3f95441e	1.1661413
146	0x3f899c33	1.0750793
147	0x3f36b7a4	0.71373963
148	0x3fb7b046	1.4350669
149	0x3f634a6d	0.8878544
150	0x3f909337	1.1294926
151	0x3f8cce74	1.1000504
152	0x3f968ce4	1.1761746
153	0x3f9e421e	1.2363927
154	0x3f471ed8	0.7778144
155	0x3f9692d9	1.1763564
156	0x3f87ef4f	1.0619906
157	0x3f625dec	0.88424563
158	0x3fa3f55c	1.2809253
159	0x3f36536e	0.71221054
160	0x3f4b18f4	0.7933495
161	0x3f5f10f3	0.8713524
162	0x3f898e3a	1.0746529
163	0x3f7454db	0.9544198
164	0x3f77acfe	0.9674834
165	0x3f50a345	0.8149913
166	0x3f6b5482	0.91925824
167	0x3f94f14f	1.1636142
168	0x3f5b39f4	0.85635304
169	0x3f869851	1.0515233
170	0x3f8cdafe	1.1004331
171	0x3fba486f	1.4553355
172	0x3f9161c6	1.1357963
173	0x3f962133	1.1728882
174	0x3f8f528d	1.1197067
175	0x3f72b5a2	0.948084
176	0x3f5f644b	0.8726241
177	0x3f7ee1f4	0.9956353
178	0x3f7caccb	0.9870116
179	0x3f99fad0	1.2029667
180	0x3f8d9ce1	1.1063501
181	0x3f57f718	0.8436141
182	0x3f88cc5f	1.0687369
183	0x3f973970	1.1814404
184	0x3f52a509	0.82283074
185	0x3f381a6f	0.71915334
186	0x3f91f9b3	1.1404327
187	0x3f8e453e	1.1114881
188	0x3fae2652	1.3605444
189	0x3f52e855	0.8238576
190	0x3f5b2f1b	0.8561875
191	0x3fb32ca3	1.3997997
192	0x3f7be470	0.9839544
193	0x3fa43403	1.2828373
194	0x3fa56c27	1.292363
195	0x3f6ae0b6	0.9174913
196	0x3fa19fd2	1.2626898
197	0x3f4e4bae	0.8058423
198	0x3f89ecae	1.0775354
199	0x3f974345	1.1817404
200	0x3f8a8894	1.082293
201	0x3f3e451f	0.7432422
202	0x3f257c51	0.64642817
203	0x3f7e2a51	0.9928332
204	0x3f4bb46e	0.7957219
205	0x3f942ad7	1.1575574
206	0x3f877d9c	1.0585208
207	0x3fb33024	1.3999066
208	0x3f8347f0	1.0256329
209	0x3f9446d7	1.1584119
210	0x3fac2aee	1.3450601
211	0x3f7441b2	0.95412743
212	0x3f6aea4b	0.9176375
213	0x3f90ea24	1.1321454
214	0x3f87dad0	1.0613651
215	0x3f55a80c	0.83459544
216	0x3f803ef8	1.0019217
217	0x3fa12195	1.2588373
218	0x3f633dc0	0.887661
219	0x3f6068fb	0.8766019
220	0x3f8cc52c	1.0997672
221	0x3f541793	0.8284847
222	0x3f6452cb	0.8918883
223	0x3fa4ea11	1.2883931
224	0x3f3dc716	0.74131906
225	0x3f8d34bf	1.1031722
226	0x3f70139d	0.9377993
227	0x3fa9f9b7	1.3279332
228	0x3f8850c7	1.0649651
229	0x3f74693b	0.9547307
230	0x3f73ee6c	0.9528568
231	0x3f8f06e9	1.1173984
232	0x3f816eea	1.0111973
233	0x3f86297d	1.0481411
234	0x3fa5f986	1.2966774
235	0x3f5df2bf	0.86698526
236	0x3f9e3a12	1.2361472
237	0x3f8b031a	1.0860322
238	0x3f9ab973	1.2087845
239	0x3f5ee482	0.87067425
240	0x3f5dff37	0.8671755
241	0x3f619abe	0.8812674
242	0x3f6720ff	0.90284723
243	0x3f4a8266	0.7910522
244	0x3f6f2478	0.9341502
245	0x3f8145d4	1.0099435
246	0x3f5584a2	0.83405507
247	0x3f947aff	1.1600035
248	0x3f9e58f8	1.2370901
249	0x3f88d403	1.0689701
250	0x3f4eb25a	0.8074089
251	0x3f6c0d20	0.9220753
252	0x3fa2e72b	1.2726797
253	0x3f85bd0a	1.0448315
254	0x3f6ac554	0.9170735
255	0x3f907f56	1.128886

bn1.bias f4 [256]
0	0x3d931b17	0.07182901
1	0xbd73cd0f	-0.05952173
2	0x3cf701b2	0.030152176
3	0x3c407304	0.011746172
4	0x3b65a120	0.0035038665
5	0x3d06a49d	0.03287183
6	0xbbca8003	-0.006179811
7	0xbd97673d	-0.07392738
8	0xbd2914d5	-0.041279633
9	0xbe065f31	-0.1312225
10	0x3dbcdb6a	0.092215374
11	0xbd94d951	-0.07268012
12	0xbd348d82	-0.044080265
13	0xbe1a207e	-0.15051457
14	0xbe85b025	-0.2611095
15	0xbd956766	-0.07295112
16	0xbd92e919	-0.07173366
17	0x3e196c31	0.14982678
18	0x3e57d8e9	0.21078838
19	0x3d09e1cf	0.033662613
20	0x3d901a7f	0.07036304
21	0x3c295b85	0.010336761
22	0x3d339eea	0.043852724
23	0x3d19f3da	0.03758607
24	0xbc8c90a4	-0.017158814
25	0x3d9f804c	0.077881426
26	0x3e32a6ce	0.17446443
27	0xbd0d5f22	-0.034514554
28	0x3d3f168e	0.04665237
29	0x3bfabec1	0.007652134
30	0x3cc41f47	0.023940695
31	0x3cf60acf	0.03003445
32	0x3d554515	0.052067835
33	0x3e3c6bd9	0.18400516
34	0x3df0b783	0.11753752
35	0x3d51c90c	0.051217124
36	0x3cfe97ca	0.031078238
37	0x3e307eef	0.17235921
38	0xbd5ae832	-0.053444095
39	0xba98d254	-0.0011659362
40	0xbe1d28db	-0.15347616
41	0xbb04b275	-0.002024797
42	0x3c9467d2	0.018115912
43	0x3cf5f296	0.0300229
44	0xbcc0f981	-0.023556473
45	0xbd068df0	-0.032850206
46	0xbdf77bdd	-0.12084172
47	0x3dbcb877	0.092148714
48	0x3d49c45e	0.049259536
49	0xbd6b9095	-0.05751093
50	0xbe46042d	-0.1933753
51	0x3c0d4ae5	0.008623813
52	0xbddd9349	-0.10819108
53	0x3d6c8b9c	0.05775033
54	0x3e1c9c39	0.15293969
55	0xbca78f3b	-0.02045404
56	0xbdd213af	-0.102576606
57	0xbcc3c8b5	-0.023899416
58	0x3dd0d66c	0.10197148
59	0x3e6e6b6c	0.23283166
60	0xbca2a7a7	-0.019855333
61	0xbd08e331	-0.03341979
62	0xbd011d06	-0.03152182
63	0x3cd22e4b	0.02565684
64	0xbe5164a0	-0.20448542
65	0xbb30205a	-0.0026874752
66	0x3c029f94	0.007972617
67	0x3d44b59d	0.048024762
68	0x3d796cda	0.060894825
69	0x3ed6dd4c	0.4196571
70	0xbd345b98	-0.044032663
71	0x3cd87e66	0.026427459
72	0xbdaa8ad1	-0.083272584
73	0x3c60fa57	0.013731561
74	0x3d606c36	0.054790698
75	0x3c631e52	0.013862209
76	0xbb5bcdcc	-0.0033539413
77	0xbcba04b1	-0.022707315
78	0xbd46bc58	-0.048519462
79	0xbc55cdb2	-0.01304953
80	0xbd0c48c7	-0.034249093
81	0x3e816494	0.25272048
82	0xbc905b04	-0.017621525
83	0x3d32b815	0.043632586
84	0xbdbe0418	-0.092781246
85	0xbd136876	-0.035988294
86	0xbe6babb1	-0.23014714
87	0x3df423d7	0.119208984
88	0xbdc20eb4	-0.09475461
89	0xbc8ef42d	-0.017450416
90	0xbd2982c2	-0.041384466
91	0xbd95b20d	-0.07309351
92	0x3d0f4ca2	0.034985192
93	0x3ecd8941	0.4014378
94	0xbc575271	-0.013142214
95	0xbe519c88	-0.20469868
96	0xbd8268c1	-0.063676365
97	0x3c882cee	0.016622987
98	0xbda57737	-0.08079379
99	0x3ce067ea	0.0273933
100	0x3ea58313	0.32326564
101	0xbc3d3699	-0.011548662
102	0xbc9f05a6	-0.019411873
103	0xbd12c24a	-0.03582982
104	0x3d24690a	0.040139236
105	0x3d039af0	0.03213018
106	0x3d5796ce	0.052634053
107	0x3d7b3f53	0.061339688
108	0xbe352d15	-0.17692979
109	0x3dd042a5	0.101689614
110	0xbc7b2885	-0.015329485
111	0x3db93712	0.09043707
112	0xbde6e3ef	-0.11273944
113	0xbc78f2c3	-0.015194598
114	0x3db07871	0.086167224
115	0xbde99f89	-0.11407382
116	0xbbb50230	-0.0055239424
117	0x3e1bd08b	0.15216272
118	0xbe0d836e	-0.13819668
119	0xbd92894e	-0.07155095
120	0x3d417000	0.047225952
121	0xbc1de949	-0.009638139
122	0x3b7182d6	0.0036851666
123	0x3d0f987e	0.035057537
124	0x3bf362a4	0.0074275304
125	0xbddc2005	-0.10748295
126	0x3c962e86	0.018332731
127	0xbd037660	-0.032095313
128	0x3e257d58	0.16161096
129	0x3d82066a	0.0634888
130	0x3d1aa84b	0.037758153
131	0x38e05266	0.000106965
132	0x3b593647	0.0033143924
133	0xbe0cf706	-0.13766107
134	0x3d9876e5	0.07444552
135	0x3d6774bc	0.05650781
136	0x3d3b2520	0.045689702
137	0x3d0a7afa	0.033808686
138	0x3bcbf6a6	0.006224471
139	0xbbc4ca9b	-0.0060055978
140	0x3c26a1af	0.010170384
141	0x3c25ad0c	0.010112058
142	0xbc3ed99f	-0.011648565
143	0xbcde1767	-0.027110768
144	0x3e2b9647	0.16756545
145	0x3d6b85e9	0.057500754
146	0x3d1e2e2f	0.038618263
147	0xbd0a6399	-0.03378639
148	0x3cd5b8c9	0.026089089
149	0x3e67bef4	0.22631437
150	0x3d8be016	0.068298504
151	0x3e41cfda	0.18926945
152	0x3e09f2e9	0.13471569
153	0x3dcc3e20	0.09972787
154	0xbd21fa1f	-0.039545175
155	0x3e401396	0.18757471
156	0xbc94f2ee	-0.018182244
157	0xbe058701	-0.13039781
158	0x3cfe09cd	0.031010533
159	0xbcf3ac98	-0.029745385
160	0xbcfe6736	-0.031055074
161	0xbce22e83	-0.02761007
162	0xbc6ccc53	-0.014453012
163	0x3be5a6a5	0.007008391
164	0x3c2e9bc3	0.010657254
165	0xbcbcee8e	-0.02306297
166	0x3cc676a7	0.0242265
167	0x3c76ac09	0.015055665
168	0xbd6855de	-0.056722514
169	0x3c6795cc	0.014134835
170	0x3d5cde99	0.053923223
171	0x3e649e94	0.22326118
172	0x3d6810c1	0.056656603
173	0xbcfaeac9	-0.030629532
174	0x3d5ac978	0.05341479
175	0xbe1c0286	-0.15235338
176	0x3bc07653	0.0058734803
177	0x3c1d42a7	0.009598411
178	0xbcb62649	-0.022235053
179	0x3c57369a	0.013135577
180	0xbd71cd4d	-0.05903368
181	0x3da992c9	0.0827995
182	0x3c7772b7	0.015103034
183	0xbd88701b	-0.066620074
184	0xbbe4b662	-0.0069797495
185	0xbd5809d6	-0.052743755
186	0x3d927683	0.071515106
187	0x3d305198	0.043046564
188	0xbce2cf0a	-0.027686615
189	0xbcf46e5d	-0.029837782
190	0x3c888706	0.016665947
191	0xbcc7eb8e	-0.024404313
192	0x3ce17716	0.027522605
193	0x3cea53e0	0.028604448
194	0xbd11e20e	-0.035615973
195	0x3dc9fcf1	0.09862698
196	0x3e37ea43	0.17960458
197	0x3ef97406	0.4872133
198	0x3d007b0b	0.031367343
199	0xbd0b9502	-0.03407765
200	0x3da3a5ef	0.07990634
201	0xbc2ea031	-0.01065831
202	0x3db0a40a	0.08625038
203	0xbd9dfe46	-0.077145144
204	0xbcd43dc9	-0.025908368
205	0x3d53ed98	0.05174026
206	0xbdc2a8b5	-0.095048346
207	0xbd1b8e91	-0.03797776
208	0x3d0b1fc3	0.033965837
209	0x3d4464d6	0.047947727
210	0xbd08269b	-0.033239942
211	0xbe2cf260	-0.16889334
212	0x3b9ce3fe	0.004787921
213	0xbd00b53b	-0.031422835
214	0x3c80116d	0.01563331
215	0xbe2e6a0f	-0.17032646
216	0x3dc0b55d	0.09409592
217	0x3d385914	0.045006827
218	0x3d8ce7b9	0.06880135
219	0xbe3915cb	-0.1807472
220	0x3c44961d	0.01199868
221	0xbcfc0d68	-0.030768111
222	0xbd67b632	-0.05657024
223	0x3d306896	0.04306849
224	0xbd383c4e	-0.044979386
225	0x3cb04809	0.021518724
226	0xbd04a9cf	-0.032388505
227	0x3d834e79	0.06411452
228	0x3bb09418	0.005388748
229	0xbdc8fed6	-0.09814231
230	0xbb301456	-0.002686759
231	0x3d630f5c	0.05543457
232	0xbddcd814	-0.10783401
233	0x3d02fab4	0.03197737
234	0xbd1c883e	-0.03821587
235	0x3ab4412a	0.001375233
236	0xbcba4e18	-0.022742316
237	0x3d02f4a0	0.031971574
238	0x3d80a8ef	0.062822215
239	0xbccda9a0	-0.025105298
240	0xbe94e6b7	-0.2908227
241	0xbda439ed	-0.08018861
242	0xbe89c1da	-0.2690571
243	0x3de124bf	0.10993337
244	0xbc4c7300	-0.01247859
245	0x3ded810e	0.11596881
246	0xbbc6f277	-0.0060713845
247	0x3daf446b	0.085579716
248	0x3e192dd4	0.14958888
249	0x3c44f110	0.012020364
250	0xbdedf6f1	-0.11619366
251	0xbe2b6555	-0.16737874
252	0x3e030135	0.12793429
253	0xbe05d449	-0.13069262
254	0x3ca1c186	0.0197456
255	0xbcc3d34c	-0.023904465
