input/model/ANN_reply_dan_gan.pth (torch, 225575 bytes, 19 tensors)

fc1.weight f4 [256, 44]
00000000: 11a0 b4be 08e0 58be 85fb dabb c5c7 34bc
00000010: 155a 8b3d 3f67 71be 1df0 a13c 91f4 403e
00000020: d6d2 25c0 ecae ac3d 595b 0d3d f07c 943e
00000030: 38cc 073e 34e8 41bc 9f12 353b 45b4 e13c
00000040: c458 933d fd2d fc3e 9157 a23e 2e2a c83e
00000050: 0f9d 77c0 e166 073e e670 4dc0 4f95 51bd
00000060: 1b8e a73d 6acd 98bd 4b86 fbbd 45d7 01bd
00000070: 0411 e5bb d4f8 18be 45d9 7dbe 1471 00bf
00000080: 2c74 943d 2929 7f3e dce1 ea3c 4c13 23bd
00000090: 73d0 4ebd 353f d9bd eb06 3bbe c6de da3d
000000a0: f7d6 93be b8ca fb3d a5d4 7b3d 625a 603d
000000b0: 31ea 853d 3c7d 43bc d2c0 1e3d 8d7c 28bd
000000c0: 88ec 93bd 1e6b 99bd 8a26 01bf 2ec6 f0be
000000d0: 8bcf 453f 4e01 b5be 9fc1 4f3f 2b2a 3f3d
000000e0: d949 27bd 856f 433c 37b8 053c f962 0a3c
000000f0: 4d27 d6bf 20bd ee3d fd33 d03e 5b39 953f
00000100: 0e68 933e 5205 5cbe 81dd bfbf e166 a5bd
00000110: 9b02 383c 0564 91bf 89dd 85bd fd5e 02c0
00000120: f128 843d 86d2 953e 72bb 4abf 2c96 783d
00000130: a3fe ebbd 43b0 38be 0c31 193d 85cc 773e
00000140: ea90 9e3e 439c a7bf a4d0 0040 2126 24bf
00000150: fb87 95be da95 5ebf ba80 9f3f 23d9 d0be
00000160: dd11 3e3d 218e 10bf 347a 873d e9f0 d4ba
00000170: 8d59 93be f7d5 d23e 120b fb3c 448f b23e
00000180: 3029 5b3f edd0 89be 8f3c cebc 4d1c d3be
00000190: 60c0 d4be 0160 efbd 4e00 fbbc 5bac 57bc
000001a0: 6aac 403f fa4c 30bf 3fbf 4dbc b597 f23c
000001b0: a8cb 2340 9b68 073f da12 9040 a1a3 f9bc
000001c0: e2b4 893d 93ab 0c3e b995 ca3d 71c0 2abe
000001d0: 3403 3abe 906f c73d 688b cd3c aad4 663d
000001e0: e189 09be ffd1 a93d 6d85 32be a833 c93e
000001f0: 8cca e9bd eef2 963e ae06 8c3e 4793 f2be
00000200: 0552 26be 7110 0ebe 3ac1 123d a0ee 17be
00000210: 92ed 993d e799 2b3d b42b 073e 0d50 99bc
00000220: 946c 8bbd 1ef4 96be f5f1 8ebd 03d9 183e
00000230: cbe5 44bf a5d8 16bf 4326 4fbe ad14 4e3c
00000240: 9e26 d03d 131b c4bd 98ed e43c 9d3f 29bd
00000250: e43e 663f 8608 673f 43e6 c1bf 595b 1dbf
00000260: fdb9 9f3f 60b4 333f b670 7540 0087 05be
00000270: 9ed9 4a3e 6d14 06bf 6b5d ee3e fcab 3bbf
00000280: d862 9bbe 474d 43be ecce 6b3f 052f 0b3f
00000290: 02af 0fbe 7c2a 31bf da65 823e 7837 733e
000002a0: b6ec f03d 0738 e5be 0679 973f 011f 1dbf
000002b0: 0b72 563e 6105 393e 3019 21be 2c93 4ebf
000002c0: fe65 84be c59d 283c 74c3 f13d d040 99be
000002d0: a0d7 c5bd 446e c13e 39b9 e8bd 3a54 03be
000002e0: 057a 673f 3599 10bf 0584 9abd d887 efbe
000002f0: dc51 9cbe a3ba d0bb 8df2 82bc 13e6 30bd
00000300: ed8e 333e 9591 f9be c5d4 9abd 4749 15be
00000310: c886 d03f f134 783f 70c9 2f40 9c99 eb3c
00000320: d410 70be ba30 21bd 0db5 49be 5fbc b5bd
00000330: debf 30bf 2bac 42be e9c0 7d3e 73a7 a33e
00000340: 733a 1bbe 2939 853e 4498 02be a061 323e
00000350: 0976 2c3e fa4d 72be 242d d83d 1d5e abbe
00000360: fb3c c7bd 54bf 6dbe bec7 4d3e 08c9 513e
00000370: 8048 1e3d 8f16 76bc a8bb 9cbd e5dc acbd
00000380: 33cd 59be 6ec6 783e a97d de3d 93d1 0140
00000390: 8d49 50bf 217b 9bbe 5282 49be 36c4 40be
000003a0: c39f 05be 8ce5 4b3c 5a4c d33b 3987 1e3c
000003b0: 0035 b5bd cd3e 9ebb 7af8 27bd b518 ac3e
000003c0: bd0b ddbe dcb1 c0bd 7863 8e3e ec10 143d
000003d0: 597e 033f 5e3b aebd 5813 a2bf b289 cdbe
000003e0: 5a5c ccbe 1758 03be 6542 c33e d242 7fbf
000003f0: ecae 973e b157 d3be f384 463e 91ef d8bd
-0.3527837 -0.21179211 -0.0066828155 -0.011033957 0.06804291 -0.23574542 0.019767815 0.18843295
-2.5909934 0.08431801 0.034510944 0.2900157 0.13261497 -0.011835147 0.0027629507 0.02755178
0.07194665 0.49253836 0.31707433 0.3909468 -3.868961 0.13222839 -3.2100158 -0.051167782
0.08181401 -0.074610546 -0.12281474 -0.031699438 -0.006990554 -0.1493867 -0.24789913 -0.50172544
0.072487205 0.24918045 0.028672151 -0.039813325 -0.05049176 -0.10607759 -0.18264358 0.10687022
-0.28874943 0.12294525 0.06148209 0.054773696 0.06538809 -0.011931714 0.038758107 -0.041134406
-0.07222849 -0.07491134 -0.5044943 -0.470262 0.7726981 -0.35352558 0.8115482 0.046671074
-0.04084191 0.011928444 0.008161596 0.0084464485 -1.6730744 0.116571665 0.40664664 1.1658128
0.28790325 -0.21486405 -1.4989473 -0.08076263 0.01123109 -1.1358649 -0.06536395 -2.0370476
0.064531215 0.2926218 -0.7919227 0.06069009 -0.115231775 -0.18035989 0.03740029 0.24199112
0.30969936 -1.3094562 2.0127344 -0.6412068 -0.29205307 -0.86947405 1.2461159 -0.40790662
0.046403755 -0.5646687 0.06615105 -0.0016246113 -0.2877926 0.41178867 0.030644927 0.34874928
0.8560972 -0.2691721 -0.025175361 -0.4123253 -0.4155302 -0.11688233 -0.030639794 -0.013163651
0.75263083 -0.68867457 -0.012557804 0.029613355 2.5593052 0.5289399 4.502301 -0.030473532
0.06723954 0.13737325 0.098918386 -0.16674973 -0.18165284 0.09738076 0.025090888 0.056355156
-0.13431503 0.08292007 -0.1743371 0.39297223 -0.11415586 0.29482216 0.27348846 -0.4737799
-0.16242225 -0.1387346 0.035828806 -0.14837122 0.07516016 0.04189482 0.13200265 -0.018714929
-0.06807819 -0.29483122 -0.069797434 0.14926533 -0.76913136 -0.58924323 -0.2022944 0.012578172
0.10163616 -0.095754765 0.027945325 -0.041320432 0.89939713 0.9024738 -1.5148395 -0.6146751
1.2478634 0.70197105 3.8350043 -0.1303978 0.19809577 -0.5237492 0.46555647 -0.733093
-0.3034885 -0.19072448 0.9211261 0.5436862 -0.14031604 -0.6920545 0.25468332 0.23751628
0.11763899 -0.44769308 1.1833808 -0.61375433 0.20941941 0.18068458 -0.15732265 -0.80693316
-0.25859064 0.010291521 0.11804858 -0.2993226 -0.09660268 0.37779438 -0.113634534 -0.12825099
0.9042056 -0.56483775 -0.07544712 -0.46783328 -0.30531204 -0.006369905 -0.015984798 -0.043188166
0.1753499 -0.48743883 -0.07560114 -0.14578734 1.6291132 0.9695578 2.7466698 0.02875977
-0.2344392 -0.03935311 -0.19697972 -0.088738196 -0.69042766 -0.1901099 0.2478062 0.3196369
-0.15159015 0.26020172 -0.12753397 0.17420053 0.16841902 -0.23662558 0.10555485 -0.3347024
-0.09728428 -0.23217517 0.20095727 0.20486844 0.03864336 -0.015020027 -0.0765298 -0.0844057
-0.21269684 0.24294445 0.108638115 2.0284164 -0.8136223 -0.30367377 -0.1967862 -0.18824849
-0.13049226 0.012444865 0.006448311 0.009675794 -0.088479996 -0.004829264 -0.04100845 0.336126
-0.43173018 -0.09408924 0.27810264 0.03614895 0.51364666 -0.08507417 -1.2662153 -0.40144116
-0.3991421 -0.12826572 0.38136593 -0.99711335 0.29625642 -0.4127784 0.19386654 -0.10592569

fc1.bias f4 [256]
00000000: 11c6 c73d 38dc 0dbe 1f8b 6cbd 9d91 88bc
00000010: ff6e 523c adda 1fbd 5a37 c1bd 77e8 4e3d
00000020: e703 28be 1bb4 b5bd b9ba 0c3e 98dd be3d
00000030: d29e 88be a760 9f3c 41d9 e43d 48df 24bc
00000040: 3c84 e13c 91f6 5bbd 0e23 c13d f732 1a3e
00000050: 855c 1b3e 77ad ef3d c4df 143e 89f1 e73d
00000060: fe91 efbc 6022 a7bd ce33 e4bd 5290 7f3b
00000070: 526a 873d 2549 5c3c 820b eb3d cb17 463e
00000080: 83d0 e7bd fc1f d43d 9af2 82bd 6d89 1abe
00000090: cf52 053e 32d9 113e 9507 923d 2638 04be
000000a0: c7ab b53d 36e0 0b3e 9267 c2bd f3ce 093e
000000b0: 164b 1f3e 96c0 d0bc 8b34 743d d6dc 2e3d
000000c0: 9c71 db3b 7200 3bbb d93f 35bc c56b 733e
000000d0: 3f5a 603e 4284 103d ee50 1c3d bfdb a33c
000000e0: f762 54bd 7287 25bd f716 1ebe ff73 883e
000000f0: fd2d 5bbd aa40 d9bd 1d51 c5bd d517 85bd
00000100: d14d 13be 82bb 08bd 6683 57bc 6771 3bbd
00000110: de41 0d3e 9977 7cbd 162a c9bd 5b94 193d
00000120: a0de e83d 6693 0d3d 5aa5 103e a2ff 543d
00000130: 8787 cebc 0f0c 453d ea06 653e 61f5 a2bd
00000140: 4e82 abbd 3c35 31be 309a b3bc 0ffd 653d
00000150: dace 413e 53eb 2abd 08d7 b8bd 8614 353d
00000160: e3de 9d3d 3762 44bd 8745 db3d 7467 da3d
00000170: 5497 57be f827 abbc c76d 52bd 91f1 073e
00000180: 21eb 87bd 39f9 d73c 1bb4 74bd 0d52 16bc
00000190: 26a5 973d 8dcc 81bc b236 ebbd 2856 223d
000001a0: b9ea 53be 2fc6 bfbd 1010 a0bc 3fc0 9f3c
000001b0: 7178 193e 2aee 103e 183d 6d3d 1005 12be
000001c0: 753b 05be 2672 2c3e 6e2b e8bd 0a19 2c3d
000001d0: 72ef 6d3c cf8e d33d 7016 0abe 6879 da3d
000001e0: 941c 013e d7af a33e 18a7 6fbe 27d3 1f3e
000001f0: 897a 47be 3149 2dbd 66c2 29be c818 6c3d
00000200: 844d 3d3e 7f79 d33d f652 283c 85c6 bbbc
00000210: 1209 a5bd 06e6 c83d 2c7a 753d 7670 743d
00000220: 4b05 483c 4d5c ffbd be5d 6f3d 27c9 373d
00000230: 436c a9bc dc61 1bbe ca90 8e3d 7762 983e
00000240: 8962 223e 107f 33be ede9 3c3e 7fcf 49be
00000250: ca01 92bc 45e8 4a3e 162f 9bbd 624f 573e
00000260: c43d 60be 28e1 98bd 71e4 fcbb dbee 25be
00000270: d6ea 50bd e35e 103e 3b7e babb 9f88 ea3c
00000280: 915d 9e3b 2f80 ffbd 1707 053e 7a64 313e
00000290: 5259 a03d 474d a3bc 26db 0fbe 0d6a 47bb
000002a0: 2395 66be 3276 68bd f0ef 163e aca4 d93d
000002b0: efa1 93bc 3141 58be 6423 9a3e 44a3 353d
000002c0: c08f 703c e550 453d 23b9 1f3e 8b32 7ebd
000002d0: 7c79 1cbe 7ddd 22bc d138 323e 8893 91bd
000002e0: 2b2e e53c c3e0 b9bd 1ae5 09be 1774 3c3e
000002f0: c952 a0bc b46d 433d e6b0 98bd 8fc1 19be
00000300: a8fe 053c 282c 8fbd ebdc 87bd 8e75 61bc
00000310: 4a6a 223e e10f 8cbc 9a77 78bd a096 323e
00000320: 677e 063e f24f bebd 1ab0 6ebd cdf3 bfbd
00000330: f562 63bc 3599 dd3d c89c 8e3d db9c cfbc
00000340: f971 523c 0dcf 33be 1417 adbd 1117 0c3e
00000350: a3e9 0c3e 3337 823e dcfa 1abe b010 a03d
00000360: 4559 8e3b fad6 e13d eb23 1b3c 6b54 7dbe
00000370: 2a47 9c3c 2b12 a5bc b6f3 b73c e2fc 143e
00000380: 339e c1bc 4a9e 27be 9f63 64bc 2f1d debd
00000390: 0364 6d3d 9bc5 52bd bf2e 9f3d b397 3b3d
000003a0: 0244 1abd 6c83 5abd 95c0 20be c1d3 573b
000003b0: 1da1 2c3e d3bc c23c 7236 a13d 47d0 dd3d
000003c0: 063b 8cbe 14cb d4bd 570c 5b3c 744f 90bc
000003d0: f703 9d3c ffc5 d63d 35c5 283d 8346 aabb
000003e0: 8ddc 9cbe d687 7cbc 59d1 ccbd 1376 18bd
000003f0: 9a26 fcbd 229b f73c 1ecb b6bd 2b40 dabc
0.09754575 -0.13853538 -0.057749864 -0.016670996 0.012843846 -0.039026905 -0.094343856 0.050514665
-0.16407739 -0.08872243 0.13743104 0.093196094 -0.2668367 0.019455267 0.111742504 -0.010063
0.027528875 -0.05370194 0.09430514 0.15058504 0.15172012 0.11703008 0.14538485 0.11325366
-0.02924442 -0.081608534 -0.111426935 0.0038995934 0.06612076 0.013445173 0.11476804 0.19345014
-0.11319067 0.10357663 -0.06393929 -0.15091486 0.1301987 0.1424301 0.071303524 -0.12912044
0.088706546 0.13659748 -0.09492411 0.13457851 0.15555987 -0.025482457 0.05962042 0.042691074
0.006696893 -0.00285342 -0.011062586 0.2377158 0.21909426 0.03528238 0.038163118 0.020002244
-0.051852193 -0.040412374 -0.15438448 0.26650998 -0.053510655 -0.10608037 -0.09634612 -0.06498686
-0.14385153 -0.033381946 -0.013153886 -0.045762446 0.13794658 -0.061637495 -0.098224804 0.037495
0.11370587 0.0345644 0.14125577 0.052001603 -0.025211109 0.048107203 0.22365919 -0.079569586
-0.08374463 -0.17305464 -0.021924108 0.05614954 0.18926564 -0.04172833 -0.09025389 0.044209026
0.07708528 -0.047945227 0.10706621 0.10664263 -0.21053821 -0.020893082 -0.051374223 0.13275744
-0.06636644 0.026363956 -0.059742074 -0.009174836 0.074045464 -0.015844608 -0.11485042 0.039632946
-0.20695008 -0.093639724 -0.01953891 0.01950085 0.14987351 0.14153352 0.05791959 -0.14259744
-0.13010962 0.16840419 -0.113364086 0.042016067 0.01452242 0.10329973 -0.13485122 0.10667688
0.12608558 0.31970093 -0.23403585 0.15607892 -0.19480337 -0.04230613 -0.16578063 0.05764082
0.18486601 0.10325908 0.010273686 -0.02292181 -0.08058371 0.098094985 0.059930965 0.059677564
0.012208293 -0.12468777 0.05843901 0.04486957 -0.020681506 -0.15174049 0.0696121 0.29762623
0.158579 -0.17528939 0.1844861 -0.1970806 -0.017823119 0.19815166 -0.0757734 0.21026376
-0.21898562 -0.0746482 -0.007717662 -0.16204397 -0.051005207 0.14098696 -0.0056913174 0.0286296
0.0048329313 -0.12475621 0.12990986 0.17323485 0.078295365 -0.01993431 -0.14048442 -0.0030428201
-0.22517829 -0.056753345 0.14739966 0.10627112 -0.018021552 -0.21118619 0.30105126 0.044345155
0.01468271 0.04817285 0.15597968 -0.06205992 -0.15280718 -0.009940502 0.17404486 -0.071082175
0.027976116 -0.09076073 -0.13466302 0.1840366 -0.019570725 0.047712043 -0.07455616 -0.15015243
0.008178391 -0.06990844 -0.06633934 -0.013760937 0.15860859 -0.017097415 -0.060660936 0.17440271
0.13134156 -0.09292592 -0.058273412 -0.09372673 -0.013878574 0.108202375 0.069634974 -0.02534335
0.012844556 -0.17559452 -0.084516674 0.13680674 0.13761 0.2543274 -0.15134758 0.07815683
0.004344138 0.11027332 0.009469013 -0.24739234 0.019076902 -0.020150265 0.022455078 0.14549592
-0.023635006 -0.16368976 -0.013939767 -0.1084541 0.057956707 -0.051457983 0.07772588 0.04579897
-0.037662514 -0.05334799 -0.15698464 0.0032932612 0.16858335 0.023771679 0.07871713 0.108307414
-0.2738878 -0.103902966 0.013369641 -0.017616011 0.01916693 0.104869835 0.041203696 -0.005196394
-0.30637017 -0.015413245 -0.100008674 -0.03722198 -0.1231205 0.03022534 -0.0892546 -0.026641926

fc2.weight f4 [128, 256]
00000000: a37c 143e c1be 2ebd 3ceb 5f3d 5732 fd3d
00000010: 3798 763d 3f23 153c a233 663c 1666 363e
00000020: 1934 82bd 60f0 11bd 1eae c63d 31d8 c33d
00000030: 7e30 a93d 53c8 5e3d 7a52 3b3c 89d7 923c
00000040: cf3f 093d 6786 f93d 2eb8 07bc ca60 923d
00000050: 3b41 fdbd ffaa fd3c 4570 1abd 1f00 e73c
00000060: 3394 bf3d 9446 333e 831f 133e a296 853c
00000070: b26b 27bd df35 4a3e 1f15 45bc 4e1a b2bb
00000080: 3a0a 2c3e 6de3 093e 85d1 993e be0e c4bc
00000090: 8ff6 a9bd 276a d1bd c514 993d f65a 053e
000000a0: 498f 803b c587 38bd 0f81 6cbc fb05 1a3d
000000b0: 4ce0 b73d ac19 c5bd dd4f 63bd 3863 fa3d
000000c0: 8d16 813c 02aa b7bd a068 bcbc a6ae 0f3e
000000d0: 0a72 3d3d 08f7 d63d 1407 8c3d 3a82 4a3d
000000e0: 2f4c 79bb 3145 17bd fa8c ac3e 0ca0 823e
000000f0: e145 c43c 0825 bd3d 0207 bf3c d0e1 103d
00000100: 3478 993c de09 b83d 96ca e63c 5971 803c
00000110: a211 9f3d deee 763e 42cb efbc 2660 9cbc
00000120: ffb7 2b3b 703f 013d 07ee 1f3e f6c7 593e
00000130: b659 333d 566f 0b3c ccf6 dc3d 4c63 543d
00000140: 45f9 343e ac24 4c3e 2623 50bd 6aa8 093d
00000150: 6ecd 60bd 4664 95bd 0e9f 81bb f5cb 863e
00000160: d92e 0cbd ef65 3c3c 95a9 8a3c d0c9 6fbd
00000170: 9279 7f3d d1b3 2d3c cd3f 983d 5511 f6bc
00000180: c9e5 c83d fcd1 9bbd cad4 5e3d 279b 3f3d
00000190: 6c35 253e eede c7ba fedb 4d3d 6f31 82bd
000001a0: 6ac4 f3bb 1108 a9bd 1b69 383e 2332 8a3e
000001b0: 35e7 99bd 9cd2 103e 97a6 1a3e e673 9c3c
000001c0: ad10 c03e f752 bcbc 3add 533e ea92 0abb
000001d0: 9bc1 553d acc0 e63d d906 f13d b209 783d
000001e0: 2c72 0f3e b6f8 ca3d 6d79 04bd 1397 1e3d
000001f0: 568c 2b3d fa12 ee3b ea49 313e 23f0 1f3e
00000200: cbb9 99bb 3c8e 3f3d 7d5c ad3c 20f2 973d
00000210: f9cf b73c 6e16 5c3d 2afa 08bd 3238 b4bc
00000220: 13df 89bd 6f68 133e 1402 9b3d 253c 67bd
00000230: 24ff 033e d9bc c8bc 851a 163e a755 10bd
00000240: 085c 453d 8437 ca3c bd4b 373d 7573 bc3d
00000250: 7b75 553e dab9 203e 9feb 9fbb 799d 353e
00000260: ba08 a63d 89ce 8fbd 4efd cb3d 60b4 b83c
00000270: 4488 dd3c 5c22 743d 4328 873e a875 ab3d
00000280: 8da6 5e3d 205a ac3d e12c ea3c 129c a6bb
00000290: 07d3 4ebd aaf8 433e 2d76 2cbd 8b7e 91bd
000002a0: 9e60 a8bd ecc0 d6bc 41e2 dc3d 4001 b13e
000002b0: c74c 4c3e 0a6a b93d 4ade d63d 8137 a93e
000002c0: a0df c9bc 976e 2a3d 570e d63d d070 1d3e
000002d0: 81b2 e43d 65b0 3a3d e00b e7bc d6c7 193e
000002e0: 4c4e 283e 117a 073d dc24 a83d d71d 483e
000002f0: 28f9 47bc fbe0 913d 2619 c23c 004e 76bd
00000300: 8941 a43e 83a0 5bbd 9b6a fb3d ff5e bdbc
00000310: 195a 533e e1e8 883d f31c aa3c f9cf 0fbc
00000320: 2c65 af3c 0d97 3d3d 9bd1 b73d e5ed b43c
00000330: b94e d1bc 02b7 9dbd e7a8 cbbc 9bb7 ac3e
00000340: f3b0 f43d 1dcc 133e db6c 463e 96b4 a83d
00000350: e538 ccbd 623e 8cbc 2a3d 9b3d eaba bf3c
00000360: d41b 433d e196 eb3d 589c c33d f73b 5d3e
00000370: bc5d 9dbc f8b9 d33d 875a 51bd 3a8a 853d
00000380: 4f99 a93d 5bc5 983e a85e 683d cf8d 85bd
00000390: a28c 963e 9e54 4c3e 5409 923c eefb 083e
000003a0: 8462 673d a944 5f3d 09e4 14bd 8a23 433c
000003b0: f619 2b3e 5ed8 9e3b 0533 053d 92e9 8abb
000003c0: fcf2 893e 5654 8f3c df3e dc3d 8504 8a3b
000003d0: 7458 2b3e 3ae0 a03d c505 483d 3777 123d
000003e0: 07bd 023d ccbf d33d 1054 c23d f6fe 033e
000003f0: e759 023e 6cab bf3d 497c 9b3d fe9b ce3d
0.1450067 -0.042662386 0.054667696 0.12363117 0.060203757 0.009102642 0.014050396 0.1781238
-0.06357593 -0.03562963 0.09701179 0.095627196 0.08261202 0.054390263 0.011433238 0.01792504
0.03350812 0.12183838 -0.008283658 0.07147367 -0.12365957 0.030965326 -0.037704725 0.0281983
0.09354439 0.17507392 0.1436749 0.016307179 -0.04087419 0.19747113 -0.012028961 -0.0054352647
0.16800776 0.13465662 0.30042663 -0.02393281 -0.082989804 -0.10225325 0.074746646 0.1302298
0.003923331 -0.045051355 -0.014435067 0.03760336 0.08978328 -0.09624037 -0.055496085 0.12225956
0.015757823 -0.08967973 -0.022999108 0.14031467 0.046251334 0.10496336 0.068372875 0.0494406
-0.0038039794 -0.03693122 0.33701307 0.2551273 0.023959102 0.09235579 0.023318771 0.0353716
0.018734075 0.08986257 0.028172772 0.015679048 0.07767035 0.24114558 -0.029271726 -0.019088816
0.00262022 0.03155464 0.15618144 0.21267685 0.043786727 0.008510431 0.1078926 0.05185251
0.17673214 0.19935864 -0.05081477 0.033607878 -0.054883413 -0.07294516 -0.0039557284 0.26327482
-0.034224365 0.011498912 0.016926566 -0.058542073 0.062371798 0.010601954 0.07434044 -0.030037561
0.09809453 -0.07608411 0.05440215 0.046778824 0.1613366 -0.0015248933 0.05025863 -0.06357085
-0.007439186 -0.08253492 0.18008845 0.26991376 -0.07514802 0.14142841 0.15102611 0.019098233
0.37512723 -0.02298878 0.2068986 -0.0021144697 0.05218659 0.11267218 0.11768884 0.06055612
0.14008397 0.09910719 -0.032342363 0.038718294 0.04188188 0.007265446 0.17313352 0.15618949
-0.0046913377 0.046766505 0.021162266 0.074192286 0.022438036 0.053732328 -0.0334417 -0.021999452
-0.06732001 0.14395307 0.07568756 -0.056453843 0.12890297 -0.024504112 0.14658554 -0.035237934
0.04818347 0.024684675 0.044749964 0.09201709 0.20845596 0.15695897 -0.004880383 0.17735852
0.08107133 -0.07021815 0.099604234 0.022546947 0.027042516 0.05960308 0.26397905 0.083720505
0.054358054 0.084156275 0.028585853 -0.005084523 -0.05049422 0.19137827 -0.04210489 -0.07104214
-0.08221553 -0.02621504 0.10785342 0.34571266 0.19951163 0.090534285 0.10491617 0.3305016
-0.024642766 0.041609373 0.10451954 0.15375066 0.111668594 0.04557838 -0.028203905 0.15017638
0.16436118 0.033075396 0.08210155 0.19542633 -0.0122054 0.0712299 0.023693632 -0.06013298
0.3208125 -0.053619873 0.12276193 -0.023116587 0.20639838 0.06685043 0.020765757 -0.008777612
0.021410547 0.04628663 0.08975526 0.022086093 -0.025550233 -0.077009216 -0.024860812 0.3373383
0.11947813 0.14433332 0.19377463 0.08237569 -0.09971789 -0.01711959 0.075800255 0.023404557
0.04763396 0.11503387 0.095513046 0.21604906 -0.019209735 0.10338205 -0.051111724 0.06520505
0.082811944 0.2983807 0.056730896 -0.065211885 0.2940417 0.19954154 0.017826714 0.13377354
0.056490436 0.05450884 -0.036350284 0.011910329 0.16709122 0.0048475703 0.03251936 -0.0042392695
0.26943195 0.01749627 0.10754179 0.0042119646 0.16732961 0.07855268 0.048833627 0.035758223
0.03191855 0.10339317 0.0948869 0.12890229 0.12729608 0.09358868 0.07592065 0.10088347

fc2.bias f4 [128]
00000000: 9709 a83d 5759 cb3c 5dbc 89bd 5b3a b23d
00000010: 16dd 6abd 752f b7bd 86ec 76be 9e70 383e
00000020: 1e90 da3d 6cc8 93bc c852 413c 3c4f 89bc
00000030: 5bfd c63d 307a 4dbe 57e2 273c 19f9 91bd
00000040: b434 7cbc 3c4e 88bd 9a32 2638 fee5 9cbd
00000050: 8832 af3c 15d8 1e3e 984c 6ebd 679e bcbd
00000060: c054 c5bd a56a b73d 1857 c73d a548 293e
00000070: 0256 c13d aab3 b1bc 2fcc 37bd d561 07be
00000080: 4db0 bcbd 2212 873e 5cfc 5cbe db20 823d
00000090: be24 3abe 15d4 f9be e0a8 0f3d 9617 943d
000000a0: b140 2dbe 4fa2 263e abc0 3bbe 7202 e43a
000000b0: 18d5 863e 092f 163c d4fa bdbb 4bf9 2ebc
000000c0: 2b75 83bd 16bd 653d 4900 d23d 4606 24be
000000d0: a5e7 b4bd f6e4 a23d 225f c4bd 11e0 763e
000000e0: efcf 513d fd5b a8bd 7cda c2bc 89c4 573d
000000f0: 93c5 b93b fa9f c6bd 9d91 96bd 9f48 183e
00000100: a0a5 2abe 45e5 50bd aa13 b93d 3778 34be
00000110: baa3 09be b214 093c b70e 1a3d 6d1c 4e3b
00000120: 76cc c93c 4442 033d 5c30 c0bd 5577 03be
00000130: 614e 8d3d d660 c5bc 1c25 49bb 889b ef3d
00000140: 9a88 9fbe 8462 7e3d ac4e c6bd df0c fa3c
00000150: 7b8b fc3a bba6 3cbd e444 cabc c8e1 45bc
00000160: 6910 c83e 6b50 52be 3ad2 393e e636 a5be
00000170: f3a1 3d3d 6145 eb3d 7e7d 0c3e 52f7 af3d
00000180: 0ebe a43d 9497 2d3e 6458 093b 900a e6bd
00000190: 26f3 3fbe 4e94 403c 74e6 04bd 453d fb3d
000001a0: 32b4 febc e4e7 2b3d f6a8 4c3e 46ea 34be
000001b0: 2d42 743d 8a0a 59be e955 0e3a d199 073e
000001c0: cf28 f03d 7f90 043d 4085 13bc c334 33be
000001d0: 8e30 f43c 3049 c6bd 404f 02be 4ff0 d9bd
000001e0: 30d6 f73d 1415 c4bd 77f5 10bd 495b fb3c
000001f0: a229 cfbd fed9 0ebe 9e5a 753d 9587 bb3d
0.08204954 0.024822874 -0.067253806 0.08702537 -0.05733975 -0.089445986 -0.24113664 0.1801171
0.106720194 -0.018039905 0.011799522 -0.016761415 0.097162925 -0.20066142 0.010246835 -0.0712759
-0.015393425 -0.06655547 3.962461e-05 -0.07661055 0.0213864 0.15512116 -0.058178514 -0.092099
-0.096353054 0.08955888 0.09733409 0.16531618 0.09440233 -0.021692116 -0.04487246 -0.13220914
-0.09213314 0.26381022 -0.21580642 0.06353923 -0.18178079 -0.48794618 0.03507316 0.07231061
-0.16919209 0.16272853 -0.18335216 0.0017395748 0.26334453 0.0091664875 -0.0057977233 -0.010679553
-0.064188324 0.05608853 0.10253961 -0.16018018 -0.08833245 0.07953827 -0.09588458 0.24108912
0.05122369 -0.0822067 -0.023785822 0.052677665 0.0056693046 -0.09698482 -0.07351992 0.14871453
-0.16664743 -0.0509999 0.09036954 -0.17623983 -0.13441363 0.008366751 0.03761169 0.0031450049
0.024633627 0.032045618 -0.09384224 -0.1283849 0.06899715 -0.024094027 -0.0030692285 0.11699587
-0.31158906 0.06210567 -0.09682974 0.030523716 0.0019267643 -0.046057444 -0.024691053 -0.012077756
0.3907502 -0.2053849 0.18146601 -0.32268447 0.046297025 0.11487842 0.13719746 0.085920945
0.080440626 0.16952354 0.0020957226 -0.112324834 -0.18745098 0.011754109 -0.03244634 0.122675456
-0.031091783 0.041969195 0.19986328 -0.17667493 0.059633423 -0.21195427 0.0005429672 0.1324227
0.117265336 0.032364365 -0.009003937 -0.17500596 0.029808309 -0.09681928 -0.12725544 -0.10641538
0.121014 -0.09574333 -0.035390344 0.030683177 -0.10115363 -0.13950345 0.059900872 0.091567196

fc3.weight f4 [64, 128]
00000000: ffcb 583d 265a 2dbf 3767 85bd b0b0 bf3d
00000010: e527 f7bc 254e fabd b4d2 963e 4ebf 37bc
00000020: d610 5f3e 913b bc3d 732a 95bd 80d8 6f3d
00000030: da95 91bc f5aa 9bbc 7f2e c23d 581e 593d
00000040: a838 69be 4544 8cbc a63a 0fbe ad34 0fbd
00000050: f052 993d 47a6 91bd 3819 133d 77a3 d6bd
00000060: c1c6 253e 8d8d 3abe 0544 0d3d 9e1f 40bd
00000070: 23ac ee3d 0315 d53e 5df4 693e b4c0 e13d
00000080: 6ce7 693e 3225 163d c333 5abd 9f54 95be
00000090: edf0 233e 03fa bfbc fcea dc3d 572b 60be
000000a0: 680d a6bd f0cc 313d aae1 e7be 77cc 31bc
000000b0: c3ce e13c e2b3 94bc 9feb 8e3d 1674 e0bd
000000c0: 873a 72be 69ae 023d e672 dabd 7d5a a13d
000000d0: ffda 873c e6a5 d8be fb77 acbd 09ba d2bd
000000e0: a80d 5a3d 549c 623b 8403 96be 4a40 babc
000000f0: 6593 2bbe 4828 183e 30f8 cabd 5e06 85be
00000100: 7e01 e93c f298 a3bd 745e 9abe 88e5 31bd
00000110: 307e a7bd 23d3 9c3c 9da1 bd3d 1b4e 523e
00000120: 824c 383c 49a7 e63d 14f0 eabd 09c7 903e
00000130: 736b f83a 247e 70bd f3a0 983b 32ea 753d
00000140: d31a c23d a93d db3d 5f4f e5bd 4e4b 123e
00000150: 66df 1ebe 03d8 0fbc b48d 89bd 3477 883c
00000160: 652f a4bc d527 76bd a261 093c 654f 483d
00000170: fc68 a53d 3ea3 5b3c 6a35 5a3a 92b9 a2bd
00000180: d71b febc 920c 1d3d 60eb bcbd 69e0 4a3e
00000190: 43b6 dabd 2adf 4a3e 277a b63d 04f9 4a3c
000001a0: 0648 0d3b 090a 913d 614b 83bd b0ca 033d
000001b0: f0ee 123e b899 513d 7c4d 05bd 4838 1e3e
000001c0: 6d84 2ebc 6f03 e33d 3936 8ebd 6a75 063e
000001d0: d02b 433d ed51 0dbe eefa 223d 5aae 1a3d
000001e0: 6094 a03d 35ec 9dbc 9e17 b13c 1368 1e3d
000001f0: 30f7 e3bc 27b7 98be 71a4 ce3c cc2c 823a
00000200: cce3 5f3d 1883 a0be cfdb 593e 19c6 8cbd
00000210: d372 093e e422 bf3e 033b c1be c2a7 b13d
00000220: 3910 e3bd ebb6 19be 34b7 a33d a864 3fbd
00000230: e8e1 1f3c 7f2c 97bd 3b4e 7f3d 0498 b1bb
00000240: 47e5 72be dd8f 6bbe fdae 7abd d53e 163e
00000250: 89dd 4c3b 428e 81be 1ac3 ac3d 8473 87bc
00000260: 076a 8a3d a28c 65bd b335 023e e004 943d
00000270: f166 8bbe 5e72 3a3e 3a5e abbd 3ae5 a43c
00000280: bbde 10bd 5ba3 e23b 37ee 81bd 5d04 6dbd
00000290: 07b7 2e3d 346a 803d d652 72be 3921 3abe
000002a0: 9c7c 90be 102f 70bd 135a 02bd 3c19 b9bc
000002b0: abb4 23be 5175 51bc d11b b3bc 7742 2e3d
000002c0: 8416 40be 904b 1bbd 14d1 43bd ab5d 1e3d
000002d0: 2ea4 c9bd 0d46 9c3d a12a f03d 9368 55be
000002e0: d63d 523c 3268 113d 8bb6 113e d3b7 f43d
000002f0: 1067 d33e 3ebc c83d 7127 a0b9 0f1e ac3d
00000300: 5f8c f2bc 85b2 34bc 72a7 213d cc3e 093e
00000310: 4915 8e3c e72b 14be b427 ecbc ab99 513e
00000320: d803 b93e daaa b0bd 1f28 acbd bfcc db3e
00000330: 824b 8c3d 054f 9f3d 09da 97bd eeb2 af3c
00000340: 4ea3 683e 545a a3bd ba72 54be 6ccb 1fbd
00000350: 8712 1cbf 2795 0f3e c545 c3bc 66d9 303d
00000360: 28e6 cbbe 7e68 46bc 5bb7 3b3e b4ed 453e
00000370: fcfd 57be 4bb2 1bbe ea58 25bd c76c 23be
00000380: e612 94be 047e fa3c e9bf 2b3e 1f68 613d
00000390: 8c03 be3d d52f 0e3e 21b8 cabe 75a1 eebc
000003a0: 8206 bc3d e11d 6dbd ced0 66be 6791 7d3e
000003b0: 3c9d 01be 1024 a03d aed9 34bd 9d19 6f3e
000003c0: d824 753e a0cd b4bd f916 ecbc 92cf 71bb
000003d0: fa1d dbbc 268b dbbd 90a1 e8bd 3fd7 4dbd
000003e0: 4fc3 3cbd 383a 883d 3682 b23c 8c4d 2d3e
000003f0: 79d0 5a3b f933 0ebe cbd7 94bd 0bab 39bc
0.05292892 -0.6771568 -0.06513827 0.09359872 -0.03017039 -0.12221936 0.2945763 -0.011215044
0.21783766 0.09191049 -0.07283487 0.05855608 -0.01777165 -0.019002417 0.09481525 0.053007454
-0.22775519 -0.017122397 -0.13987216 -0.034962345 0.07486522 -0.07111793 0.035912722 -0.10480397
0.161891 -0.1821806 0.034488697 -0.046905152 0.11653926 0.41617593 0.22847123 0.11023083
0.22842187 0.036656566 -0.05327202 -0.29166123 0.16009875 -0.023434645 0.10787007 -0.21891533
-0.08108026 0.043408334 -0.45289356 -0.010851971 0.027564412 -0.018152181 0.06978535 -0.10959642
-0.23655139 0.03190461 -0.106664464 0.078785874 0.016583918 -0.4231407 -0.08421322 -0.1028939
0.05323568 0.0034578042 -0.29299557 -0.022735734 -0.16755445 0.14859116 -0.09910619 -0.2598142
0.028443094 -0.079881564 -0.30150187 -0.04343179 -0.08178365 0.019143647 0.09259341 0.20537607
0.01124871 0.11262376 -0.114715725 0.28276852 0.0018952921 -0.058714047 0.0046578585 0.0600378
0.094777726 0.1070512 -0.111967795 0.14286539 -0.15514907 -0.008779529 -0.06716481 0.016658403
-0.02004213 -0.06009658 0.008385094 0.04890384 0.08076665 0.013405619 0.00083239994 -0.07945551
-0.031019134 0.038342066 -0.09224582 0.19812168 -0.10679295 0.19811693 0.089100175 0.0123884715
0.0021557822 0.07081992 -0.06410862 0.03217572 0.1434896 0.05117199 -0.032544598 0.15451157
-0.01065169 0.11084639 -0.06943936 0.13130727 0.047649205 -0.13800783 0.039790086 0.03776393
0.078408 -0.019277671 0.021617707 0.03867347 -0.02782783 -0.29827234 0.025224896 0.0009931563
0.054660603 -0.31350017 0.21275257 -0.06873722 0.13422708 0.37331307 -0.37740335 0.086745754
-0.110870786 -0.15011184 0.079939276 -0.046726853 0.00975845 -0.07381534 0.062330466 -0.005419733
-0.23720275 -0.23004098 -0.061202038 0.14672406 0.0031259975 -0.25303847 0.0843565 -0.016534574
0.06758504 -0.05604232 0.12715797 0.07227492 -0.27226976 0.1820769 -0.08367582 0.020128835
-0.035368662 0.006916446 -0.06344264 -0.05786549 0.042655017 0.06270257 -0.23664412 -0.18176736
-0.2822007 -0.058638632 -0.031824183 -0.02259504 -0.15986888 -0.012784318 -0.02186385 0.042543855
-0.18758589 -0.03791386 -0.047806814 0.038663547 -0.09845768 0.076305486 0.11726881 -0.20840673
0.012832126 0.03549976 0.14229791 0.11949124 0.41289568 0.09801529 -0.00030546964 0.08404171
-0.02960795 -0.0110288905 0.03946633 0.13402861 0.017344134 -0.14469872 -0.028827526 0.20468776
0.36135745 -0.08626337 -0.0840609 0.42929646 0.068503395 0.07778744 -0.07414634 0.021447625
0.22718546 -0.07976213 -0.2074689 -0.039012358 -0.6096577 0.14021741 -0.02383698 0.043176077
-0.39824033 -0.012109874 0.18331663 0.19328958 -0.21092981 -0.15204732 -0.040368 -0.15959464
-0.28920668 0.030577667 0.16772427 0.05503094 0.0927802 0.13885434 -0.39593604 -0.029129723
0.09180929 -0.057889823 -0.2254059 0.24762498 -0.12657636 0.078193784 -0.044152908 0.23349614
0.23939836 -0.08828282 -0.028819548 -0.0036897403 -0.026747692 -0.107199 -0.113589406 -0.050254103
-0.0460847 0.06651729 0.021790605 0.16924113 0.003338842 -0.13887013 -0.07267722 -0.011332284

fc3.bias f4 [64]
00000000: 166c 4b3e a91a 54be cc45 293e 056a 003e
00000010: 2d5b cbbd dc8d 5e3d 01af 033d aa5b d13d
00000020: 5919 683e d0bb 4bbe c4f8 9bbd 7f5e 94bd
00000030: 4336 e2bd 32f0 373b 0c45 a5bd abfa 2dbe
00000040: 3874 ba3d 5f50 02be e6fd 5f3d 1d7a 933d
00000050: 2c5c 9e3e 52ea 0c3e 7e9d 5abd 1b07 e3bc
00000060: 77ab 813c 7240 c6bd f941 f8bc 38ff dbbd
00000070: cfe6 ec3d 241b a43c ffa2 a3bc a255 a6bc
00000080: 10d1 183e 6dcb 5abe b884 76be 2e2f 1e3e
00000090: 5acd 863d 3876 143e 09c0 0b3e 30ca 16bd
000000a0: 7e16 6c3c 4641 08be 04f4 823e 949e 093e
000000b0: 27e4 12be 9cff 6cbc eda4 993e 9a6b 983d
000000c0: fab9 823d 79d0 433a 1661 45bd 2277 4fbd
000000d0: 3461 d9bd 8127 c3bd a78d bf3d 3681 c6bc
000000e0: c8dd bf3d 0d5b 4dbd 4e61 8c3d 56d2 303d
000000f0: 8278 d7bd 12a0 9cbd 59c8 8bbc 174e fe3d
0.1986545 -0.20713295 0.16530532 0.12540443 -0.099295 0.054334506 0.03214932 0.10222562
0.2266592 -0.19895864 -0.07615808 -0.07244586 -0.11045506 0.0028066752 -0.0806981 -0.16990153
0.09104198 -0.12725972 0.054685496 0.07201026 0.30929697 0.13761261 -0.053372853 -0.02771335
0.015828831 -0.09680261 -0.030304896 -0.107420385 0.11567461 0.020032473 -0.019975184 -0.020304505
0.14923501 -0.21366663 -0.24074066 0.15447685 0.065821365 0.14498222 0.13647474 -0.036813915
0.014409659 -0.1330615 0.25576794 0.13439399 -0.14344846 -0.014465239 0.3000864 0.07442398
0.063831285 0.00074697245 -0.04818829 -0.050650723 -0.10614243 -0.09529019 0.0935319 -0.024231534
0.09368473 -0.05013566 0.06854497 0.043169342 -0.10521032 -0.076477185 -0.017063307 0.12417238

fc4.weight f4 [1, 64]
00000000: 40d5 e3be 280d 2ebf 70f4 8ebe aaee fbbe
00000010: 29c9 e5be 28f2 5c3e 0bc8 25bf 8770 8cbe
00000020: b3e9 a0bd 0ebc 87be d6f7 043f f8ce c23e
00000030: 7b20 87be 4c2f 67be b6e6 d0be e28e 15be
00000040: d3c7 e2be 8172 47be 114e a6be ca2a 8fbe
00000050: abde 90be 2c92 c7be 0a8d debe 40fe 7cbe
00000060: 9e27 4dbe a3c0 09bf 9070 53be 2b05 85be
00000070: 49f7 6cbe e325 84be 76f5 ba3e 7b11 71be
00000080: b89b 5bbe 084b 4bbf bc39 12bf b1f5 6bbe
00000090: 200e 77be f1e3 f9bd 729d 243f 98e6 53be
000000a0: 4a3e 2fbe e2fa bfbe 5701 02bf 23ee 1c3f
000000b0: 4672 86bf 6bf7 a8be 2e89 6bbe 713c 53be
000000c0: 7003 91be 34a7 97be 6f1b 95be 7ad6 63be
000000d0: e176 cf3e 02d9 163f 63d3 2dbe 6ca7 623e
000000e0: edfc 143f bdc7 283f 0a95 d1be f8a9 a1be
000000f0: 86c5 06be 0c14 713f 41a4 2cbe a425 87be
-0.44498634 -0.67988825 -0.27920866 -0.49205524 -0.44880036 0.2157675 -0.64758366 -0.27429602
-0.078570746 -0.26510662 0.5194067 0.3804853 -0.26391968 -0.22576636 -0.40801018 -0.14605287
-0.4429308 -0.19477274 -0.32481435 -0.27962333 -0.28294882 -0.38978708 -0.4346698 -0.24706364
-0.20034644 -0.53809565 -0.20648408 -0.25980505 -0.23141207 -0.25810155 0.36515397 -0.23541825
-0.2144612 -0.79411364 -0.57119346 -0.23042943 -0.24126482 -0.122016795 0.6430274 -0.20693433
-0.17113605 -0.37496096 -0.50783294 0.6130087 -1.0503623 -0.33001265 -0.23001549 -0.20628525
-0.28322935 -0.29619753 -0.29122493 -0.22249785 0.40520385 0.5892488 -0.16975169 0.22134179
0.58198434 0.65929776 -0.4093402 -0.31574988 -0.13161287 0.94171214 -0.16859533 -0.26395905

bn1.weight f4 [256]
00000000: 5c59 a13f fae1 ab3f 4de6 a93f 9543 823f
00000010: dc12 993f b9e6 9c3f b4d5 2f3f e19c ed3e
00000020: e01e 493f 375b 423f 4fce 133f 7419 2c3f
00000030: 0be3 a23f d679 9c3f 2a88 2a3f c170 743f
00000040: 7bbd 6e3f b3a0 ae3f 771f aa3f d7c9 7f3f
00000050: 88e5 a13f 815c a43f e0b7 043f 5519 993f
00000060: b0ab ba3f b702 a33f 7743 9c3f a9e3 893f
00000070: 5722 663f fd53 b03f 5178 533f 30f5 9a3f
00000080: 9712 9e3f e0ed d63f 95ac 843f 99c2 153f
00000090: 9e83 263f b8be 493f 13f0 203f 7e06 313f
000000a0: c117 3e3f 3c18 5a3f 34b0 913f 76e4 373f
000000b0: 1ee7 943f b05c 2f3f 3f4b 6b3f a646 173f
000000c0: 5624 893f 0082 303f 2463 043f 239d 923f
000000d0: d59f 963f 14a6 7e3f af6e 6f3f 4303 1b3f
000000e0: a50b 273f 71fc 1a3f 243c f13f a903 953f
000000f0: 1c03 b03f 662a ad3f 7e98 743f 52dd b53f
00000100: 5765 0a3f 7598 103f 8ffc 9d3f 1ec5 083f
00000110: 3e08 b93f 196e ca3f a20f 623f 02fd 463f
00000120: ea60 933f 3153 993f d4e1 783f 863f 923f
00000130: 41a4 273f 4785 f53e eacd 823f a970 2e3f
00000140: 6366 963f d007 ba3f 8d69 173f 7d02 a03f
00000150: ad7c 9c3f a30d 593f d9f3 ac3f c06d 9c3f
00000160: 0f6e 223f f77c 2b3f 37e4 2b3f c2d3 093f
00000170: 5dfd ab3f f281 803f c0f9 213f a3b7 143f
00000180: 8305 a13f da37 7b3f c0cd 263f 5022 0c3f
00000190: 2738 c13f 20f9 2e3f 6558 1a3f 242b 2c3f
000001a0: 1662 a63f 9e53 4c3f 6b9f 603f dc81 b93f
000001b0: 2c63 283f 7e47 863f a515 193f fde3 063f
000001c0: 0a8a 8f3f c894 923f a52e b33f a943 873f
000001d0: 17db 593f 5230 893f 3d13 8a3f cfa6 9e3f
000001e0: b89a 6f3f f040 883f 6c1b 743f add3 663f
000001f0: 41d4 943f 012f 663f 0385 e33f 015b b03f
00000200: e588 d03f c02a 323f bc96 023f 39aa 7f3f
00000210: 3481 853f 2707 283f d143 f23e f46a 8c3f
00000220: 9d7b 783f a113 a23f c57a 8b3f 1622 8d3f
00000230: ae10 e03f e4bd b43f a365 953f 274f a73f
00000240: 4b68 bb3f 9812 853f 3773 613f c18b 873f
00000250: 706f 933f ab6f ab3f 21a0 c53f 35c1 9d3f
00000260: 48a9 a73f 23f0 463f b172 313f 60a0 b63f
00000270: fe80 663f 5d58 863f f4f4 f53f 23c7 0c3f
00000280: 77fa eb3e f7d4 643f ab51 5d3f 06ef 923f
00000290: b426 8a3f c14c 2a3f 3920 403f 72ca 423f
000002a0: 640c c53f b0af 1e3f 0dcf 993f 2c6a ac3f
000002b0: 6497 9b3f 3da7 9c3f 1fdd c73f bb84 923f
000002c0: ab54 163f cd41 9d3f 6421 273f 656f 483f
000002d0: 92dc 253f 7add ee3e ed3e 8d3f 1cdb 7d3f
000002e0: cb2b 2b3f 054b 433f d21d 383f e3c5 a73f
000002f0: 9ff2 b43f ada6 423f 51af 173f 01ae 883f
00000300: b149 be3f 78f3 913f 7a04 b83f 079d 333f
00000310: a642 dc3f 28f2 bb3f 084d cf3e 2358 8c3f
00000320: 0839 be3e d821 173f d41d 023f 0cde 1f3f
00000330: 9c8f 3b3f b620 623f b8a4 7c3f 7283 933f
00000340: e031 0e3f 46bd 963f 59c2 9c3f 6369 303f
00000350: 44b4 153f a068 883f d219 a33f af4f 323f
00000360: 63d0 973f 2069 903f 60c8 3d3f df7f ba3f
00000370: dd6f 803f 69b7 133f 9003 a73f 96a0 863f
00000380: c09f f03e 8348 8f3f 0421 1c3f b55d b23f
00000390: ab4b c73f b406 6b3f b6c5 823f 48f4 b53f
000003a0: d54f 153f 4341 1e3f 51cc a23f c192 293f
000003b0: d50f 743f 6b13 a13f 4ba2 523f a3d3 6b3f
000003c0: a744 9b3f 3e24 263f 0c11 6d3f e1ca 283f
000003d0: 172d 663f 9ec2 533f 8dd6 2b3f 3991 053f
000003e0: de50 a63f 67b1 423f 8cb4 f63e 53f3 bc3f
000003f0: ec9e ac3f 8693 a73f cd4a 073f 7461 0840
1.2605395 1.3428338 1.3273407 1.0176874 1.195888 1.2257911 0.6868546 0.46408752
0.78562737 0.7592043 0.57736677 0.6722634 1.2725538 1.2224681 0.6661402 0.9548455
0.93257874 1.3642792 1.3290852 0.9991736 1.2648172 1.284073 0.5184307 1.1960856
1.4583645 1.2735204 1.2208089 1.0772601 0.8989615 1.3775631 0.82605463 1.2106075
1.2349423 1.6791344 1.0365168 0.5850006 0.6504458 0.7880664 0.62866324 0.6915053
0.74254996 0.8519323 1.1381898 0.7183298 1.1633031 0.68500805 0.9191169 0.59092176
1.0714214 0.68948364 0.51713777 1.1454204 1.1767527 0.99472165 0.93528265 0.6055185
0.65252143 0.60541445 1.8846478 1.1641742 1.3750949 1.3528564 0.95545185 1.4208167
0.5406088 0.5648263 1.23427 0.53425777 1.445564 1.5814849 0.88305104 0.7772981
1.1513951 1.1978513 0.97219586 1.1425636 0.65485007 0.47953245 1.021909 0.68140656
1.1749996 1.4533634 0.5914543 1.2500759 1.2225548 0.84786433 1.3511916 1.2220993
0.63449186 0.66987556 0.67145103 0.5383874 1.3436695 1.0039656 0.63271713 0.5809271
1.2579807 0.981321 0.651577 0.54739857 1.5095261 0.68348885 0.6029113 0.6725333
1.2998683 0.7981509 0.8774325 1.4492755 0.65776324 1.0490568 0.5979865 0.5269163
1.1214001 1.1451654 1.399861 1.0567523 0.8509993 1.0717871 1.0787121 1.2394656
0.9359546 1.0644817 0.9535434 0.9016674 1.1627275 0.8991547 1.7774967 1.3777772
1.6291777 0.6959648 0.5101125 0.99869114 1.0430055 0.65635914 0.47317365 1.097014
0.9706362 1.266224 1.0896841 1.1026027 1.750509 1.412045 1.1671642 1.307103
1.4641203 1.0396299 0.8806643 1.0589525 1.1518383 1.3393453 1.5439492 1.2324587
1.3098536 0.7771017 0.6931563 1.4267693 0.90040576 1.0495716 1.9215379 0.5499136
0.46089527 0.8938746 0.8645274 1.1479194 1.0793061 0.6652337 0.7504917 0.7609016
1.5394406 0.6198683 1.2016312 1.3469901 1.2155576 1.2238537 1.5614356 1.1446756
0.58722943 1.2285706 0.65285325 0.78294975 0.6478969 0.46653348 1.1034828 0.9916246
0.668637 0.76286346 0.719205 1.3107265 1.4136542 0.7603558 0.59251887 1.0678102
1.4866239 1.1402426 1.4376366 0.7016148 1.720784 1.4683275 0.40488458 1.0964397
0.37152886 0.59036016 0.50826764 0.6244819 0.73266006 0.8833116 0.9868884 1.1524489
0.55544853 1.1776512 1.224681 0.6891081 0.5847819 1.0656929 1.2742255 0.6965284
1.186047 1.1282082 0.74133873 1.4570273 1.0034138 0.57701737 1.3047962 1.0517757
0.4699688 1.1194004 0.6098788 1.3934847 1.5569967 0.91807103 1.0216587 1.4215174
0.5832494 0.6181833 1.2718602 0.66239554 0.9533666 1.2584051 0.8227889 0.92119807
1.2130326 0.6489905 0.92604136 0.6593457 0.8991255 0.8271884 0.67124254 0.5217472
1.2993429 0.76051944 0.4818462 1.4761757 1.3485999 1.3091896 0.5284851 2.130948

bn1.bias f4 [256]
00000000: 656e abbd 2ec0 113d f3b2 d8bd 2bda 7d3d
00000010: 779f 8c3d 4be3 323d d702 043e fb23 2cbe
00000020: 9821 0abc 99fa e9bd c063 edbc afe0 0ebe
00000030: ee46 543d 1169 733d 64ed 3b3c a18e 11bc
00000040: ebb6 9ebe 32d9 26bd f488 bd3c 624c 103d
00000050: f742 e4bc 11ec 03bd c0a0 bbbc 7805 af3b
00000060: 1212 b9bc 89cb 263d 8848 08bd 3276 30bd
00000070: e83b 363e 4735 1dbd 973c 8a3b 35cf aebd
00000080: f3d2 113c 4567 94bd 91b2 20be 2caf dcbc
00000090: f93f 833d 8318 49bd 7961 60bd 8965 aabe
000000a0: 4b1d bdbd 3e5b 093d 030a bbbc 3cea b2bc
000000b0: dcd0 63bd 63bf 76bd 70fc 44be 9536 99be
000000c0: 5435 ef3c 9d1c be3d 87fc d5bd 0934 b3bd
000000d0: 53f1 98bd e1a7 2b3a da92 5c3e e081 22be
000000e0: 0fc0 d2bd a839 bebd 394a 0abd f6f3 e8bc
000000f0: 3730 313c f0d7 12bd f779 c43c d3b5 0dbd
00000100: 6c56 c63d f078 72bc 8e0c 293d f854 9e3d
00000110: 16af 64bd d865 30bd 4150 37bd e37a c0bd
00000120: 53ac b1bc 6f54 3abd ee07 9a3c 85be c2bd
00000130: ba7f b1bd 6806 fcbc c6a8 093d 400c 343e
00000140: 7763 4b3c 6058 0f3d f625 16bd c558 cebd
00000150: d037 4d3d 6228 0f3d 8f69 31bd 5230 6b3e
00000160: 71ac be3d ea6c 80bc 1893 a5bc 9084 8a3d
00000170: 9540 bebc 19e5 a7bd 98af 12be afec 76bc
00000180: 0152 85bd db05 353d f297 26bd 3077 5fbd
00000190: 79ee c4bc 8113 49bc d42e dbbb d608 663d
000001a0: b0eb 6d3c 8e54 4b3e f456 923d bc62 95bc
000001b0: ba76 773e dcf2 ec3b 5284 33be 9fd1 22be
000001c0: 72b4 923d 57c7 653e 7a6d 06bc d962 7a3d
000001d0: 1f81 24bd e87a e33c 7556 0e3e 8ee1 64bc
000001e0: 5714 c73c fe2a 343d 7b2d 5d3d 3cd3 99b8
000001f0: 63f8 8c3d b40b 0abe 6730 84bd 6048 6c3d
00000200: 03ee 25bd 1d0b 083c 68e9 1f3e dab4 3c3d
00000210: a6c4 f53b 2483 1c3e 1c2f 1fbd 71e1 0fbe
00000220: a293 60bb 28bb 18bc 79d7 d3bc 7039 303d
00000230: ef69 76bd 0556 cabc c15a 57bc 0fe7 493d
00000240: 5632 19bd 533d 763d 8a47 58bd 1b16 263d
00000250: bec3 4abd f297 41bd 8f03 d5bc ee5a df3d
00000260: 86ec 433d 3b1d 83bd 5211 37be cd2f 91bc
00000270: e91d 87be f165 053d d4e7 13bd 4b1f 0cbe
00000280: c1cb a5bd 7fc4 07bc 82cd 593d 7343 06bd
00000290: c5f7 49bd 819a 00bf 2b1f 3a3c c519 0aba
000002a0: c572 143d 092c 103e 5d81 0f3d db1e efbc
000002b0: d043 20bd 444d bbbc e702 3239 b281 18bd
000002c0: c572 00bd cd1e 063d e74f 2ebe 7b90 72be
000002d0: e52d d0bd 0cf3 9bbc b101 303d 3e45 21bd
000002e0: 3f35 b1bd b713 883c 397b c3bd cdc1 b73c
000002f0: 6d3b 45bd 0264 203c 2719 39bd 41a6 573c
00000300: 56f6 1bbd c72f 3fbe f946 26bd 1f00 02bd
00000310: 94f3 1d3e a418 ae3a 34fd e7bd 62bc dc3c
00000320: e760 e03d ba77 8abe 022c 9abd 8119 e7bd
00000330: 61b2 443e 73c6 483c 0044 74bd 04cb 1f3d
00000340: b808 79be 243f 0ebd b698 c03c d0bf d7bd
00000350: 3dfd 42bd 34b1 a83c a293 00bd bc47 c73d
00000360: f031 343d c6f2 8d3d fe76 ce3d b6d0 17bd
00000370: d36d febb 3f22 4ebe dafc 303d 950b d9bd
00000380: 61c0 40be bde9 103d a52f c2bd 5a27 d73d
00000390: f6a8 b0bc 9095 61be 8096 87bb c543 d7bd
000003a0: 8e3b 4dbe 1e24 2fba 931a 4dbc fdb2 15bc
000003b0: 5d34 0a3d a059 14bd 5bed 9dbd d1b7 523c
000003c0: ce79 86bd 5515 b2bd 6b87 35be 3244 863d
000003d0: 0a81 343c 9382 8bbc 10de b6bd b2b6 08be
000003e0: f273 01bd 2449 ebbe 784f 10be aac6 55bd
000003f0: 8df9 34bc 14cd 4d3e d738 1dbe e2b9 a2bc
-0.083706655 0.035583667 -0.10581007 0.06197564 0.06866353 0.043673795 0.12891708 -0.168106
-0.008430861 -0.11424751 -0.028978229 -0.13952897 0.051825456 0.05942637 0.011470173 -0.008884103
-0.3099893 -0.040734477 0.023136593 0.035229094 -0.027863963 -0.032207552 -0.0229038 0.005341228
-0.022591624 0.04072145 -0.033272296 -0.04308147 0.1779629 -0.038380887 0.0042186487 -0.08535615
0.008900392 -0.072462596 -0.15693118 -0.026938997 0.06408686 -0.04909564 -0.054780457 -0.3328059
-0.09234103 0.03353428 -0.022831922 -0.021840207 -0.055619106 -0.060241114 -0.19236922 -0.29924455
0.029200234 0.09282801 -0.104485564 -0.08750159 -0.07467904 0.0006548148 0.21540394 -0.15869856
-0.102905385 -0.09288341 -0.03376219 -0.028436642 0.010814718 -0.035850465 0.023983939 -0.03459723
0.096844524 -0.014799342 0.04127174 0.0773105 -0.055831037 -0.043065876 -0.04475427 -0.09398439
-0.021688616 -0.04549068 0.01880261 -0.09508995 -0.0866694 -0.030764773 0.03360822 0.17582798
0.012413851 0.03499639 -0.036657296 -0.10075525 0.050102055 0.03495062 -0.04331356 0.22967651
0.09310234 -0.015676934 -0.020211741 0.067635655 -0.023224154 -0.08197994 -0.14324796 -0.015071078
-0.06509782 0.044195037 -0.04067225 -0.054557025 -0.024039494 -0.0122727165 -0.006688932 0.05616077
0.014521524 0.19856474 0.07145491 -0.018235557 0.24166384 0.0072310995 -0.17530945 -0.15900277
0.071633235 0.22439323 -0.008204812 0.061129425 -0.040162202 0.027768567 0.13900168 -0.013969792
0.024301691 0.043986313 0.05399845 -7.334954e-05 0.068833135 -0.13481027 -0.064545445 0.05768621
-0.04051019 0.008303431 0.15616381 0.04607091 0.007500249 0.15284401 -0.038863286 -0.14050843
-0.0034267684 -0.009321965 -0.025859581 0.043023527 -0.06015962 -0.02469922 -0.013144196 0.04929262
-0.03740152 0.060117077 -0.0528026 0.040548425 -0.04950308 -0.047264047 -0.026002673 0.10906015
0.04783299 -0.0640206 -0.17877701 -0.017722989 -0.26390007 0.032567922 -0.03610976 -0.13683812
-0.080955036 -0.008286594 0.053174503 -0.03277917 -0.049308557 -0.50235754 0.01135997 -0.0005268122
0.036242265 0.14079298 0.03503548 -0.029189518 -0.03912717 -0.022863992 0.00016976484 -0.037233062
-0.031359453 0.032744218 -0.17022668 -0.23687927 -0.10165004 -0.019036792 0.042970363 -0.039372675
-0.08652734 0.016610963 -0.09544987 0.022431279 -0.048152376 0.009789469 -0.045190003 0.013162197
-0.03807672 -0.1867057 -0.04059503 -0.031738397 0.15424949 0.001328249 -0.113275915 0.026945297
0.10955983 -0.2704447 -0.07527925 -0.11284161 0.19208671 0.012254345 -0.059635162 0.03901197
-0.24319732 -0.034728184 0.023510318 -0.10534632 -0.047604788 0.02059231 -0.031390794 0.09730479
0.043992937 0.06931071 0.1008129 -0.037064277 -0.007764557 -0.20130251 0.043209888 -0.10597912
-0.18823387 0.03537916 -0.09481744 0.105055526 -0.021564942 -0.2202971 -0.004137814 -0.10510973
-0.2004225 -0.0006681102 -0.012518543 -0.009136912 0.033741344 -0.036218286 -0.077112876 0.012861208
-0.06566201 -0.08695475 -0.17727439 0.06555976 0.011017093 -0.017030036 -0.08929074 -0.13350943
-0.031604715 -0.4595424 -0.14092815 -0.052191414 -0.011045826 0.20097762 -0.15353714 -0.019864026

bn1.running_mean f4 [256]
00000000: 84e3 8fbf 63ee 07be f719 ebbf 3e33 5ec0
00000010: a5df 8dc0 2b4e 3d3f 087e 8a41 b3a1 9a40
00000020: 6f5a 1041 7f75 adc0 c678 a140 cbdd d540
00000030: b6f6 b140 d8be afc0 8116 9441 6831 3b40
00000040: 4851 9ac1 12eb 45c0 8cbe 12c1 b526 dc3f
00000050: 2b2d f4bf a999 16c2 8d2b ed40 e014 cf3f
00000060: b777 13c1 dd40 0cc1 16f2 2ac1 d155 9bc1
00000070: 7a12 c340 a41c 59be 99e5 c33f 555f 23c1
00000080: 9a09 23c2 fc0e e73f 8171 b440 631c e540
00000090: 622d 0b42 080c 74be 6d44 a53f 7080 9f40
000000a0: 4145 adc1 8fc6 b3be f953 3cc1 79e8 1c41
000000b0: 4514 e0c1 a08a 6141 279c fbc0 2339 9e3f
000000c0: 14fb 2140 0227 3841 d871 9241 5d28 6d41
000000d0: 3377 a1bd c89f eb40 e394 fe40 ece0 0b42
000000e0: 65b8 b83f a4eb 5f41 dc86 0ac1 c78e 80c0
000000f0: 534f 02c1 ea90 f9c0 3ee5 29c1 7629 e43f
00000100: 5956 9d41 97aa ed40 6d47 6d3f 536d 5a41
00000110: 9ed0 c83f 0d8a 763f 6445 e5c0 ec50 cdbf
00000120: 5b3d ebc1 1117 e93e f060 ff40 071c ccc0
00000130: 0f37 d93e 8ce0 c93f 6eb7 c1c0 0b62 ebc0
00000140: 52d3 3bc1 76f1 d23f 73cf 6b40 cf3c 753f
00000150: 0c00 e340 5f1a ae3f 47b8 af40 c701 bcbf
00000160: 9416 d341 5e03 0741 825f ff41 6669 ce41
00000170: 184e a13f 8193 4cc1 b8fa 9040 99bc bb41
00000180: 8cc1 d6c0 0545 0bc0 3bee da40 2fdd a33f
00000190: 6fa8 94c0 e5aa 7341 cd6f 1c40 862a 0042
000001a0: 18fd 37be 6c33 9a40 d359 45c1 d82f 31c0
000001b0: 21bd dc40 4f81 55c0 610e 2d40 6b44 5341
000001c0: 0baf 09c1 ec39 3940 b301 1dc1 921d d940
000001d0: c964 1fbf 2287 9cc0 8fd4 86c0 ee10 2bc1
000001e0: 585c 0fc1 4b8d e7c0 4858 88c0 f634 03c1
000001f0: 6529 8d40 ca83 80c1 1656 9ebe ffe8 ad40
00000200: c8cb e4c0 bc3e 0e41 197c d940 a279 8e40
00000210: 5298 8abf 4f6b 9a41 086e 1a41 8dd3 67c1
00000220: 0356 1bc0 9846 adc0 b16e cdbf 6b61 f7be
00000230: 145e b6c0 c4ae 1541 3952 b140 eadd 9b40
00000240: 03a8 923f e631 c040 62fe 1940 40d7 c9bf
00000250: 665a e740 508d 0ec0 22b8 6bc0 5f8c 4040
00000260: eeee 0ac0 b1b0 18c0 5d9a 9341 96bc 98c0
00000270: 1c9c 94c1 6f07 bfc0 d88a d7c0 1428 5241
00000280: 090e 1d41 809c 7cc1 b79c 8cc0 c1c4 2ac1
00000290: bfd4 a8c0 a793 2cbe e06c 5c41 fab8 7a40
000002a0: 378e b4be 7edf 4141 1d7e e4c0 19ba cebf
000002b0: 117e bac1 70e3 a1c0 2b16 b8c0 e623 e0c0
000002c0: 6abb a63f e1d0 b33f a81f 7141 c972 c33f
000002d0: ba94 1f40 c9ab 2541 011a c7bf 01ea 0541
000002e0: 83bd 9f40 6471 13c1 646a 0241 b7ee b5c0
000002f0: be18 ccbf 5bc1 d23e 3278 3e40 3322 8240
00000300: ad8d 8540 8100 05c1 4677 973e 222d 8a40
00000310: d3f7 12c1 3e57 8dc0 e93a 9340 d390 3cc0
00000320: 52bb 0042 f376 42be b5a5 9140 9727 a340
00000330: cd27 0641 9b4e 1440 0866 25c1 da20 aec1
00000340: 1925 d540 3cec 39c0 9e4f 2d40 9d03 d0bf
00000350: f909 2e40 f784 aabf fa4e 02c1 d057 8741
00000360: d2df b340 a514 2640 003a 29c0 fdf4 12c1
00000370: 40dc f3c0 c749 6d40 c78f e13f 9a59 1841
00000380: fd2d a841 fa4c f43e 9247 56c1 fcdf 1a3f
00000390: a988 16c1 45ca 2c40 7610 a53f 695c 7fbf
000003a0: f25e 7741 d81d 56c1 3454 4740 3584 8140
000003b0: bf29 74c1 dadb c9bd e7a6 d6c1 01fb a940
000003c0: a9f7 0ac1 e20f 4341 0f5d 8ac1 cb8b b540
000003d0: 2732 8740 05e9 9bc1 db94 ac40 d081 2541
000003e0: 8659 b5c0 c822 0cc1 ddbd 4941 6e57 bec0
000003f0: b0d6 e4bf 7019 0d41 a6fe 9840 21c6 fdc0
-1.1241307 -0.13274531 -1.8367299 -3.4718776 -4.4335504 0.739474 17.311539 4.8322387
9.0220785 -5.420593 5.045993 6.6833243 5.561366 -5.4920464 18.510988 2.9248905
-19.289688 -3.0924726 -9.17152 1.7199312 -1.9076284 -37.65006 7.4115663 1.6178246
-9.216727 -8.765836 -10.684103 -19.416903 6.0960054 -0.21202332 1.5304443 -10.210774
-40.759377 1.8051448 5.6388555 7.159715 34.79432 -0.23832715 1.2911507 4.9844284
-21.658815 -0.35112426 -11.770501 9.806756 -28.009897 14.096344 -7.8628116 1.2361187
2.5309496 11.509523 18.305588 14.822354 -0.078840636 7.3632545 7.9556746 34.96965
1.4431273 13.995029 -8.657925 -4.017429 -8.144366 -7.7989397 -10.618467 1.7825153
19.667162 7.427074 0.9268711 13.6516905 1.5688665 0.963044 -7.1647205 -1.604032
-29.404959 0.4552541 7.980583 -6.3784213 0.4242482 1.5771651 -6.0536413 -7.355718
-11.739092 1.6479938 3.6845367 0.9579591 7.0937557 1.3601798 5.491245 -1.4688042
26.386024 8.438322 31.921635 25.801464 1.2601957 -12.786012 4.5306053 23.467089
-6.7111263 -2.1760876 6.841581 1.2801875 -4.6455607 15.229222 2.4443238 32.041527
-0.17967641 4.818777 -12.33443 -2.7685452 6.898087 -3.3360174 2.7040026 13.204204
-8.605235 2.8941603 -9.812915 6.7848597 -0.6226316 -4.8914957 -4.213447 -10.691633
-8.960045 -7.2359977 -4.2607765 -8.20043 4.411303 -16.06435 -0.30925053 5.434692
-7.1498756 8.890316 6.7963986 4.4523478 -1.0827734 19.302397 9.651863 -14.489148
-2.4271247 -5.4148674 -1.6049405 -0.48316512 -5.698984 9.355167 5.541287 4.870839
1.1457523 6.006091 2.4061513 -1.5768814 7.229785 -2.227375 -3.6831136 3.0085676
-2.170833 -2.3857844 18.450373 -4.7730207 -18.576225 -5.9696574 -6.7356987 13.134785
9.815927 -15.788208 -4.39413 -10.673036 -5.27597 -0.168532 13.776581 3.91754
-0.3526475 12.1170635 -7.1403947 -1.6150542 -23.311556 -5.0590134 -5.752706 -7.004382
1.3025944 1.404812 15.070229 1.5269405 2.4934525 10.35444 -1.5554811 8.36963
4.9918838 -9.215183 8.150974 -5.68539 -1.5945051 0.41163144 2.9760861 4.0666747
4.1735444 -8.312623 0.29583186 4.3180094 -9.185504 -4.4168997 4.600941 -2.9463394
32.18293 -0.18990688 4.551478 5.0985827 8.384717 2.3172977 -10.33741 -21.76604
6.6607785 -2.9050436 2.7079844 -1.6251103 2.7193587 -1.3321828 -8.144281 16.917877
5.621072 2.59501 -2.644165 -9.184812 -7.620636 3.707628 1.7622002 9.521875
21.022455 0.47714978 -13.392473 0.60498023 -9.408364 2.6998456 1.2895648 -0.9975038
15.46068 -13.382286 3.1145144 4.0473886 -15.260192 -0.098563865 -26.831495 5.31189
-8.685464 12.191378 -17.295439 5.6733146 4.224872 -19.48878 5.393171 10.3441925
-5.667178 -8.7584915 12.608853 -5.9481726 -1.7878017 8.81871 4.781085 -7.9304357
