input/model/ANN_reply_dan_not_gan.pth (torch, 225575 bytes, 19 tensors)

fc1.weight f4 [256, 44]
00000000: 9d35 103c ae6a 62be a051 e9bc 6abb 96bc
00000010: b8bb 9abd 120e 95be ad76 113e 0ac8 643e
00000020: 1071 213d 8d82 d43c d0c2 cfbd d324 71bd
00000030: a124 303e f6d5 68bc 4683 c23d 7798 0ebd
00000040: 6882 82bc e5f1 b53e 40e1 cebe 0c8c 933d
00000050: 956f 01be 6071 8cbd fc8a f5bd ec7d fe3c
00000060: dddb db3a 70e3 813e 7232 2bbd dfa0 123c
00000070: f153 52be b460 05be ed0a b63d 26a6 4bbe
00000080: 24ab bbbe 1695 603e 9794 ddbe 6cbc 223e
00000090: 6823 9cbd 68b6 8b3d e56f 5cbe 0ad0 14bc
000000a0: 419a 743e c011 4bbd f539 413d 49c5 d9bd
000000b0: cf2f 30be 6cee db3c a5b5 edbe fb44 483c
000000c0: 6177 8fbb b9a4 273e bdc1 3c3e fccb 2d3e
000000d0: 3ced 093c 2f4d 353e b767 cb3d db3a 4cbe
000000e0: 256e b1bd f260 63be 17d0 38bd 2d49 55bc
000000f0: 433d 8a3e 0dbe a8be 1469 8c3e f8f4 a6bd
00000100: be21 07be 05a2 92be fffe 12bd cc56 3d3e
00000110: 121b b03e 0487 fdbd e253 8e3d d93a 16be
00000120: cce4 2d3d 94a9 b63d 8aeb b8be 9b6b 03bf
00000130: d0c0 433e 055b 84bd 7444 59be ad8e ad3e
00000140: 7324 93bc a670 ae3d 63e4 993e 5946 85be
00000150: 655a dcbc 1678 2b3e 617d c33d 2513 193c
00000160: e44c 163d 1696 153c be5f 01be 02b0 53be
00000170: afbd 813b 29d4 a0be 11ef 8c3e 644a 5dbe
00000180: 7292 51be d83d 273f 0366 473e 0f95 4a3e
00000190: d8d2 cc3e a007 913b c6cf 95be 2fbc 8d3c
000001a0: 5e48 383f 5dbc 093e b34b 35be b83e 70bd
000001b0: 9647 b23d 3f3d 2dbe f22f 1c3e a78f f0be
000001c0: 7f5a b83d 84fd c33d adc1 dbbc 4cda c0bd
000001d0: 5d9e 77be 1cbb b9bc c75e 48bf a2b2 02be
000001e0: b520 5fbd 49b2 873e f8f7 1f3f fe60 00be
000001f0: e25d e53e c846 70bc e3e0 96bd 3076 173e
00000200: 8c4c fcbc a244 203d c6a6 803e 5d4d f03d
00000210: aafd ecbc b641 d03d 85b6 fc3d f261 183d
00000220: b207 a13e 6663 b7be 37e1 eebe 6145 593f
00000230: c8a1 c3bc 7e53 e23e ee71 c4bd 715d 033f
00000240: aaf8 983e 922e 94be 2b8f 503d 29e1 a63c
00000250: 6873 7c3f 5749 c83f 84c6 d6bf bb76 b6be
00000260: 8912 023f 1732 7abf e0e2 b4bb 58e6 a03c
00000270: 8114 c73e c0b3 503f 2225 d83e 510c 2abf
00000280: a918 38bf 0801 a53d 6d2d c13e 75c7 21bf
00000290: dc3c bfbe 5dc4 3c3f 0022 0c3f b733 353d
000002a0: a7b8 d1bd 3e58 85bf d299 67bd c80f 5b3f
000002b0: 53e2 80bf ab48 07bf 7058 553f ba52 0ebe
000002c0: 848a 013e 5243 2f3e 38e4 b7bd c8c4 d3be
000002d0: 35bd 133f a324 963f 8a99 83bd b9b9 34bf
000002e0: c5f5 293f 5ef5 f93c 0c9d a63e 19fd 23be
000002f0: fcef 9dbf 119c d73d 5fb9 c6bd f717 163c
00000300: 9c89 8f3d e6c9 6c3e 0bac 63be 149d 75be
00000310: 1e21 1dbf 61ae 283d c709 38bb 8e55 9e3c
00000320: e4de bebd 46b8 983e da7f bf3e 1a8c 20bf
00000330: 4225 52bf 1935 c73e 0f56 1dbf b037 08bf
00000340: 7677 06bf 6a2a c039 556b 6f3e 51c3 60be
00000350: 15fc 93b9 45ce 21bf 596f 973e d08e f4be
00000360: eca2 c2be a674 11bf 5653 e53e 6956 6a3e
00000370: 8d42 47bd a870 6b3d ca52 773d 34a3 babd
00000380: 11f9 84bd c859 ab3e 6c6c d5ba d167 923c
00000390: a920 693e 0696 843d 9c54 3f3d e7e2 50bd
000003a0: 6f7e babe 5535 1dbd 57ef b3bd 3600 babd
000003b0: 75cf 8c3c 54e4 bb3d 56f6 61bd 6c3d 43be
000003c0: 6368 8a39 5bfe d93e 8492 05be 8111 adbe
000003d0: 4368 25be 7700 6c3e b2cd 6dbd 49c2 b9bd
000003e0: c67d 8cbe 4461 b5bd 318b dc3c 15a3 4ebd
000003f0: 973d 03be 4ada 953e fc29 a03d b427 153e
0.008801845 -0.22111008 -0.028481305 -0.018399913 -0.07555336 -0.29112297 0.14205427 0.22341934
0.039414465 0.025941158 -0.101445794 -0.05887301 0.17201473 -0.0142111685 0.09497695 -0.03481337
-0.015931323 0.35536113 -0.40406227 0.07204446 -0.12640221 -0.06857562 -0.119894 0.031065904
0.0016773898 0.25368834 -0.041796155 0.0089494875 -0.20539834 -0.1302517 0.08888803 -0.198876
-0.36654007 0.21931872 -0.43277428 0.1589219 -0.07623941 0.068219006 -0.2152706 -0.0090828035
0.23886968 -0.049577475 0.047174413 -0.10633332 -0.17205738 0.026847087 -0.46427646 0.0122234775
-0.0043782447 0.1637143 0.1843328 0.16972345 0.0084183775 0.17705224 0.099318914 -0.19944327
-0.086635865 -0.2220495 -0.045120325 -0.013017935 0.26999864 -0.32957497 0.27423918 -0.08152193
-0.13196465 -0.28639236 -0.035887714 0.18490142 0.34395653 -0.12379268 0.06949593 -0.14670886
0.042454526 0.08919063 -0.36117202 -0.5133607 0.19116521 -0.06462673 -0.21217519 0.33897915
-0.017961716 0.0851758 0.30057058 -0.26030234 -0.026898572 0.16745028 0.095453985 0.009342943
0.036694422 0.009130022 -0.12634179 -0.2067261 0.0039593796 -0.31411865 0.27526143 -0.21610409
-0.2046602 0.6532874 0.19472508 0.19783424 0.4000461 0.004425958 -0.2926008 0.017301647
0.71985424 0.13450761 -0.17704658 -0.058653563 0.0870506 -0.16917895 0.15252665 -0.46984598
0.09001636 0.09569839 -0.02682575 -0.09416637 -0.24181505 -0.022672229 -0.7826962 -0.12763456
-0.05447455 0.26503208 0.62487745 -0.12537 0.4479819 -0.014665313 -0.073671125 0.14791179
-0.03079822 0.039127953 0.25127238 0.11733506 -0.02892955 0.10168783 0.123395 0.037202783
0.31451184 -0.35818022 -0.466562 0.8487149 -0.023880854 0.44204324 -0.09592043 0.51314455
0.29877216 -0.2894178 0.050917786 0.020371037 0.98613596 1.5647382 -1.6779332 -0.3563746
0.5080953 -0.9773268 -0.0055202097 0.019641086 0.3888283 0.81524277 0.4221583 -0.66425043
-0.7191263 0.08056837 0.3772997 -0.6319497 -0.3735112 0.73737127 0.5473938 0.044238772
-0.10240298 -1.0417554 -0.05654318 0.85570955 -1.0069069 -0.5284526 0.8333807 -0.13898745
0.12650496 0.17115524 -0.08979076 -0.4136107 0.5771058 1.1729931 -0.064257696 -0.7059589
0.6639064 0.030512508 0.32541692 -0.16014518 -1.2338862 0.10527814 -0.097033255 0.009160987
0.07008669 0.23123893 -0.22233598 -0.23985702 -0.6137866 0.041181926 -0.0028082 0.019327905
-0.09319857 0.2982809 0.3740223 -0.6271378 -0.820881 0.38907698 -0.6145944 -0.5320997
-0.5252603 0.00036652695 0.23380788 -0.21949507 -0.0002822584 -0.6320537 0.2957714 -0.47765207
-0.38014925 -0.56818616 0.44790143 0.22884525 -0.048647452 0.057480484 0.06038169 -0.0911316
-0.06492818 0.33466935 -0.0016282923 0.01787177 0.22766365 0.06473927 0.04671155 -0.05099764
-0.36424586 -0.03838094 -0.08785885 -0.090820715 0.017188767 0.091744095 -0.055166565 -0.190664
0.00026399185 0.4257687 -0.13044173 -0.33802417 -0.16153054 0.23047052 -0.058057494 -0.0907026
-0.27439708 -0.088564426 0.02692184 -0.050448496 -0.12816463 0.29268104 0.07820508 0.14565927

fc1.bias f4 [256]
00000000: 9da3 f73d 7749 543e 83db c0bd fb7d efbb
00000010: a767 09be 2b92 383d 72eb a1bb 4e24 20be
00000020: ea9b 0c3e 0a4b b7bd 2992 2bbe f88e 72bc
00000030: 1f9a 0e3e a238 adbd 8990 843e b95a 903c
00000040: beba 14be 6d5a 093e 6809 0abd b4fb 26bd
00000050: 7b63 03be 0039 a6bd 3770 973b 7d6e a0bc
00000060: 60cf eb3d e76c abbd c3f0 1d3d 6b32 453d
00000070: 9def 05bd 2c99 09bc 6b2b 2e3e 9a44 00be
00000080: 8728 ae3c 9a6a 05be e1d0 cabd 0358 8c3d
00000090: 1c08 aabd e7e2 b3bd aceb 123e f2e4 98bd
000000a0: d993 e13c f77f 9e3d dff0 263d 416e 8bbc
000000b0: a44c 343c de46 a3bb f636 4abe 66e9 dcbd
000000c0: d92e 7abd 3ca9 ba3d 583b 93bd a895 a23d
000000d0: aef6 f43d 736e b4bd 9016 2b3e 50b8 cb3d
000000e0: 1897 38be 2d71 11bc 495e a0bd c9b2 113d
000000f0: 7351 a53d 00dc e7bd 2a6d ebbd d21d d1bd
00000100: a163 e3bd 4120 12bd 327e 71bd ffa5 e03d
00000110: 7b73 c8ba 03de f8bd 90cb 063e 1328 f03d
00000120: 6314 ab3d faed 3dbb 7b74 303d 3b77 f9bb
00000130: 0e54 b83d 6f37 3b3c 7bc3 013d 9fc3 b93d
00000140: bf96 38bc 568d 3f3c d2c9 cabd 57ab bf3d
00000150: 3f4b bcbc 013a 81bc dbe5 ec3d ee89 1d3e
00000160: 0447 9cbd e3e4 333d c947 153d 17b0 d83d
00000170: cbe6 b53d b5f7 c73c b21b 42bd e904 b33c
00000180: f495 37bc e624 ebbc 006d e0bd 581c f3bc
00000190: 0436 c43d 5b1b ce3d 35e8 4c3d d868 273e
000001a0: 1bca b5bc 5b44 683d 8136 36bd 0ffe 8dbb
000001b0: 7c5e 92bd 68bd 0dbe 87e0 973b ac58 303c
000001c0: 2cda 97bd f5a7 4abc 1659 4e3d 98d3 ccbb
000001d0: b89a 793c 7a15 043d c743 d03c d509 66bc
000001e0: 7946 c2bd ca6d babd 4db2 14bd b32b 2d3e
000001f0: 9177 01be b45d c5bd 8e85 afbd 5ad9 71be
00000200: 4b06 1bbd 8104 8c3e 6971 f0bd fb47 4a3c
00000210: 5ace 1b3e 211f d5bd 6f45 0c3e a147 97bc
00000220: 6044 ee3c ae98 c9bd 5b44 ccbd 0500 e63c
00000230: 48aa 15bd e7e0 a33d 9dd7 c93d 995d 73bd
00000240: 94ab 57bc af94 7abd 3c8d c13d 6f96 d4bd
00000250: 6945 853b d3bd 60bd c5eb 95bd 9c17 19be
00000260: 62aa d9bd 6db6 06be 5c37 fabd 4a74 d6bd
00000270: 246e 9b3d 884e 1cbe 6a47 083e 1f9f b9bd
00000280: 67f3 0a3e 6f18 e23c 9930 f1bd 4211 203d
00000290: 82ef e53d d392 ae3d 0aa4 d53d 07ed 5b3d
000002a0: d3cb ae3b b309 a83d dacc 483d 77e4 bb3c
000002b0: 0bc5 f83d d7a4 d7bb e49b 2ebc 40aa dabd
000002c0: 1fcf fa3d 3121 9ebd 6a4d d53b 2b2f 02be
000002d0: 6ae7 02bd add4 4bbd d3be d73d fb8c c3bd
000002e0: 8f58 d53d 183d 9a3d 78b1 6ebd 7190 a63d
000002f0: 541e 373e 093b adbc 6477 36be 1111 4e3e
00000300: 915b 5abd 9f2f 4fbd d0d9 0f3e 8380 a43d
00000310: 66b4 c83d 3948 f2bd eed7 4dbc 4451 8d3d
00000320: a032 2cbd 03ff ec3d 9497 403d 7c3a 083e
00000330: e209 1c3d e960 863c 9841 3cbe d264 75be
00000340: 178a 7fbd 467a dd3d f923 5ebd 0031 3b3e
00000350: 38fc f83d 1197 efbd 6986 cf3d 78fb 13be
00000360: 3bdc 33be dccc c2bc 7b16 2cbd a372 14be
00000370: 120a 553e 26f1 a63d 4253 a93b 4ef9 0abd
00000380: 7409 16bc c0d5 f63c 69ff 12bd 13eb 793e
00000390: ec0e 35bc f757 1dbd 48cf d53d 33ff 5dbd
000003a0: 8e97 eb3d 2f05 273d 91e8 fcbd 269a 28bc
000003b0: 7d26 ea3d f7c8 87bc f4ed 06be 71f4 b3bd
000003c0: 7763 093e ae64 04be 14d5 1dbe 7492 913d
000003d0: f9d1 fdbd ec0c 2a3e 0ee8 633d fd5a 313e
000003e0: e91c 76bd af44 f1bd 4f77 a2bd 99ec 87bd
000003f0: 25c6 533c 56ba 463d b670 2abd 9ffb 143e
0.12091754 0.2073115 -0.094168685 -0.007308719 -0.13418446 0.04506127 -0.0049413973 -0.15638849
0.13731351 -0.089498594 -0.16754974 -0.014804594 0.1392598 -0.084580675 0.25891522 0.017621385
-0.14524361 0.13413401 -0.033700377 -0.040767387 -0.12830918 -0.08116341 0.0046215313 -0.019583935
0.11514163 -0.08370381 0.038559686 0.048143785 -0.032699216 -0.008398335 0.1700875 -0.1252617
0.02125956 -0.13028947 -0.09903122 0.068527244 -0.08302328 -0.087835126 0.14347714 -0.07465543
0.02753632 0.07739251 0.040757056 -0.017020347 0.011004601 -0.0049828133 -0.19747528 -0.10786705
-0.061079834 0.0911431 -0.07189053 0.07938701 0.11961113 -0.08810129 0.16707826 0.09947264
-0.18026388 -0.008877081 -0.078304835 0.035570893 0.08072176 -0.113212585 -0.11495431 -0.10210766
-0.11102987 -0.03567529 -0.05895824 0.10969161 -0.0015293205 -0.121517204 0.1316359 0.117263936
0.08353498 -0.0028980956 0.043079834 -0.0076130903 0.09000407 0.011426791 0.031680565 0.09070515
-0.011266409 0.011691412 -0.099017754 0.09358852 -0.022985099 -0.015774729 0.11567279 0.15384647
-0.07630733 0.043919455 0.036445413 0.105804615 0.08881911 0.024410108 -0.047389694 0.021852927
-0.011205185 -0.028704118 -0.1095829 -0.029676601 0.09580615 0.100638114 0.050026137 0.16348588
-0.022191098 0.056705814 -0.044485573 -0.0043332647 -0.07146928 -0.13841784 0.00463492 0.0107633285
-0.0741466 -0.012369146 0.050377928 -0.00625081 0.015234642 0.032247044 0.025422944 -0.01404043
-0.09486098 -0.09102972 -0.036302853 0.16911201 -0.12643267 -0.09637013 -0.085703954 -0.2361807
-0.0378478 0.27347186 -0.11740381 0.012346263 0.15215436 -0.10406328 0.13698362 -0.018466773
0.029085338 -0.098435745 -0.09973975 0.028076181 -0.036539346 0.08001881 0.09855578 -0.059415434
-0.013163466 -0.061176952 0.094507664 -0.103802554 0.004067112 -0.05486853 -0.0732036 -0.14950413
-0.10628201 -0.13155527 -0.1221759 -0.10471399 0.07589367 -0.15264332 0.13308492 -0.09063553
0.13569413 0.027599541 -0.117768474 0.03907896 0.11227323 0.08524098 0.104316786 0.053692844
0.0053343563 0.08204975 0.049023487 0.022936089 0.12146958 -0.0065809297 -0.010657284 -0.10677004
0.122465365 -0.077211745 0.0065094726 -0.12713306 -0.031958975 -0.04976337 0.10534444 -0.09548374
0.10417282 0.07531184 -0.058274716 0.08133019 0.17882663 -0.021146314 -0.17818981 0.20123698
-0.05330998 -0.050582524 0.14047933 0.08032324 0.09800033 -0.11830182 -0.012563689 0.06900266
-0.042040467 0.11572077 0.047019556 0.1330356 0.038095362 0.016403632 -0.18384397 -0.23964241
-0.062387552 0.108143374 -0.054233525 0.18280411 0.12157482 -0.116987355 0.101330586 -0.14451396
-0.1756448 -0.023779325 -0.042013627 -0.14496855 0.20804623 0.08151464 0.005167396 -0.03392916
-0.009157527 0.03013122 -0.03588811 0.2440608 -0.011050921 -0.038413968 0.104399264 -0.054198455
0.11503516 0.040776428 -0.12349046 -0.010290658 0.11433122 -0.01657532 -0.1317671 -0.08786858
0.13416849 -0.12929031 -0.15413314 0.07108012 -0.12393565 0.16606492 0.055641226 0.17319866
-0.060086165 -0.117806785 -0.079329126 -0.06636924 0.012925659 0.048517548 -0.041611396 0.14549111

fc2.weight f4 [128, 256]
00000000: 2406 dcb9 377b 723d f1f7 1b3d 5169 313d
00000010: 0ea9 71ba 0425 19bd cf8d 74bd fd4b c5bc
00000020: 314c 6f3d 6223 66bc 01cf bd3c 8985 94be
00000030: 1a26 ef3d ca3e 5fbd b130 403d 72f7 063d
00000040: f14a 08bc 79b9 e13c 2ca5 c9bb c32e 19be
00000050: 81f2 1ebb d85e 59bd 10b2 a4bc 1a51 05bd
00000060: f8fb 413d 471d 8dbd 8002 11bd b80f 5bbd
00000070: c8c6 383e f8e4 2abd 1b4d 6c3e 2b98 90bc
00000080: 2579 eabd d913 72be 3607 e5bd 21d0 1d3d
00000090: d0e6 4d3c 3094 c9bd 2e55 52bd 91cd a0bc
000000a0: bb98 433d e89c 0e3e 3bb9 d13e fc69 74bc
000000b0: dbed 593c e8e4 3cbd ab40 ac3e 7f4d 233e
000000c0: fb22 d73c 8edb 80bd 7f7a cd3d 177e 71bd
000000d0: 15cb 16bd 23b9 07be 54c8 74bc 39f0 0abd
000000e0: 0349 3ebe fe19 633e 95ec cf3c 917d 29bd
000000f0: db38 39bd 5371 3dbd fed7 eb3c 42b3 153d
00000100: 87ab 883d 55c5 43be 3b94 983c 6dc4 a2bd
00000110: 31dd 093d 45bb 20bd 7319 553d 6e8e 80bd
00000120: a238 1bbe 1333 9dbd fd27 91bd f3bb 86bd
00000130: 3c09 69bd 799f 21bd a706 8e3c 0ce7 ab3c
00000140: 37ed 63bd bd7e 033d 4c42 ab3b 67c4 053d
00000150: 031f 06be bcf9 72be c32b 893d b59d 04be
00000160: 5fcf 00be a47d e8bc fbcd 78bd f1a2 9dbc
00000170: 30da 2ebe 7418 97bb 5842 62be 4132 d73d
00000180: 97fd 66bc 8837 8abd 9bf2 dcbb e51f 403d
00000190: d521 073e 4358 4cbd f371 6dbd 4ddf 2e3d
000001a0: 8493 813d d89e 223b 189c 4cbc 10ce 3abd
000001b0: e814 3b3d 2b69 b3bc 7ce0 8c3d 8aaa e6bd
000001c0: 7c54 71bd 15b3 f9bc e3ff 02bc 2a4a 70bd
000001d0: 1b3b a4be 6624 e93d 4d17 0dbc 6edc a4bd
000001e0: 13d8 b73c ebd3 ddbd a4f3 ddbc dfa3 903b
000001f0: 8e99 fabd b8a9 a2bd ae33 84bd ab78 4a3e
00000200: 13a5 41ba ad6d 69bc df3a 1dbc a891 563d
00000210: ade6 813c ed4e 74bd 9716 763c 4c0c b7bd
00000220: 8c7e 1f3c 5d0f a5be 94a8 103c 80e6 46bc
00000230: 83a1 5a3d 832b 07bc 7123 c13c 2e65 f83c
00000240: 5d33 4e3c 5024 c43d b7bc 2fbe 0cc8 3dbc
00000250: 1988 cd3b 26cb 0fbd 4471 733c f099 3f3c
00000260: abe2 03be 8de6 28bd 11c8 b7bc 0aa2 42be
00000270: dce8 8bbe 117f b93d 021d 07be 3982 163d
00000280: 590b 863c cb27 6fbd 0c74 64bd a536 23bd
00000290: 092b 92bc 95f3 c6bd c612 dabc 990a 463e
000002a0: 9065 543b f172 06be f82a a1bd 5c9c e9bc
000002b0: 40a2 b7bc 5a07 cabc dcbd e7bd 9ec1 4bbe
000002c0: 1089 8fbd bbab 1e3d bd39 383d 4649 91bd
000002d0: 83e7 de3d dd47 07be 6e58 9f3c 7dde 97bc
000002e0: 85f3 da3c d95d 9bbe b608 f6bc 1384 023d
000002f0: cc99 3bbe 16f8 78bd a59d abbd 61b7 b6bd
00000300: c198 6e3d ef21 6abd faf1 14be 3b0f 0fbd
00000310: 9838 013e ef50 583d 2dd4 003e d0ac b8bc
00000320: e6b2 3b3d b685 56bd e1e5 b7bb 1e72 c43c
00000330: 91d9 a53c 4cb6 bf3c ba3c 753c 90a6 adbd
00000340: 4a8b d7b8 9d5f 093d e439 193e 5876 263d
00000350: 136c 3c3d e555 313d 604a 1cbe e91f 5fbb
00000360: d74a d33c b6a2 cbbd c256 e03c 6f5c 1bbd
00000370: 22d4 343c ca0e 3cbe a88a cabd 4d15 1bbe
00000380: d0a9 00be c855 4abd 4da9 10bd 23f4 44be
00000390: b091 b0bd 1f25 e2bd a34d 7c3d 2998 59bd
000003a0: 7da2 34bd 4d68 65bd 5a03 84bc fff5 a6bb
000003b0: 4987 39be e968 1a3c 57ff 653d 1520 953c
000003c0: 2181 95bd b4d5 bc3a 2531 a8bd 0682 3ebd
000003d0: dea2 a0be 479f dbbd 6540 f0bb 0158 423e
000003e0: 6942 df3b d052 5b3d 97f5 e1bd 012d fa3c
000003f0: ee85 afbd d0e2 3cbd ef32 2bbe e0be 2ebd
-0.00041966245 0.059199538 0.038078252 0.04331333 -0.00092186115 -0.037388816 -0.05970555 -0.024084086
0.05842227 -0.014046522 0.023169996 -0.2900813 0.11677189 -0.05450324 0.046921436 0.032950826
-0.008318649 0.02755426 -0.006153723 -0.14959244 -0.002425343 -0.053068966 -0.020104438 -0.032548048
0.047359437 -0.0689035 -0.035402775 -0.053481787 0.18044579 -0.041722268 0.23076288 -0.017650684
-0.11448888 -0.23640384 -0.11183016 0.038528565 0.012567237 -0.09842718 -0.051350765 -0.019629272
0.047753077 0.13927042 0.40961632 -0.014917847 0.013301338 -0.04611674 0.33643088 0.15947531
0.026261797 -0.06291877 0.1003313 -0.05895814 -0.036814768 -0.13254218 -0.01494034 -0.0339205
-0.1858254 0.22177884 0.025381366 -0.041379515 -0.045220237 -0.046250653 0.028789517 0.036547907
0.06673341 -0.19118245 0.01862537 -0.079476215 0.03365821 -0.039241094 0.052026223 -0.06277166
-0.15158322 -0.07675757 -0.07087705 -0.06578817 -0.056893572 -0.039458726 0.017337156 0.020984195
-0.055646148 0.03210329 0.005226409 0.032658007 -0.13097768 -0.23728079 0.066978 -0.12950785
-0.12579106 -0.028380223 -0.060743313 -0.019242736 -0.1707542 -0.0046110693 -0.2209562 0.10507632
-0.0140985465 -0.06748873 -0.006742788 0.046905417 0.131965 -0.04988886 -0.05797 0.042693425
0.063269645 0.0024813917 -0.0124883875 -0.045606673 0.045674235 -0.021900734 0.068787545 -0.112629965
-0.05891846 -0.0304809 -0.007995578 -0.05866448 -0.32076344 0.113838956 -0.008611512 -0.08049856
0.0224419 -0.10831436 -0.027093716 0.004414066 -0.122363195 -0.079425275 -0.064551696 0.19772594
-0.00073869637 -0.01424734 -0.0095965555 0.052385002 0.015857065 -0.059645582 0.015020034 -0.08937892
0.009734761 -0.32238284 0.008829255 -0.012139916 0.053376686 -0.00825012 0.02357647 0.030321684
0.012585488 0.095772386 -0.17161833 -0.011583339 0.0062723276 -0.035105847 0.014858548 0.011694416
-0.12879436 -0.041235495 -0.022434266 -0.19007125 -0.27326095 0.09057439 -0.1319466 0.036745284
0.016362833 -0.05838756 -0.055774733 -0.039847035 -0.017842786 -0.09714428 -0.02662028 0.1933998
0.0032409169 -0.13129784 -0.07869524 -0.02851694 -0.022416234 -0.024661709 -0.1131551 -0.19898078
-0.070085645 0.038737994 0.04497694 -0.07094054 0.10884001 -0.13211007 0.019451346 -0.018538708
0.026727447 -0.30345038 -0.03003345 0.031864237 -0.18320388 -0.06078347 -0.08379678 -0.089216955
0.058251146 -0.057161268 -0.14545432 -0.034926634 0.12619245 0.05281156 0.12580939 -0.02254334
0.045824908 -0.05237361 -0.0056121205 0.023980197 0.020245345 0.023402356 0.014968092 -0.08479035
-0.000102779435 0.03353845 0.1496349 0.040640205 0.046001505 0.043294806 -0.15262747 -0.003404612
0.025792522 -0.09943144 0.02738512 -0.03792995 0.0110369045 -0.18365017 -0.09889728 -0.15144844
-0.12564778 -0.049398214 -0.035317708 -0.19233756 -0.08621538 -0.110422365 0.061597478 -0.053123627
-0.044100273 -0.056007672 -0.01611488 -0.005095243 -0.18118013 0.009424427 0.056151714 0.018203774
-0.0730002 0.001440695 -0.082124986 -0.04651072 -0.31374258 -0.10723739 -0.007331895 0.18978883
0.0068133366 0.053545773 -0.11033171 0.030539038 -0.08570467 -0.046114743 -0.16718648 -0.0426625

fc2.bias f4 [128]
00000000: b315 55bd 5bcb ef3c bfde 073e 2497 623d
00000010: 79da e7bd b4a2 963c 8c5f a9bb 6669 aebd
00000020: e352 da3b a244 d1bd 9e98 2ebd 6c09 be3d
00000030: bb96 f3bc f385 95bd 4181 01be 82c1 b53d
00000040: dc27 f03c 6327 4bbc debb b9bc 821d 47be
00000050: 6cca 3f3d 1a79 1a3d 1f08 353d 6a8f 6a3c
00000060: 901b df3b 73d7 ce3b 06e4 adbc 1aba e73d
00000070: 0d6d 91bb dbef 183d 1c57 3d3d 13eb 693d
00000080: 5eab c5bd 4e10 17be fe4b ecbd 7e8d 1a3c
00000090: 4762 02bd 90af 21bd 75f6 88bc e56a eabd
000000a0: 4d00 283d bf6d e2bd eba2 0ebe dbe3 69bd
000000b0: ec7f 21bc 7877 06bd 16a1 72bd 8295 c6bd
000000c0: 9a3b 773c 4ce1 1abe 3447 05bd 58f6 8abd
000000d0: 94a1 5c3e 03d0 e13c 50b6 f5bb e6d5 45bd
000000e0: 71d3 3dbe 8858 483b a420 4cbd f2fa c73d
000000f0: 628c c03d c58b 92bd 644c bbbd 4553 a63c
00000100: 7bda 6bbd 7123 60bd 7fe7 02be f7aa c1bb
00000110: 3c42 073e 2ba2 ba3c 2385 6e3c 6642 553e
00000120: 9f36 7e3c c9a5 383d 8c6d ef3c 9f2a c53c
00000130: bdd4 653d 0206 63bd 2251 c4bc 19c5 9d3d
00000140: fa67 c33d 9ed4 d9bc ef6b 0dbd 2866 223d
00000150: 39b5 9dbd 1415 7f3c ce6e d9bd be2c 203c
00000160: 7f4f 7bbc d424 4c3d e87c 243d 561d 3c3c
00000170: 32d0 1b3d 5850 98bd bced 813e 5528 133d
00000180: 92e7 61bd f7fe 5cbc 5650 ca3c 6115 37bd
00000190: da24 b7bd e621 173d 38b8 853c 44b9 9e3d
000001a0: 485c 94bc f7eb b23c 3e53 923d 4e3e 65bd
000001b0: ec59 c5bd f939 313d 9efc 243d c5ff 1fbd
000001c0: 713d 033c c992 6cbc 0e1c 05bd 4342 2bbe
000001d0: 41ca 02bd 0f84 f6bd 3853 bb3c 0f25 1dbb
000001e0: a9a7 bdbd a8f9 82bd 2e94 07be 2ee7 923c
000001f0: 2870 a0bc 6596 31bc f819 75bd a3d3 eebc
-0.052022647 0.029271772 0.13268565 0.05531992 -0.11320967 0.01838813 -0.005168861 -0.08516197
0.006662713 -0.10218169 -0.042626016 0.09279141 -0.02973496 -0.073009394 -0.12646963 0.08874799
0.029315881 -0.012399527 -0.02267259 -0.1944485 0.046823904 0.037713148 0.044197198 0.014316419
0.0068087056 0.0063123046 -0.021226894 0.11314793 -0.0044380487 0.03733812 0.046225652 0.05710895
-0.09651826 -0.14752313 -0.11537932 0.009433148 -0.031832006 -0.03947407 -0.016719082 -0.1144617
0.04101591 -0.11056089 -0.13929336 -0.057102066 -0.009857159 -0.032828778 -0.059235655 -0.09696485
0.015089894 -0.15125006 -0.032538608 -0.067852676 0.21546012 0.027565008 -0.00749854 -0.048299693
-0.1853769 0.0030570347 -0.049835816 0.09764661 0.09401776 -0.07155565 -0.0914543 0.020303378
-0.057581406 -0.0547213 -0.12783621 -0.005910273 0.1320886 0.022782406 0.014558109 0.2082611
0.015515952 0.04507998 0.02922704 0.024068175 0.056111086 -0.05542565 -0.023964468 0.07703609
0.09541316 -0.026590642 -0.03452676 0.039648205 -0.07700581 0.01556899 -0.106168374 0.009776292
-0.015338778 0.04983981 0.040158182 0.011481604 0.038040347 -0.07437199 0.2537669 0.035927135
-0.055152483 -0.013488523 0.02469651 -0.044698123 -0.08942576 0.036897562 0.016323194 0.0775018
-0.01811041 0.021841032 0.071447834 -0.05596762 -0.09636292 0.043268178 0.040279977 -0.03906228
0.008010254 -0.014439293 -0.03249746 -0.16724496 -0.031931166 -0.12036907 0.02286683 -0.0023978387
-0.09260494 -0.063952744 -0.1324012 0.0179325 -0.01958473 -0.0108390795 -0.05983922 -0.02915365

fc3.weight f4 [64, 128]
00000000: 7d66 1cbd b7f2 a6bb 30dd e33c ccdd c8bd
00000010: 1ebf 0dbc ff7f c5bd fa80 01bd 284e 46bb
00000020: 5bde e5bb 7215 2d3c 785a 7ebe b9eb d9bb
00000030: 2b1a 06bc 529d 2ebd fc67 f7bd d775 c6bd
00000040: 196a 483c 1eb9 ef3b ba57 d73c 0050 433d
00000050: 0812 04bc 0a02 263e 95b0 bf3b 92a9 23bc
00000060: 9969 90bc f9b9 763c ba6d 483c 8ac4 ad3e
00000070: 5f0f 8cbc 1e00 b2bd beb7 05bd 3e83 10be
00000080: b0b7 583e 3fa8 19be 0107 88bd 407d 963e
00000090: 4d4d e4bd 787c 663d be06 9d3d 0959 0cbd
000000a0: 7d8f 233e 68ed 1abd c487 dfbd 807b 003e
000000b0: 9412 2a3d 4d0d 123b 2506 fcbc 5766 103d
000000c0: 924d 82bd a2f3 3ebd 8406 27bc e291 fd3c
000000d0: 3a9d 253e b194 1dbd 69ec 86bd fd5d 863e
000000e0: 5049 803d e7be 28bd 3922 22bd 1031 58bc
000000f0: 84c3 a33d d53b c3bd 6956 7d3d 0f5a f23d
00000100: 84c5 e2bd 6795 47bd 2da5 85bd 16c6 673e
00000110: cc56 08bd e631 1dbc 4ecc b43e a0dd 523e
00000120: 6174 313c db25 5bbd 2d25 18bd 5122 d2bc
00000130: b50d 8abd ab89 7f3d 1595 6d3d 48be a33d
00000140: 1885 e8bc 9246 303c 3f23 113d 7f61 173d
00000150: 5b7a 04bd b7ad 93bd 52c0 85bc f23e 143d
00000160: b3d4 9dbd 35c3 b53c 5794 d0bd f724 3c3d
00000170: 39ed 533d 6865 d73d 2134 cdbd ede8 b03c
00000180: e666 813d dedc 5bbd a55f c5bd 0354 73bd
00000190: f21b 0fbe 00f2 8ebb 1006 893d 1c15 cd3e
000001a0: fdab cdbb 3e12 f7bb e385 9cbd c0ad 99bd
000001b0: 54b0 8abe 6b34 7cbd 6224 113d 3792 1d3d
000001c0: cd2e 40bc 916c 93bd a6ce 813c 455a 98be
000001d0: dde9 303b 3d5d 82bd 1d01 b0bd 538b cfbd
000001e0: 6010 0bbe 8c3b 8a3e ede7 123e 2194 933e
000001f0: 39c6 4f3d 7659 483e 8f6d 2f3e cc2a 5cbd
00000200: eb60 cc3d 9986 473d aaee 6b3e 91dd d33d
00000210: dd3b a93d bee4 87bc 4301 33bd 0e52 bcbd
00000220: 8f88 103c ada8 8ebd 7c72 843d b57a c53b
00000230: b2d9 a53d bd24 1f3c 9006 293d 65a5 c5bd
00000240: 2aa7 7a3d 552c 953d 99d5 3bbd b257 52bb
00000250: 999e abbd 9e1d 8ebe 6824 a53d ac19 8ebe
00000260: efa2 0f3c 71dc 5bbd d64c 653d b7fa e53d
00000270: 522f ccbc 6545 643d ff96 723d 631b a93d
00000280: 36c2 cfbd 966e 1dbe e407 b5bd 0c3b 503e
00000290: ec40 ef3d 100b 483d ce2c b83c 40d0 99bd
000002a0: db5d f03b 2b7a a83c a92f 7c3d 5f50 723e
000002b0: e20b 33be 1212 bb3d 2f0c 863d 4539 ff3c
000002c0: 771a d3bd 273c f7bd 743b b0bd 8720 ed3d
000002d0: ff0e 0e3c ca70 363d 3268 6d3d 3f17 22be
000002e0: 8609 e9bc 19b0 323d 565d 69bd 8fd5 0dbd
000002f0: 0ecd 33bb 731f 8abd 9bef 763d d49e f1bd
00000300: bcfe c2bd 1ebc 53bd f9e8 a6bd a8de 073a
00000310: 8c5d 77bc 1878 a2bc 1a8d 5fbd 611f cbbd
00000320: 2ccf fc3b 11d4 f5bc a00f 74bd fd50 953c
00000330: 77e4 60bc 62ce 4f3c cbdd 1abc d274 08be
00000340: bddd e13c 4b3d b4bb 56b0 85bd 8571 063e
00000350: fd79 77be e18a b5bd 9f49 f6bd 8211 693d
00000360: 7b81 203d bb99 b7bd b671 5f3c c0c6 aa3c
00000370: 0db8 77bc 7ab7 813c b50f bb3d befa a5bd
00000380: 6636 8c3c 676b 593d 1c44 1f3d dcc6 3ebd
00000390: f091 7fbd b8e1 3abe 46f2 7cbd a006 b93d
000003a0: fca5 93bd 391b d33c f117 97bd 2982 493c
000003b0: 3dd6 753d a621 9b3e 341a 39bd 8049 393d
000003c0: f354 3dbd 5749 5b3d de90 393d 497f 97be
000003d0: 1c75 c4bd c438 a8bd aeb0 8a3b 0534 203d
000003e0: 828d e23d 2be3 43be 5110 c1bd fbe1 253e
000003f0: 7e59 3a3d c930 45be 480a 503c 4ef0 a5bd
-0.038183678 -0.005094852 0.027815431 -0.098079294 -0.008651523 -0.09643554 -0.031617142 -0.0030258987
-0.007015032 0.010564195 -0.24839199 -0.006650415 -0.00818495 -0.0426305 -0.1208038 -0.09690445
0.012232327 0.007315769 0.026286948 0.047683716 -0.00806094 0.16211715 0.0058499076 -0.009989159
-0.017628478 0.015058988 0.012233192 0.3393901 -0.017097173 -0.086914286 -0.032645933 -0.14112565
0.21163821 -0.15005587 -0.06641961 0.29392433 -0.111475565 0.056271046 0.076673016 -0.034264598
0.15972705 -0.037824064 -0.10914567 0.12547112 0.041521624 0.002228576 -0.030764649 0.03525385
-0.063624516 -0.046619065 -0.010194425 0.030953351 0.16173258 -0.03847188 -0.065880604 0.26243582
0.06263983 -0.041197684 -0.03958342 -0.013195291 0.07996276 -0.095328964 0.061849985 0.118335836
-0.11072829 -0.048726466 -0.065256454 0.22634158 -0.0332859 -0.009594416 0.35312122 0.20592356
0.01083097 -0.0535029 -0.03714483 -0.025651129 -0.06740896 0.06238715 0.058003504 0.07995278
-0.028383777 0.010759013 0.035434004 0.036958214 -0.03234325 -0.07210868 -0.016327057 0.03619284
-0.07706585 0.022187809 -0.101845436 0.04593369 0.051739905 0.105173886 -0.100197084 0.021595443
0.063184544 -0.053677432 -0.09637383 -0.05940629 -0.13975504 -0.0043623447 0.066906095 0.40055168
-0.006276606 -0.0075400164 -0.07642724 -0.07503843 -0.27087653 -0.061573427 0.035435088 0.03846952
-0.011729908 -0.07198442 0.015845608 -0.2975637 0.0026994862 -0.0636544 -0.08593962 -0.10133996
-0.13580465 0.26998556 0.14346285 0.2882395 0.05072615 0.19565377 0.17131637 -0.05375175
0.09979423 0.048712347 0.23040262 0.10344995 0.08263371 -0.016588565 -0.043702375 -0.09195338
0.008821621 -0.06965766 0.06467149 0.0060265907 0.08098163 0.009713349 0.041266024 -0.09650687
0.061194576 0.07283846 -0.045858 -0.0032095728 -0.083798595 -0.2775697 0.080635846 -0.2775396
0.008766874 -0.053677026 0.05598148 0.11229461 -0.024924908 0.055730242 0.059226032 0.08257177
-0.10144465 -0.15374216 -0.08839396 0.20335025 0.11682305 0.048838675 0.022482302 -0.07510424
0.007335407 0.020566067 0.06156889 0.23663472 -0.17485002 0.09134306 0.065452926 0.031155238
-0.10307782 -0.1207202 -0.0860509 0.1157847 0.008670568 0.044541158 0.057960697 -0.1582918
-0.028446924 0.04362497 -0.056973778 -0.034627493 -0.0027435455 -0.0674428 0.0602871 -0.11797872
-0.09521243 -0.051693074 -0.08149905 0.00051830197 -0.015097987 -0.019832656 -0.054577924 -0.099180944
0.0077151265 -0.030008348 -0.059585214 0.018227095 -0.013726345 0.012683483 -0.009452294 -0.13325813
0.027571553 -0.0055004708 -0.06527774 0.13129242 -0.24167629 -0.0886438 -0.12025761 0.056901462
0.039185982 -0.08964869 0.013637951 0.020846725 -0.015119565 0.015834559 0.09133855 -0.08104466
0.017115783 0.053080942 0.038883314 -0.046576366 -0.062395036 -0.18250167 -0.061754487 0.09034467
-0.072093934 0.025769817 -0.07377613 0.012299099 0.060018767 0.3029911 -0.045191005 0.04523611
-0.046223592 0.05353674 0.04530417 -0.29589298 -0.09592649 -0.08213952 0.0042324876 0.03911211
0.11062147 -0.19129626 -0.0942694 0.16199486 0.045495503 -0.19256891 0.012697764 -0.08102475

fc3.bias f4 [64]
00000000: 7a28 e83d 88e6 17bc e686 d53d a09e 06bd
00000010: 340d 203c b95c ebbc e91e bbbd 3df5 913d
00000020: 3d00 243b 68b6 d13c e60e c5bb 19f3 dcbd
00000030: 5211 ab3d 46d6 803d 7d87 c5bd fe39 30bd
00000040: b8d2 953c ba7d 20bd 75f9 6b3d bb64 86bd
00000050: fbb1 87bd 5326 993d ba8b 27bc 4719 0e3d
00000060: 5d57 983d c1fe b6bd 23a4 423d f393 bd3b
00000070: 49e2 843d cfd4 10bd d890 833d b900 94bc
00000080: 7e75 ca3d 0bd5 543d 510a 813c e566 dabd
00000090: 6d19 7c3d 5519 c1bd 088f 443d 65c3 1f3b
000000a0: f11e b63d 4657 733b 8ce5 8c3d 80b9 633c
000000b0: 000d 4cbe 261d bebd eb5b 363d 69d1 0ebd
000000c0: ad3d 0abd 978c f83d 2b3a 163e 34d9 a0bd
000000d0: 20f8 9bbd 20eb 4fbc 6c1e 903d 860b e73a
000000e0: b4e1 6f3e d3ba dbbb 7459 183d c984 53bc
000000f0: 99de 01bd 23e4 1dbd f3d0 583e cd6b f5bd
0.11335845 -0.0092712715 0.104261205 -0.03286612 0.009768773 -0.028730737 -0.09136755 0.071268536
0.0025024556 0.025599673 -0.006013739 -0.10788555 0.08352913 0.062908694 -0.09644983 -0.043024056
0.018288955 -0.039182402 0.057610948 -0.065621816 -0.06625744 0.07478013 -0.0102261845 0.034692075
0.07438538 -0.08935309 0.047519814 0.005785459 0.06488473 -0.0353592 0.06424111 -0.01806675
0.09885691 0.051960986 0.01575199 -0.10664157 0.061547685 -0.0942866 0.047987968 0.0024377939
0.0889262 0.0037130876 0.0687972 0.013899207 -0.19926834 -0.092829034 0.044521254 -0.034867678
-0.033750225 0.121361904 0.14670627 -0.07853928 -0.076156855 -0.0126903355 0.070370525 0.0017627336
0.23425943 -0.006705621 0.037194684 -0.012910076 -0.031706426 -0.038547646 0.21173458 -0.11983452

fc4.weight f4 [1, 64]
00000000: 67a7 7d3e 9f03 48be b790 18be f2e9 4c3e
00000010: dbb0 87be 7133 08be 7431 903e 1391 4dbe
00000020: 0bf9 153e 9034 d5bd d54f b8be 5aa1 a03e
00000030: bc8c 44be ecc3 6abe c382 83be 9f2f 033e
00000040: 87c5 84be 0682 7b3e 9443 43be 3d6f afbe
00000050: 6142 7d3e b8bd a3be 6d82 adbe 82d0 3cbe
00000060: 28bc 10be e8d2 583e b45b 543e 954f 79be
00000070: 29e6 553e 6c51 75be 7bb4 8ebe a78f 4c3e
00000080: b6ab 8abe 933a 8c3e 7105 adbe cf82 45be
00000090: 5853 85be 4c28 7fbe a544 7abe d0c2 59be
000000a0: c258 62be fec7 47be e96a b9be 66fd 9bbe
000000b0: ac28 74be bd23 91be 99df 433e 5a1c 853e
000000c0: 5090 9cbe b6ec e6bd e412 533e eccd 6cbe
000000d0: ba87 97be f23f 8e3e e2eb 79be a93c 82be
000000e0: a51c 4a3e d7b0 0ebd 7fcb c4be 0a96 8dbe
000000f0: 3216 91be 497b 29be 5668 1abf c5e5 363e
0.2477089 -0.19532631 -0.14898954 0.20011118 -0.26502118 -0.13300873 0.2816273 -0.20074873
0.14645784 -0.10410416 -0.35998407 0.313731 -0.19194311 -0.22926301 -0.256857 0.12811135
-0.2593195 0.24561319 -0.19068748 -0.34264556 0.24732353 -0.3198068 -0.3388857 -0.18438914
-0.14134276 0.21174204 0.20738107 -0.24346764 0.2088858 -0.23956841 -0.2787207 0.19976674
-0.2708413 0.2738844 -0.33793214 -0.19288181 -0.2604015 -0.24917716 -0.24440248 -0.21265721
-0.22104171 -0.19509885 -0.36214378 -0.30466765 -0.2384364 -0.2834758 0.19128264 0.25998193
-0.30578852 -0.11275618 0.20612675 -0.23125428 -0.2959574 0.2778316 -0.24406388 -0.25436905
0.1973749 -0.034836616 -0.38436505 -0.27653533 -0.28337246 -0.16550936 -0.60315454 0.17861088

bn1.weight f4 [256]
00000000: 1226 813f 3fb0 9b3f 51f0 453f 3502 593f
00000010: 4289 813f 5fa9 913f a30f 923f f4f1 873f
00000020: f3b2 673f 07a6 893f b65c 8c3f fead 923f
00000030: 9187 8f3f 3795 563f 9624 9d3f a257 533f
00000040: 0af7 563f b276 6f3f 941e 563f f78b 8a3f
00000050: e061 783f ec5c 5a3f 430f 8c3f c129 643f
00000060: 9250 8f3f 96f8 563f 3438 5b3f b6a4 583f
00000070: 7719 9b3f 607a 483f 9bd4 a63f 9044 433f
00000080: 1fba 853f 98a0 b03f 5af8 6a3f 1b8d 5d3f
00000090: 6fea 5b3f 35bf 893f a90f 573f 981a 543f
000000a0: e9f2 5f3f 423c f13f 0f48 a33f 1446 4f3f
000000b0: 2e14 753f 7e6f af3f f13b ac3f f8ed a23f
000000c0: 884f 8b3f d9f2 8c3f c923 943f 7f9e 563f
000000d0: f7d5 8d3f 8ffc 8d3f 5673 8a3f 82e1 683f
000000e0: 6d9c 5f3f 3f55 b33f fab3 5a3f db97 9b3f
000000f0: 7a52 493f 7248 a73f 49a1 4f3f ac78 4e3f
00000100: dc74 5f3f 5e88 963f d8e6 983f 1739 963f
00000110: 0cf0 553f 6a5d 5e3f 4945 503f 3fc9 7b3f
00000120: 4a48 903f 390a 803f 87b4 943f 2413 bd3f
00000130: 6ee4 4f3f 6b24 543f 5d8d 813f ac2b 5b3f
00000140: 5942 783f 21b9 833f d9cd 4f3f ccb7 4b3f
00000150: 07dd 903f f03c 8f3f eff5 523f 9560 a53f
00000160: 98b7 843f d982 533f fe2a 6c3f 7509 5a3f
00000170: fb39 913f 0cbd 853f 03ec b03f b7c9 963f
00000180: 5fde 513f baa9 5d3f b7a6 483f 98d7 813f
00000190: d1dc 963f 3371 593f 1f97 563f f20c 913f
000001a0: 5f38 603f 85a3 623f c964 6a3f 7b70 4e3f
000001b0: 688e 5e3f be72 5b3f 68c7 a83f 2471 913f
000001c0: dcf2 883f bad8 933f b9aa 5d3f 6cdd 4f3f
000001d0: 1844 943f 67b9 923f e275 4b3f 7efd 843f
000001e0: 9d30 573f 3f55 823f da3e 5a3f 7076 a33f
000001f0: f3a3 963f f9ef 803f 9730 4f3f c950 ba3f
00000200: 29fe 583f 3cb6 a13f 3788 9e3f e270 9c3f
00000210: 49a7 573f 15e4 453f 7251 973f cf3f 913f
00000220: 7510 963f a707 983f 9d94 533f 0f18 973f
00000230: 9c9a 8e3f 9a8a 5b3f a8af 5c3f 4e1c 573f
00000240: 380e 6a3f 37d2 893f 4b2b 9a3f 1ad4 513f
00000250: c14a 433f 73b6 6e3f 9a09 923f 6a99 8f3f
00000260: 5863 913f ac36 4c3f fb3e 533f 19a1 aa3f
00000270: 8742 a73f 3770 993f 4d2f 8a3f 3a11 5e3f
00000280: ef0e 523f 8cd1 583f 6bc0 5e3f d7db 7d3f
00000290: b6f4 ac3f 026f 8b3f 9c97 8f3f 6003 a93f
000002a0: 2b44 503f fb3e 993f c180 8d3f 3d48 5d3f
000002b0: 820c 5a3f 2fa3 583f c573 8c3f fae4 8b3f
000002c0: e7c6 4f3f d24e 873f a580 4a3f e460 543f
000002d0: 73aa 8a3f 1d5f 8f3f 954a 993f 72f8 9b3f
000002e0: c58e 5c3f b4a1 983f 9e6b 6f3f b082 903f
000002f0: 8ad8 a63f 8cce 513f 3b6f 6a3f b2ed a33f
00000300: b176 553f 0e3a 923f 4f58 8d3f 62a6 503f
00000310: e324 983f 3fba 613f 6297 973f 1a1b 4b3f
00000320: 2626 573f 350a 5f3f 69d6 8a3f e785 553f
00000330: 3f28 973f 3dc9 373f 3f99 823f 309f 8b3f
00000340: a5fa 8f3f 9746 5d3f 5f95 9d3f 6187 873f
00000350: f200 4e3f 921f 563f e58d 6b3f 429d 5d3f
00000360: fd4a 943f c6c5 853f 1ea3 a73f caa7 563f
00000370: f75f 903f 7baf 9c3f 6473 923f 193d a93f
00000380: 55c9 8d3f 1c4e 4a3f 9f61 5a3f c450 a83f
00000390: a427 9b3f 647f 8a3f cfaa 7d3f d2a4 503f
000003a0: 4d6b 573f a227 553f 4b31 7a3f fb17 533f
000003b0: f32e 973f 801d 513f 0c4b 553f 47c0 943f
000003c0: caaa 643f 788b 543f af1c 9b3f e47f 463f
000003d0: 8cd3 b93f ea92 8c3f fd58 5e3f d4e7 943f
000003e0: a253 7e3f 5655 843f 9fca 853f e698 8b3f
000003f0: 805b a33f b886 593f 9624 ad3f 423b 853f
1.0089743 1.2163161 0.7731982 0.8476899 1.0120013 1.1379813 1.1411022 1.0620713
0.9050743 1.0753793 1.0965793 1.1459348 1.1213247 0.83821434 1.227679 0.8255559
0.839707 0.9354049 0.8364041 1.0823964 0.97024345 0.8529804 1.0942158 0.8912621
1.1196463 0.8397306 0.85632634 0.8462633 1.2117146 0.7831173 1.3033632 0.76276493
1.0447425 1.3799009 0.91785204 0.86543435 0.8590459 1.0761477 0.8400827 0.8285308
0.87480026 1.8846514 1.2756366 0.80966306 0.95733917 1.37059 1.3455793 1.2728872
1.0883646 1.1011611 1.1573421 0.83835596 1.1080922 1.10927 1.0816448 0.909691
0.8734806 1.401039 0.8543087 1.2155718 0.78641474 1.3068984 0.81105477 0.8065288
0.8728769 1.1760366 1.1945448 1.1736172 0.8356941 0.8686129 0.8135572 0.9835395
1.1272061 1.000312 1.1617593 1.4771466 0.8120793 0.8286807 1.0121266 0.85613513
0.9697624 1.0290872 0.81173474 0.79577327 1.1317452 1.1190472 0.82406515 1.29201
1.0368528 0.8262153 0.922531 0.8517068 1.1345819 1.0448318 1.3822025 1.1780308
0.81979936 0.8658711 0.78379387 1.0143919 1.1786138 0.84938353 0.8382434 1.1332076
0.87586015 0.8853076 0.91560036 0.8064038 0.86936045 0.8572196 1.3185854 1.1362653
1.0699115 1.1550515 0.8658863 0.8119724 1.158328 1.146283 0.7947675 1.038986
0.84058553 1.0182265 0.85252154 1.2770519 1.1768783 1.0073234 0.8093352 1.4555904
0.8476282 1.2633739 1.238532 1.2221949 0.8423963 0.7730115 1.182173 1.1347598
1.1723772 1.1877335 0.8264864 1.1804217 1.1140933 0.85758364 0.8620553 0.84027565
0.91427946 1.0767277 1.2044462 0.81964266 0.7628594 0.93247145 1.140918 1.1218693
1.1358442 0.7977092 0.82517976 1.3330413 1.3067178 1.198737 1.0795685 0.86745036
0.82054037 0.84694743 0.87012357 0.99163574 1.351218 1.0893252 1.1218143 1.3204155
0.81354016 1.1972345 1.1054918 0.8643835 0.85175335 0.84624 1.097283 1.0929253
0.81162876 1.0570929 0.79102546 0.82960343 1.0833267 1.1200901 1.1975886 1.2185194
0.8615535 1.1924348 0.93523586 1.1289883 1.3034832 0.8195579 0.91575974 1.2806914
0.83384234 1.1423967 1.1042575 0.8150388 1.1886257 0.88174814 1.1843073 0.7933823
0.84042585 0.8712495 1.0846683 0.83407444 1.1809157 0.7179144 1.0203017 1.0907955
1.1248366 0.86435837 1.231121 1.0588189 0.8047019 0.8364192 0.9201339 0.8656808
1.1585385 1.0450981 1.3096654 0.83849776 1.1279286 1.2241052 1.1441464 1.322177
1.1077067 0.79025435 0.8530521 1.3149648 1.2121472 1.0820127 0.9908876 0.81501496
0.84148103 0.832636 0.97731465 0.82458466 1.1811203 0.8168564 0.8331764 1.1621178
0.89323103 0.8302531 1.2118129 0.77538896 1.4517684 1.0982335 0.86854535 1.1633248
0.99346364 1.0338542 1.045246 1.0906036 1.2762299 0.8497119 1.352679 1.0408709

bn1.bias f4 [256]
00000000: 66ce 8e3c 052c 10bd 45ab af3c c3ac d5bc
00000010: 98c9 de3c 79ed 3bbc 2e89 e6bc ef1d 253b
00000020: b659 273d c0f5 c1bd 4a9d b63d e4ee 5cbd
00000030: c643 ccbc c1e4 f0bc 89f5 fdbc 034a abbd
00000040: ce90 38bd c057 2c3c b054 0bbd ab01 daba
00000050: 3324 913c 7ff5 e5bb fc2a 613c e2af 0fbe
00000060: 2189 90bc 7d37 82bc 17f5 f639 906b ce3c
00000070: 8a69 f7bc 7cdb c4bc a8c9 f4bc 156c 93bb
00000080: fb11 cc3c b94f 343d b736 9d3c 4e14 babd
00000090: 2b9c 543c b50f 04bd 7400 5e3c c761 3a3d
000000a0: 53c5 b23c edc6 083b f260 29bd 1ee4 813c
000000b0: 76d8 bf3c 7bc1 08bd 9873 5dbd 53d2 d63c
000000c0: 06eb c23d 2314 2dbb addc dbbc bd91 98bb
000000d0: 7311 12bd 30fa 66bc f9f4 d03c 1a1c 973c
000000e0: eec0 d5bd 928b fcbc aebd 533c cf6e 22bd
000000f0: a5cb 953d 63c2 f8bc 31ae 1bbd 1fad bcbc
00000100: 1210 adbd 9f59 7abc ea1b 41bd 7582 1abc
00000110: b3b6 c0bd 3cd5 b43b c7c3 d1bb 0add 98bd
00000120: 8699 2cbd 4173 a6bd 8513 703d a879 03bd
00000130: 930e 37bc 2be8 7c3a 6a09 703d 5120 fabc
00000140: 029d f83c 31ef 953d 00da 8b3c 64d4 8dbc
00000150: c615 e43c e97b c0bd 6f09 93bd 301f 38bc
00000160: 95e7 7f3a 576d 3abd 48b6 7c3a d5da d83c
00000170: d37a b2bd a71d 7dbb e089 0dbd 6b62 e3bc
00000180: ae78 913b 4681 343c b517 aa3d e41c 203d
00000190: 9362 be3c 8b7d 07bd 112b c73c 2abb c1bc
000001a0: ec4f e2bd 8b09 e7bc ace5 34bb 82a5 8bbc
000001b0: ffe5 503c db3c b0bc 1d59 95bc 8d92 513d
000001c0: e68f 8abd fe76 cfbc c5e2 063d efd2 b6bd
000001d0: dde1 6fbd bbf0 ed3c f112 b5bc b688 0d3d
000001e0: e836 1dbb aa64 6e3d 342f 80be f7ca 49bd
000001f0: e83a 343d 5984 393a dc6a 963c ce7f e2bd
00000200: 6f5d 903c 2e3e 113d 558b 29bd 80b3 ddbd
00000210: 2dd1 883c 5cd1 48bc 2e0c 93bd c777 a7bd
00000220: 1b76 893c 8ecd 00bd b269 05bd 4a06 38bc
00000230: 1c1d 09bd c6e6 8b3c 8d1b 1cbc 90fe 9a3b
00000240: 01f4 823c fa73 7639 c8a8 883c 82ec a7bd
00000250: a8d5 1dbd c9ec ac3d c5b2 12bd dcb8 42bc
00000260: 900d 283d cd77 3dbc 0550 34bd 39b3 08bd
00000270: 4536 fcbc e3f7 d33c b640 6dbc 8f97 13bd
00000280: 009a 96bd 83a9 c7bd 79aa 38be d9db d1bb
00000290: 2eb0 15bd 3147 99bd 016c 9cbd 0ce2 df3c
000002a0: 94b3 39bc 64a7 bdbc 54d8 403d eb95 23bc
000002b0: a214 bf3b c9f8 4dbd 6283 2dbc 6943 4abd
000002c0: a720 073d cba0 88bd 4d89 8dbd d870 9cbc
000002d0: 83c8 e4bc a7ab 11bd cd7f cd3c 1d3a b8bb
000002e0: de29 923c 2d25 3abd f889 0dbe 2aba a1bc
000002f0: 6a34 09bd 5b65 073b 2c5a ca3c 2f32 18bc
00000300: 3411 36bc 27f9 10bd 44d2 91bb 8854 fabd
00000310: 042f 57bc f19d ffbc d5b1 153d 6ee8 393d
00000320: 84e4 60bd 25a7 843c 7d8f 0bbc 25e2 003d
00000330: 97f0 fcbc 56ec 1ebe a42e febc 7691 c2bd
00000340: 23fc 0fbc 327a b1bc 75ed 0dbd 09ba 133d
00000350: 18b7 f1bd 9151 bebc acca e7bd f18e 78bc
00000360: 577c 29bd a85a b8bd 3817 03bd 37c9 bdbd
00000370: ac62 93bc b072 05bd 9792 f7bc d23f 3bbc
00000380: 7e58 24bd 4277 3f3b 1725 e4bd 84c1 cbbd
00000390: 8442 0dbb 6bb3 ba3a ec39 1c3d 425b 34bd
000003a0: 4a66 ad3d c788 883a 53c6 063d 7e18 f2bc
000003b0: 4b00 d1bb 8425 c8bd 3212 c23c 1fe4 b5bc
000003c0: 537d 263c bd04 34bc e873 a5ba e95f 70bc
000003d0: 858c 10bd a3b1 10bd 0b1c 0f3c 84d6 1abd
000003e0: 35ca 33bc 1d8e fd3c fb81 773d f17c 0a3d
000003f0: 8348 f7bc 6753 5aba e8fd 02bd 1ac9 843d
0.017432403 -0.03519823 0.021443972 -0.026083356 0.027195737 -0.011470192 -0.028141584 0.0025194844
0.04085704 -0.09470701 0.08916719 -0.05393876 -0.02493466 -0.029405953 -0.03100087 -0.08363726
-0.04505997 0.010518968 -0.03401631 -0.0016632577 0.017717456 -0.007017791 0.013743158 -0.14031938
-0.017643513 -0.0158956 0.00047103383 0.025197774 -0.030201692 -0.02403044 -0.029881313 -0.0044989684
0.024910918 0.044021342 0.01919113 -0.09085904 0.0129766865 -0.032241542 0.013549913 0.045503404
0.021822607 0.0020870522 -0.04135222 0.015855845 0.023418646 -0.033387642 -0.054065317 0.026223337
0.095174834 -0.0026409707 -0.026838625 -0.004656045 -0.035661172 -0.014097735 0.025507437 0.018446017
-0.10437189 -0.030828271 0.012923641 -0.039656457 0.07314233 -0.030366128 -0.03800792 -0.02303177
-0.08450331 -0.015280156 -0.04714576 -0.009430517 -0.09409847 0.0055185836 -0.0064015123 -0.07464035
-0.0421386 -0.08127452 0.058612365 -0.032098442 -0.011172908 0.0009647633 0.058602728 -0.030532988
0.030348305 0.07321013 0.017071724 -0.01731319 0.027842414 -0.09398634 -0.07179534 -0.011237904
0.00097619864 -0.04551443 0.0009640199 0.026471535 -0.08714833 -0.003862241 -0.034555316 -0.02775689
0.004439435 0.011017149 0.08305303 0.039090052 0.023240363 -0.03307871 0.024312528 -0.023648817
-0.110504 -0.028202793 -0.0027602715 -0.017046694 0.012750148 -0.021513393 -0.01823097 0.051165152
-0.06765728 -0.025325295 0.032931108 -0.08926951 -0.05856501 0.029045453 -0.022103759 0.034554206
-0.0023989026 0.05820147 -0.25036013 -0.049265828 0.04400149 0.0007076911 0.018361501 -0.11059533
0.017622678 0.03545969 -0.041392643 -0.108252525 0.016701305 -0.012256946 -0.071800575 -0.081771426
0.01677995 -0.031446032 -0.032571502 -0.011231968 -0.033475026 0.017077815 -0.009528053 0.0047300532
0.01598549 0.00023503593 0.016682044 -0.08199407 -0.038533837 0.08443601 -0.03581502 -0.011884894
0.04102856 -0.011564207 -0.044021625 -0.033374045 -0.030787596 0.025875038 -0.01448076 -0.03603321
-0.07353592 -0.09749129 -0.1803378 -0.0064043817 -0.03654497 -0.07484282 -0.076377876 0.027329467
-0.011334319 -0.023151107 0.047081307 -0.009984474 0.005831317 -0.05028609 -0.010590406 -0.049380694
0.032990124 -0.06671294 -0.06910954 -0.019096777 -0.027927643 -0.03556409 0.025085354 -0.005622162
0.01784223 -0.04544561 -0.13822162 -0.01974209 -0.03349725 0.0020659778 0.0247012 -0.009289308
-0.0111125 -0.03539386 -0.0044501144 -0.12223154 -0.013133768 -0.031203242 0.036546547 0.045387678
-0.05490543 0.016192982 -0.008518097 0.03146567 -0.03087644 -0.15519843 -0.0310281 -0.09500401
-0.008788141 -0.021664713 -0.034650285 0.03606609 -0.118025005 -0.023232253 -0.113179535 -0.015170799
-0.041378345 -0.09001666 -0.032004565 -0.09266894 -0.017991386 -0.032580078 -0.030221267 -0.01142879
-0.040123455 0.002921537 -0.11139887 -0.099490196 -0.002155454 0.0014244145 0.038141176 -0.044032343
0.08466776 0.0010416739 0.03290398 -0.029552694 -0.0063782088 -0.097727805 0.023690317 -0.022203503
0.010161716 -0.010987458 -0.0012623044 -0.014671304 -0.03529026 -0.035325658 0.008734713 -0.037802234
-0.010973503 0.030951554 0.060426693 0.03381056 -0.030185943 -0.0008328468 -0.031980425 0.064836696

bn1.running_mean f4 [256]
00000000: ecc6 fbc0 df9a 28c0 cc0e 2f40 486c 6c40
00000010: 0a38 3e40 8d93 68c1 989b 9dbf 2653 a6c0
00000020: 108f 3940 cfa2 fac0 f871 09c1 05ce b9c0
00000030: 4046 b7c0 2c12 8e40 08f9 c7bf 6324 de40
00000040: 2c1c af3f 6828 5540 b2db 2b41 ab92 abc1
00000050: 1cff 6f3f 9b25 7041 2915 afc0 8819 0541
00000060: 2992 11c0 f0fe 8d40 ee8e 1e40 73b6 0541
00000070: ee04 70c1 6b8f 1141 15b1 e4bf 27d3 d041
00000080: 365d d73f 65d4 cf3e e04a 3740 84e6 8a40
00000090: 0385 8340 3af9 8ec1 d9a7 6541 9bb2 a141
000000a0: f2ee 2240 bf1c 4dc0 04e7 f2bf ce15 c740
000000b0: 1b66 1540 ff7c ccbf 6d26 aabf 591d ecbf
000000c0: c65d 08c1 a4c1 75c1 bb0a 17c1 f49b 2a41
000000d0: c4f4 46c1 484b 70c0 f384 a7c0 c683 4c40
000000e0: 5252 f1c1 3645 0dc0 6cd5 a440 16a7 62c0
000000f0: 51c2 e241 6e96 2bc0 6bd2 7d40 6b49 7b41
00000100: 19e7 1c41 c472 78c0 5d64 0bc0 dede 73c0
00000110: 3319 ad41 00ff 00c1 12e4 8240 9fac c2c1
00000120: 3f75 05c1 e7b5 e9c1 dc81 de3f 5f35 24c0
00000130: d2c0 8541 8103 b341 ae1f fdc0 a9c2 4541
00000140: 2732 4040 a7dc 4a40 73ed 7c41 a53b d340
00000150: ac27 763c 2305 82c1 6eef 1440 57ba 52c0
00000160: 58f0 b5c1 ce6e 7c40 4537 2240 98f5 9240
00000170: bdcf 6ac0 0e22 9cc1 4789 20c0 335d 28c1
00000180: 41ee 0441 5df0 b140 a529 d941 2674 fa3f
00000190: e721 58c0 80d7 fa40 4957 7041 bd11 9ac0
000001a0: fbf4 0240 6212 7840 5723 a83f a081 7441
000001b0: e606 c33e b6f1 cb40 e347 a0c0 53e1 8ac0
000001c0: 8924 dac0 db95 96c0 73ce 2d40 ce14 ff3f
000001d0: ea47 2cc0 214b ccbe 1944 9e41 9961 203e
000001e0: 448f 5741 a633 13bf b575 633f 6efd d3bf
000001f0: 111b a33f 5b4c 6dc1 4217 fb41 1eff 61c0
00000200: 521d a441 bf4d 06c0 1b55 19bf 530b 4fc0
00000210: 6c02 9840 a9c3 cc3f 1292 ac3e 7cd3 77c0
00000220: 0650 de3f 3afc 63c0 3b8d 3241 5b4e 24c1
00000230: 2ed3 ddc0 9ac7 7640 259f 0a41 9acc 3840
00000240: 35f6 1b40 b463 89c0 ca46 27c0 3fbe d840
00000250: c6f0 0b41 0439 8f3f 2407 37c1 60ac 3cc0
00000260: ca7b fd3e 2fb9 e040 af23 d540 75b0 0dc0
00000270: b691 44c0 8bce 28c0 326a 28c1 cb2f 3241
00000280: 7982 f940 66bc 9f41 4fe2 fb3f a954 80c0
00000290: c90c a3bf b54e 22c1 0f77 84c0 1f96 5fc0
000002a0: 4e5e e940 4929 d5bf f412 e53d 7a47 663f
000002b0: 8585 1e41 eeb1 7241 52b1 2ec1 2af5 1cc1
000002c0: 9141 9340 03a0 24c1 f4c5 5a40 4911 6a41
000002d0: 64ac c7c0 2b28 39c1 d99c c7bf 0d4a 6bc0
000002e0: 5ec3 4941 c29a c4c0 39e4 05c1 792b 21c0
000002f0: cc48 8fbf 7279 9941 a157 2a40 9d83 91c0
00000300: 7316 0141 5458 69c1 ea8b acc0 26bf df40
00000310: b361 9bc0 c7aa 7940 c3ee 2ec1 aae3 dd40
00000320: 13f0 1a40 3c59 9d41 0fbc e9c0 7cc4 2541
00000330: fda3 bbc1 2ce5 cdbf 328e e6c0 ad9f 00c0
00000340: 499e 64c0 c7bf 5c40 2484 afc0 391d f53f
00000350: 8a13 543f 7244 9841 3e10 87c1 e01a 8341
00000360: dbb6 34c0 11f2 68c1 43d8 0bc0 0532 c841
00000370: 516e dfc0 d5c4 63c1 f022 a2c1 34ee d8bf
00000380: 2c2a afc1 d9dd 0e41 1219 a341 3593 5bc0
00000390: 5f16 fdc0 4c77 cac1 83ac 8040 41cb 3c41
000003a0: 03a6 bf41 abb0 c141 f977 0a40 4afd 9341
000003b0: 0b39 05c1 fd9f cfc0 8fbf 1741 789a 7dc0
000003c0: 6760 be3f b47c d140 2635 bfc0 e2b3 9840
000003d0: 0027 19bf 89d7 ccbf d3c9 e940 5a2d 59c0
000003e0: 98b9 22c1 1940 1b40 5bc8 3840 74e6 5f40
000003f0: 74cc a7bf 9e6d 0041 d35e 02c0 f568 24c0
-7.8680325 -2.6344526 2.7352781 3.694109 2.9721704 -14.536023 -1.2313108 -5.19765
2.8993568 -7.832374 -8.590324 -5.806399 -5.7273254 4.4397182 -1.5622873 6.9419417
1.3680472 3.3305912 10.741137 -21.446615 0.9374864 15.009181 -5.471333 8.318733
-2.274546 4.4373703 2.4774737 8.357043 -15.001204 9.097514 -1.7866541 26.103102
1.6825321 0.40591732 2.863945 4.340639 4.109987 -17.871693 14.353478 20.21221
2.545834 -3.2048795 -1.897675 6.2214117 2.334357 -1.5975646 -1.3292977 -1.8446456
-8.522894 -15.359776 -9.44012 10.6630745 -12.434757 -3.7545948 -5.234979 3.1955428
-30.165195 -2.2073493 5.1510525 -3.541448 28.344881 -2.6810565 3.965968 15.705424
9.80642 -3.8820047 -2.1780007 -3.8104777 21.637304 -8.062256 4.0903406 -24.334288
-8.341125 -29.21382 1.738338 -2.5657575 16.71915 22.37671 -7.910117 12.360024
3.003061 3.1697176 15.807971 6.601031 0.015024107 -16.252508 2.3271136 -3.2926233
-22.742355 3.944263 2.5346234 4.5924797 -3.6689293 -19.516628 -2.5083787 -10.522754
8.308167 5.560591 27.145334 1.9566696 -3.3770692 7.838806 15.02131 -4.8146653
2.0462024 3.876122 1.3135785 15.281647 0.380912 6.3732557 -5.008775 -4.3400054
-6.81696 -4.705793 2.7157257 1.9928224 -2.6918893 -0.3990107 19.78325 0.1566223
13.472477 -0.57500684 0.8885148 -1.6561716 1.2742635 -14.831141 31.386356 -3.531196
20.514317 -2.0984952 -0.59895486 -3.2350662 4.7502956 1.5997211 0.33705193 -3.872283
1.7368171 -3.5622697 11.15948 -10.26913 -6.932029 3.8559327 8.663854 2.887488
2.4369023 -4.293421 -2.6136956 6.7732234 8.746283 1.1189275 -11.439243 -2.948021
0.49508506 7.0226054 6.660606 -2.213895 -3.0713935 -2.6376064 -10.525927 11.136668
7.797177 19.966991 1.9678439 -4.0103345 -1.2738277 -10.144216 -4.1395335 -3.4935377
7.292762 -1.6653224 0.11185256 0.89952815 9.907598 15.16844 -10.918291 -9.8098545
4.6017537 -10.289065 3.418332 14.62922 -6.239794 -11.572307 -1.5594741 -3.6763947
12.610197 -6.1438913 -8.368218 -2.5182784 -1.1194091 19.1843 2.6615984 -4.547316
8.067981 -14.5840645 -5.3920794 6.9920835 -4.855676 3.9010484 -10.933291 6.934041
2.420903 19.668571 -7.3042064 10.36047 -23.455072 -1.6085563 -7.204858 -2.0097458
-3.572161 3.4492052 -5.4848804 1.9149543 0.82842314 19.03342 -16.88293 16.388123
-2.8236606 -14.559098 -2.1850746 25.024424 -6.9822164 -14.235555 -20.26706 -1.6947694
-21.895592 8.929162 20.387241 -3.4308598 -7.908981 -25.30825 4.0210586 11.799623
23.95606 24.211264 2.1635725 18.498676 -8.3264265 -6.48828 9.484267 -3.962553
1.487317 6.5464725 -5.975238 4.7719584 -0.59825134 -1.6003276 7.3058867 -3.393393
-10.170311 2.4257872 2.8872287 3.4984407 -1.3109269 8.026762 -2.0370376 -2.568906
