input/model/ANN_retweet_c_dan_not_gan.pth (torch, 225575 bytes, 19 tensors)

fc1.weight f4 [256, 44]
000000 9f 55 88 bb 52 14 6a bd 7d 5b c2 bd 52 61 0c bd
       -0.0041605975 -0.057148285 -0.09490106 -0.0342725
000010 26 ec 30 3e 51 7c c2 bc 40 af a0 3e 6e 1b 57 3d
       0.17277583 -0.02374092 0.31383705 0.052516393
000020 45 6f 49 3f bb e5 3a 3c 90 83 7b 3d 21 97 53 bd
       0.7868541 0.011407311 0.061404765 -0.0516578
000030 74 4f bc bd bb bf ab 3e a9 20 b3 3d 86 80 03 bd
       -0.09194842 0.33544716 0.08746464 -0.03210499
000040 af 21 93 be 98 4d ec 3e 7a c3 68 be ae 02 0c be
       -0.28736636 0.4615295 -0.22730818 -0.13672897
000050 3f 40 ac 3e e2 ec 48 bd 1c 32 0a bd b5 16 c2 3d
       0.33642766 -0.049054034 -0.033739194 0.09476987
000060 14 ed e4 3d 59 b3 f5 bc b9 5f 99 3d 73 e0 8d 3b
       0.111780316 -0.029992746 0.07488961 0.004329735
000070 65 07 2b be 1c 3c bd 3b f6 0d 9c 3d b0 ff 55 be
       -0.1670204 0.005774988 0.0761985 -0.20898318
000080 2a 01 0b be 54 e4 aa 3e 57 0b 87 3e b9 ec 8d 3e
       -0.13574663 0.33377326 0.2637584 0.27719668
000090 76 5a 84 3e 9f 86 47 be b3 3b 94 be 9d bb 61 be
       0.25850266 -0.19484948 -0.28951797 -0.22044225
0000a0 b5 81 27 be 4b 81 b3 3e f6 d0 62 3e 6b 9b fe 3e
       -0.16358073 0.3505958 0.22150025 0.4972795
0000b0 a9 08 b6 bb d9 bf 35 3c 6e 43 a9 bf 52 90 40 be
       -0.0055552316 0.011093103 -1.3223703 -0.18805054
0000c0 e3 0e f5 3c d8 ba e9 3d 85 82 ec 3d 08 7e 0c 3e
       0.029914325 0.11412591 0.11548332 0.13719952
0000d0 a5 b8 9e 3d 16 a8 5c 3e 8a ea b6 bd f4 6b 1c be
       0.07750062 0.21548495 -0.089314535 -0.15275556
0000e0 d8 a5 13 bd 83 cd 59 be 75 fc e5 be 8f 77 32 3c
       -0.036046833 -0.21269803 -0.44919172 0.010892763
0000f0 74 86 9c be fd 25 13 3f 46 3a 87 be d4 dc d5 bd
       -0.3057133 0.5747984 -0.26411647 -0.1044251
000100 63 2c fe bd 72 8c cd bc 0e 7c 53 be fb 75 df bd
       -0.1241081 -0.025091384 -0.20652792 -0.10911175
000110 d0 d4 d2 bc 32 d4 1d 3f de 2c 6d bd 79 c4 30 3d
       -0.025736243 0.6165191 -0.057904117 0.04315612
000120 b7 96 f2 bd a6 13 17 3d 24 fb a5 bd 1b 3a 6e 3e
       -0.11845153 0.036883973 -0.08104542 0.23264353
000130 19 b3 94 bd 8f e6 3c bd 24 ce 31 be ab 17 90 3b
       -0.07260723 -0.046118315 -0.17363793 0.0043973527
000140 0d 2f 4c bd b5 75 ab 3e d7 b5 61 be cb 40 63 be
       -0.04984956 0.3348824 -0.22042023 -0.22192685
000150 e4 71 07 3f a8 82 3a bd 10 24 49 3e 2e f9 a5 3d
       0.5290816 -0.04553476 0.19642663 0.08104168
000160 7e a2 d3 3b bb cf a3 3c f1 a2 c0 bd ee ab 99 be
       0.0064585796 0.019996515 -0.094060786 -0.30013984
000170 de 1a 78 3e 82 e6 13 be c0 38 61 3e e4 c5 76 3e
       0.24228999 -0.144434 0.21994305 0.24098927
000180 ab 51 9e bf c6 9a c6 3d 95 af 2d 3e 3c af 06 3e
       -1.2368673 0.096974894 0.1696151 0.13152784
000190 f7 90 6e 3e 27 b4 3b 3f 44 3c a7 bd d9 e5 bc bd
       0.23297487 0.73321766 -0.08165792 -0.092235275
0001a0 f4 e7 9c 3d 7e 35 a0 3e 4a de 8c bc 9d 0c ab 3d
       0.07661429 0.3129081 -0.01719584 0.08352015
0001b0 80 4f 1c bf 2e 3d 4d bd a1 eb d8 3d b2 c0 ec 3d
       -0.6105881 -0.050107174 0.10591818 0.11560191
0001c0 79 8d 77 bf ad 91 11 3f 89 9a fd bc 54 10 0f bf
       -0.96700245 0.5686291 -0.030957477 -0.5588429
0001d0 76 e1 99 3d 2b e1 29 bf 10 24 83 be d5 f0 9a 3e
       0.075137064 -0.66359204 -0.2561345 0.30261865
0001e0 a0 c1 ad be c9 17 76 3e df b0 8c 3c 89 f0 94 be
       -0.33936787 0.24032511 0.017174182 -0.29089764
0001f0 8b 3f a0 3e 02 1c 8c be b8 66 93 be eb 73 50 be
       0.3129848 -0.27365118 -0.28789306 -0.20356719
000200 f4 ba b7 bd a6 24 13 3e 2a 4d 05 3d 7b 12 5a be
       -0.08971205 0.14369449 0.032544293 -0.21296112
000210 3f dd 86 3d eb 21 d1 3d 17 6a 86 3d 89 d0 6c be
       0.06585168 0.102115475 0.06563204 -0.23126425
000220 2a 50 0a be bf 71 72 3f 76 4d 68 3e 6a b0 b4 be
       -0.13507143 0.9470481 0.22685799 -0.35290843
000230 eb f3 80 3f 2b 57 fe be 04 73 3c bf 57 1d 0d bf
       1.0074438 -0.4967588 -0.73613 -0.55122894
000240 5c d4 80 bf b9 b6 50 3e bd 1c f3 3d 3c a5 10 3d
       -1.0064807 0.20382203 0.11870716 0.03531383
000250 43 c9 5b bf 9a 4f 1e bf d8 17 69 3f a0 dc 55 be
       -0.85853976 -0.6184021 0.9105201 -0.20884943
000260 c4 93 fa 3e 6a c6 80 3e 06 07 2a bc 0c 68 4e bf
       0.4894086 0.25151378 -0.010377651 -0.8062751
000270 d8 17 8a 3f 85 29 ac bf 1f 93 17 bf 9b 8a a1 3f
       1.0788527 -1.3450171 -0.59208864 1.2620424
000280 f5 7e 00 3f 70 36 03 3d 7a c1 67 3e 64 b9 8c 3e
       0.5019372 0.032034338 0.22632399 0.27485192
000290 4c f5 92 3f 75 a5 36 bf 68 11 63 bd 06 c8 c6 3e
       1.1481109 -0.7134622 -0.05543652 0.3882448
0002a0 93 e9 83 bf fb 1b 6c 3f cc fc 7b 3e 6f b2 68 be
       -1.0305656 0.92230195 0.24608153 -0.22724317
0002b0 45 1d 61 3f 94 ad 18 3e 99 eb d9 bd e0 a2 99 be
       0.87935287 0.14909965 -0.1064064 -0.30007076
0002c0 6f 19 8b 3d 73 24 f0 3d 59 8d 7d bb cb fa 0c be
       0.067919604 0.11725702 -0.0038688986 -0.13767545
0002d0 ad 18 ad bd 5d c3 59 3f 13 9f de 3d 99 90 6c 3e
       -0.08451972 0.85063726 0.10870185 0.23102035
0002e0 0a 59 be 3f 86 91 9e 3f 1a c7 a5 3e 32 7e 20 bf
       1.4870923 1.238816 0.32378465 -0.6269256
0002f0 ec 03 69 bf 5c f3 75 bd e2 1b 20 be 3a bd 0c 3d
       -0.9102161 -0.06004654 -0.15635636 0.034360148
000300 05 f3 75 bf 45 d5 e1 bf 14 1e db 3f 4d db 15 3f
       -0.96073943 -1.764321 1.7118554 0.5853775
000310 75 28 f1 be 8a 5f 68 3e 62 8a c4 bc 63 cc 9e bf
       -0.4710118 0.22692695 -0.023991767 -1.2406124
000320 ae 70 51 3f b2 bb 40 bf b7 d4 29 bf c4 3b b7 3f
       0.8181256 -0.752864 -0.663402 1.4315114
000330 4d 3f 20 be 3d 45 b2 be 0c 58 0c bf c4 3b c3 be
       -0.15649147 -0.3481845 -0.5482185 -0.38131535
000340 53 9a 4e 3f 08 e8 83 3d 44 09 5b 3f e3 2a 1f 3f
       0.8070423 0.06440741 0.85561013 0.62174815
000350 55 6b ee bf a4 4a ea 3e 8d 7f 54 3d 36 2f 2b 3e
       -1.8626505 0.4576007 0.051879454 0.16717228
000360 0c 5f b6 3e f7 8e 94 3f 9a 62 44 3c b6 66 42 bf
       0.3561939 1.160613 0.011986399 -0.75937974
000370 89 c4 e3 3b eb d9 13 bc 4d e7 65 3d bd 16 a2 be
       0.006950919 -0.009024124 0.05612879 -0.31657973
000380 e9 bc 0b be bf 0a 31 3e 76 0c 41 be d1 bf 01 be
       -0.13646282 0.17289256 -0.1885241 -0.12670828
000390 b9 fd 93 bc d7 08 59 be 3c 23 d3 3d 1c 9f 85 bd
       -0.01806532 -0.21194778 0.10309455 -0.06524488
0003a0 68 99 51 be 97 8c 7e bd 72 4d 1c be 18 e5 d6 bc
       -0.20468676 -0.062145796 -0.15263918 -0.026232287
0003b0 d2 b0 3c 3e a6 8e 04 3f ee 8c d7 be 88 44 21 3d
       0.18426827 0.51780164 -0.42099708 0.039371997
0003c0 a8 2c 9c 3e c6 e7 92 3e 49 57 4b bc 06 70 8e be
       0.3050282 0.28692454 -0.012410947 -0.27819842
0003d0 11 cf 58 bd 58 d4 c6 3e da 02 2a 3e ed bb 85 3e
       -0.05293185 0.3883388 0.1660265 0.26119938
0003e0 58 7f 41 bd e1 b0 5c 3e 53 bd b8 bd 99 0f 20 bf
       -0.047240585 0.21551849 -0.09020486 -0.625238
0003f0 07 e5 88 3e cc 67 ed 3e 58 5d 47 be 66 ee 45 3d
       0.26737234 0.46368253 -0.19469202 0.048323058

fc1.bias f4 [256]
000000 14 4e 23 3e 4c 0c df 3d 40 ac f3 bd c8 4a 86 39
       0.15947753 0.10891017 -0.118980885 0.00025614188
000010 fe 6f b8 bd fc 5c 46 3d 23 ee 00 3d be 3c 33 bd
       -0.09005736 0.04842852 0.031477105 -0.0437591
000020 e8 db f1 3d 78 37 b8 bd ae dd fa bd 09 fc 5d bd
       0.11809522 -0.08994955 -0.12249313 -0.054195438
000030 e6 c6 0c 3e dc cf b1 bd 36 bd f2 3c 0f c7 58 3c
       0.13747749 -0.08682224 0.029631238 0.013231053
000040 81 fa 21 be c3 67 14 3e d0 8f 06 bd 60 bf f4 3a
       -0.15818216 0.14492707 -0.032851994 0.0018672757
000050 a3 16 f8 bd 50 e4 bf bd 4c 94 44 3c 43 81 13 39
       -0.121136926 -0.09369719 0.011998247 0.00014067166
000060 92 05 bf 3d 43 83 9c bd 78 67 23 3d 8c 3d 75 3d
       0.09327234 -0.07642224 0.039893597 0.05987315
000070 38 cc 9f bd 13 61 17 bc 29 cc 03 3e 67 97 fc bd
       -0.078026235 -0.009239453 0.1287085 -0.12333565
000080 40 7d d9 3d 45 00 26 be 66 ad cd bd c8 71 5a 3d
       0.10619593 -0.1621104 -0.10042839 0.053331167
000090 f1 05 5f bd 87 00 d3 bd 73 14 13 3e 47 f7 76 bd
       -0.054449026 -0.10302835 0.1436327 -0.060294416
0000a0 45 cb 20 3c ec a1 27 3e 86 0b 37 bd 0b 74 be bc
       0.009814088 0.16370362 -0.044688724 -0.023248693
0000b0 da 18 63 3d 75 9b 0f be bd 30 bd bd 60 e7 8d bc
       0.055443622 -0.14024146 -0.09237812 -0.017322242
0000c0 37 d6 5f bd d1 f5 f8 3d 5d d3 85 bd 25 40 b8 3d
       -0.05464765 0.12156261 -0.06534455 0.089966096
0000d0 25 1f b0 3d 39 7c 9e bd bf 4d c9 3b 11 37 dd 3d
       0.0859969 -0.07738537 0.0061433013 0.10801519
0000e0 35 71 17 be 7b c2 08 3e 83 50 ea bd 5f 21 a4 3d
       -0.14789279 0.13355438 -0.11441138 0.080141775
0000f0 a7 72 b8 3d 82 84 88 3d 96 ce 02 be c6 bf d8 bd
       0.09006243 0.06665899 -0.12774119 -0.10583453
000100 82 bc ed bd 44 ab 5f bd 34 62 19 3d 6c 88 12 be
       -0.11608221 -0.05460669 0.03744717 -0.14309853
000110 91 b7 4a bc 92 28 34 be c0 6b 10 3e 61 56 05 3e
       -0.012372867 -0.17593601 0.14103603 0.13021232
000120 7e 98 6c 3d 50 4b 32 bd e8 e3 3a bb eb 59 b8 bc
       0.057762615 -0.043528855 -0.002851719 -0.022503814
000130 da 1b b9 3d 84 32 69 3a d0 d9 f8 3c 45 6c be 3d
       0.090385154 0.0008895772 0.030377299 0.092979945
000140 fc c3 2d 3c 4f 46 97 3a 71 6b b9 bd 5d cd c3 3d
       0.010605808 0.0011541339 -0.09053696 0.09560654
000150 8a de 79 3d ac 92 09 3d dd 63 f4 3d 17 cb af 3d
       0.061003245 0.033587143 0.1193311 0.08583658
000160 16 c0 de bd f9 4d 82 3d 73 e7 3e 3d 94 23 ed 3d
       -0.10876481 0.06362528 0.046607446 0.115790516
000170 82 26 49 bd d2 1b 0f 3d 4c c8 91 3d 34 c8 ea bc
       -0.04910899 0.03493864 0.07118282 -0.028659917
000180 bc 9b a1 3a c1 db 94 bc 78 a1 dd bd f0 89 0a 3b
       0.0012329738 -0.018171193 -0.10821813 0.0021139346
000190 53 ae b6 3d c6 2c e5 3d f9 34 1d 3d e6 5e d5 3d
       0.089199685 0.111901805 0.038380597 0.10418491
0001a0 60 27 de bc 4e 13 59 3d 51 ce a4 3b 49 f5 25 bc
       -0.027118385 0.052996926 0.0050294776 -0.010129281
0001b0 6b 09 94 bd 4a c6 13 be c7 a8 92 3d e0 9e 77 bd
       -0.07228359 -0.1443111 0.07161098 -0.06045425
0001c0 3d 7d 1f 3d c9 0f 69 bc 78 22 3e 3d 55 c0 0b 3c
       0.038937796 -0.014224955 0.04641959 0.008529742
0001d0 28 49 01 be 87 21 b6 bd d1 3f 5a 3c 0b e0 92 3d
       -0.12625563 -0.088931136 0.013320879 0.07171639
0001e0 3f d1 c6 bd 31 d3 bb bb 24 e2 e2 bc 79 9a 98 bd
       -0.09707879 -0.005731963 -0.027695723 -0.07451338
0001f0 85 55 6a bd 80 32 04 be 46 ac af bd 00 5a fd bd
       -0.057210464 -0.12909889 -0.085777804 -0.12370682
000200 e8 3b 2c bd c5 95 bc 3d 2e 9a 9c 3d 67 55 50 bd
       -0.04204932 0.09208254 0.07646595 -0.050862696
000210 8c 71 1f 3e 1d 0c d8 bd de 66 08 bd 4c a8 98 3c
       0.15570658 -0.105491854 -0.033301227 0.018634938
000220 be 89 a1 3d 3b 1a 28 bd 11 9c d7 bd a0 5c 76 3b
       0.078876 -0.04104064 -0.10527814 0.003759183
000230 5d f8 d1 bb 30 4f a0 3d 71 38 01 3e 26 1c 6f bd
       -0.006407781 0.07827604 0.12619187 -0.058376454
000240 d3 50 40 bd a8 aa 20 bd 51 48 4b 3e 8e 03 cd bd
       -0.04695208 -0.03922525 0.19851805 -0.10010444
000250 ee f2 af bb 21 50 c7 bb 31 04 df bd eb b8 57 bd
       -0.0053695356 -0.00608255 -0.10889471 -0.052666586
000260 9c 2e 99 bd 3b d3 0b be 84 69 f0 bd b1 2c 8e bc
       -0.07479593 -0.13654797 -0.117388755 -0.017355295
000270 38 99 8b bd 0b c9 03 be cf 8f d6 3d 17 d8 b7 bd
       -0.068163335 -0.1286966 0.10476648 -0.08976763
000280 d3 f6 08 3e e9 da da 3c 5a ea fb bd 9e 08 04 3e
       0.13375406 0.026715713 -0.123005584 0.12893912
000290 5d be e2 3d f3 1e c0 3d 1d 78 c3 3d 92 19 26 3d
       0.11071465 0.09380903 0.09544394 0.04055173
0002a0 92 b5 6a bb 4e b4 26 bb 01 2e b5 bd 1a 23 06 3c
       -0.003581379 -0.002543706 -0.08846665 0.00818708
0002b0 e1 13 05 3e f0 0c 31 3c f3 82 a9 3a ed de 06 be
       0.12995864 0.010806307 0.0012932703 -0.13170977
0002c0 b8 99 03 3e 48 f7 fe bd 70 1d 0c 3c 97 78 04 be
       0.12851608 -0.12449509 0.00855194 -0.12936626
0002d0 e7 92 f0 bc 03 fe f7 bc 96 0c 2d bd 61 2c 22 3d
       -0.029366923 -0.03027249 -0.04224833 0.039593104
0002e0 bd 6c bd 3d 1c 34 5c bd 7e f4 75 bd 4b 04 a6 3d
       0.09249256 -0.053760633 -0.06004762 0.081062876
0002f0 bd b2 cc 3d a7 b7 10 bd 20 84 12 be e3 66 ed 3d
       0.09995029 -0.035331395 -0.14308214 0.1159189
000300 e5 70 50 bd f3 59 a3 bc 3a 75 10 3e b1 d5 98 3d
       -0.050888915 -0.019940352 0.14107218 0.074626334
000310 05 ef 41 3d 74 6a db bd 93 99 65 bb 6a 6e 8f 3d
       0.047347087 -0.10713664 -0.0035034164 0.07003482
000320 78 94 3e bd ec 8a f6 3d a4 86 f3 3d 12 af dd 3d
       -0.04652831 0.12038216 0.11890915 0.10824408
000330 ed a0 6c 3b 4a e8 81 bd 38 ff d9 bd 4a 25 ab 3d
       0.0036106661 -0.06343134 -0.10644382 0.08356722
000340 a3 e7 db bb 1f 09 cd 3d 44 e1 a2 bd c3 cf 02 3e
       -0.006710963 0.10011505 -0.07953122 0.12774567
000350 f5 d3 36 3e 07 28 12 be 39 bc be 3d 98 6e 0c be
       0.17854293 -0.14273082 0.093132444 -0.13714063
000360 4e 20 98 bd e0 a4 00 bc 22 42 80 3d 16 1d 1c be
       -0.07428037 -0.007851809 0.06262614 -0.1524547
000370 df 46 19 3e d5 1c e9 3d 87 40 ac 3c ae b8 38 3d
       0.14968441 0.113824524 0.021026863 0.045098
000380 b2 0c 54 bd cf 1e 6f 3c 29 24 01 bd 92 d1 cd 3d
       -0.05176992 0.014594748 -0.031528626 0.10049738
000390 9c 3e 9c 3c 9a 6b 51 bd 8e d5 d3 3d 5b 53 5a bd
       0.019072823 -0.051128007 0.10343467 -0.05330215
0003a0 25 76 e6 3d 30 52 19 3d 09 e9 00 be c9 27 89 bc
       0.11253003 0.037431896 -0.12588896 -0.016742604
0003b0 20 a1 93 3a 32 2f e3 bc 0e 8a ff bd 0e 35 5c bd
       0.0011263229 -0.027732465 -0.12477504 -0.053761534
0003c0 7b 0d 16 3e c3 97 13 be b9 9f e4 bd b9 f7 69 3d
       0.1465358 -0.14413361 -0.11163277 0.057121012
0003d0 3e 6a c6 bd ef c3 1b 3e 3e 2b 32 3d e5 ef ac 3d
       -0.09688233 0.15211461 0.04349827 0.08444194
0003e0 c3 6d 36 bd 1a d7 e9 bc 13 43 c4 bd 18 8f da bc
       -0.04453827 -0.028544951 -0.09583106 -0.02667956
0003f0 fd 5f b8 bd 8a 46 2e 3d 6f 80 91 bd b1 cc d1 3d
       -0.09002683 0.04254774 -0.07104575 0.1024412

fc2.weight f4 [128, 256]
000000 e6 d9 a6 3d 9b 93 1e bd 30 82 1f 3d a3 2a 4c 3d
       0.081470296 -0.038714986 0.038942516 0.04984535
000010 bc 91 93 3c 87 32 2d 3e 00 73 9d bd cd a4 02 bd
       0.018013828 0.16913806 -0.0768795 -0.031895448
000020 d2 44 1d 3d 33 f0 d7 3d d2 e9 da bc 0a 75 cd 3c
       0.03839571 0.10543861 -0.026722822 0.025080223
000030 74 cb eb 3c 4c 1b 36 bd 37 cf fb bc f0 b9 28 3d
       0.028783537 -0.044459626 -0.030738456 0.04119295
000040 68 3e c7 bc 06 87 1e 3d 61 63 02 3b 35 0e da bd
       -0.02432175 0.038702987 0.001989566 -0.10647241
000050 59 f3 a3 3d 4f 67 62 bd e9 c2 71 3d 83 2a e1 bc
       0.08005399 -0.055274304 0.05902377 -0.027486091
000060 9b 74 a7 3d 2c 40 3f bd e3 c4 59 bc 10 92 4e bd
       0.081765376 -0.04669206 -0.01329157 -0.050432265
000070 62 2a 8b 3d 90 53 e1 bc 24 2f b7 3d 23 f7 b2 39
       0.06795193 -0.027505666 0.08944538 0.00034134937
000080 c3 eb 0a 3c 4a 0c 3f bd 02 d7 15 bd bd 1d 03 bd
       0.008479062 -0.04664258 -0.036582 -0.032010783
000090 23 20 a4 bd 50 92 96 3d ed 3e 58 bd 34 75 f8 bc
       -0.08013942 0.07352126 -0.052794386 -0.030329324
0000a0 74 62 a9 3d 83 b5 8b bc b5 a0 2b 3e 00 dc 28 bb
       0.082707316 -0.017054325 0.16760524 -0.0025765896
0000b0 61 a8 54 3c 0d 1f ae bd f8 04 7d 3c ce 30 77 bd
       0.012979598 -0.08502016 0.015443079 -0.06034928
0000c0 a8 f4 5f bb 63 35 7a 3c 69 e1 8f 3d 0a 3d 63 bd
       -0.0034172926 0.015271517 0.070254155 -0.055478133
0000d0 63 35 dc bc 22 24 12 bc 73 ce c9 3d a5 49 1e bd
       -0.026880926 -0.008919748 0.0985383 -0.03864445
0000e0 ff 74 05 bd ec 9c b1 3b bd cc 7a bd b2 0e 3e 3e
       -0.03258228 0.005420318 -0.06123041 0.18560293
0000f0 34 7e dd bc 45 cd 17 ba 71 44 b8 3c cb a1 27 3d
       -0.027037717 -0.00057907804 0.022493573 0.040925782
000100 4f 24 5e 3d ca 5f 48 3c 59 aa 8e 3c a2 44 34 3e
       0.054233845 0.012229869 0.017415212 0.17604306
000110 b1 e2 db 3c ab e3 37 3d 80 6e 3f 3d d1 ed 06 3c
       0.026841493 0.044894855 0.04673624 0.008235411
000120 f2 5b c3 3c 24 45 0f 3d a9 3e f6 bc ac 4f 14 3e
       0.023847554 0.034978047 -0.030059176 0.14483517
000130 5e a1 4c bd 13 20 02 bc 6e b2 85 bd 1d eb ea 3c
       -0.04995858 -0.007942217 -0.065281734 0.028676564
000140 70 f5 8e bd 75 cc 41 3d 20 21 5a 3c 10 12 2c 3d
       -0.06980407 0.047314126 0.013313562 0.042009413
000150 05 98 e5 bd d8 c2 9e bd c0 dd 8f 3d 04 07 2b bc
       -0.11210636 -0.07752007 0.07024717 -0.010438684
000160 38 15 14 bb e1 97 a9 bd 31 17 4f bc d4 36 d2 bc
       -0.0022595655 -0.08280922 -0.012639807 -0.02566091
000170 4e 08 47 be 63 fb 04 3e 42 75 fd 3c 4d 4b e8 3d
       -0.19436762 0.12986521 0.030939702 0.113424875
000180 d5 38 f7 3c a2 76 13 bd 33 d6 97 bc 4a 2f 3c 3d
       0.030178467 -0.03600181 -0.018534755 0.045943536
000190 00 22 15 3d 9c 0c ab bc 55 56 4a bd cf 2a e8 3d
       0.036409378 -0.020880036 -0.04939874 0.1133629
0001a0 ec e7 0f 3d 1f 5a 4f bb b8 d0 86 bd c6 45 24 bd
       0.035133287 -0.003163941 -0.06582779 -0.040105604
0001b0 3e c9 3a 3d 7f 2e bd bc fd c8 7d bd 32 0c 2b bd
       0.045602076 -0.02309346 -0.061959255 -0.041759677
0001c0 16 c0 5f bd fa 35 c3 3c 44 95 e2 bc 79 cc b0 bc
       -0.054626547 0.023829449 -0.027659066 -0.021581875
0001d0 a6 e3 20 3e 26 a0 65 bd d2 64 e7 bb 3a 9d 28 3c
       0.15711841 -0.056060933 -0.0070615793 0.010291392
0001e0 0b a5 9d 3c 68 6e 71 bd 87 5f fc bc e6 1f 91 bd
       0.019243738 -0.058943182 -0.03080727 -0.07086162
0001f0 26 3e 5f bd 83 83 83 bd ce 7f 6d bd e3 1a 82 bd
       -0.05450263 -0.06421568 -0.057983212 -0.063527845
000200 cd f6 6d 3a 31 3b 03 3e 77 0a 2e 3e ad 4d 95 bd
       0.00090776087 0.12815548 0.1699618 -0.07290206
000210 2f cb 93 3c 0d 25 3d bd b1 93 90 3c fb e0 17 3e
       0.018041221 -0.046177913 0.01764855 0.14831917
000220 e7 27 87 3b 66 74 44 be cd 94 89 3c 90 23 f2 3d
       0.00412463 -0.19185027 0.016794587 0.11823189
000230 c6 68 ef 3d 82 f5 fe bb 21 a2 00 bc 12 b2 6e 3d
       0.11689906 -0.0077807317 -0.007851155 0.05827529
000240 6e 7f a2 3d 59 3d f4 3c 7f 26 84 bc fc 29 2a bc
       0.079344615 0.02981441 -0.016131638 -0.010385986
000250 0e 12 8c 3c ac c9 87 3d fc 14 35 bc 77 6c 0e bd
       0.017098453 0.06630263 -0.011052366 -0.03477141
000260 3e 10 17 bd 58 13 65 bd 1e 9f 10 bd 57 7a 10 b9
       -0.036880724 -0.05592665 -0.035307996 -0.00013778485
000270 50 6c 13 3e 4f ae 6d 3d ae 9e 20 bd eb 56 bc 3c
       0.14396787 0.05802756 -0.03921383 0.022990664
000280 4b 2c e1 3c 25 85 74 bd ef 6b 2e be f8 71 fb bc
       0.02748694 -0.05969729 -0.17033361 -0.030693993
000290 74 0a 59 3d 40 e9 6b bc 81 96 53 bd 2b 73 18 bc
       0.052988485 -0.014398873 -0.051657204 -0.009304802
0002a0 fe 85 34 bc 9d 2f c9 bc d9 94 87 bd 1f e8 ca bc
       -0.011018274 -0.024558837 -0.06620187 -0.024768887
0002b0 1a 81 26 bd f4 c5 48 bc 4d b6 e7 3d a1 dc be bd
       -0.040650465 -0.012254227 0.11314068 -0.093194254
0002c0 ff 9b 8e bd d7 07 7d 3d ee 58 51 3d c3 da 84 bd
       -0.06963348 0.061775055 0.0511102 -0.06487038
0002d0 ac 4c 60 3d 8f 42 85 3d 06 b3 24 bc 06 61 bb 3d
       0.05476062 0.06506836 -0.010052448 0.09149365
0002e0 68 fc 0e 3d 2a 84 97 3d 6e db 15 bd 78 27 09 be
       0.034908682 0.07398255 -0.036586218 -0.13393962
0002f0 7b b0 83 3c 3d 34 23 3d 5c 7c f0 bd ca 44 18 bd
       0.016075363 0.03984474 -0.1174247 -0.037174977
000300 11 62 86 3d b8 d2 15 3d f2 9c 53 bd 46 0c f3 bc
       0.065616734 0.03657791 -0.051663347 -0.029668938
000310 e8 0d 57 3e 6d fc 4c 3d d8 01 bc 3d 2a 05 04 bd
       0.21001399 0.05004542 0.09180039 -0.032231487
000320 0f 70 02 3d fb b7 42 bd 1d 94 7b 3c 56 35 79 3c
       0.03184515 -0.04753874 0.015355137 0.01521047
000330 72 8f 8d 3d c1 25 6c 3e 26 36 f7 3d d3 5e 5b 3c
       0.06912126 0.23061277 0.12070875 0.013389307
000340 32 be 2b 3d 1f 1e c9 3c f6 10 0e 3d a3 56 8a 3c
       0.04192943 0.024550496 0.034684144 0.016887015
000350 c5 50 04 3a e6 b2 fe 3a b5 57 d5 ba 7d 64 79 bc
       0.0005047436 0.0019431978 -0.0016276749 -0.015221712
000360 23 1f 43 3e 1e 1e af 3d 8d 6d fc 3d 8e 2f 27 bd
       0.19054846 0.08550666 0.12325583 -0.040816836
000370 05 fd 2e 3d 1f de 6a be 34 c6 11 3e 3c 5e c2 3d
       0.042721767 -0.22936295 0.14235765 0.0949063
000380 85 22 20 3d 2e 72 6a bd fc fb fe bc 92 08 18 3d
       0.03909542 -0.057237796 -0.031126015 0.03711755
000390 dc e9 88 be 4f 8c 03 3d 06 59 94 3a b4 fe 73 bc
       -0.2674092 0.03211623 0.0011318035 -0.014892269
0003a0 f9 3f 6d bd de 76 3e bd 8b 6c 38 bd 61 81 43 3b
       -0.057922337 -0.04650008 -0.04502539 0.0029831755
0003b0 f0 31 43 bd 0f c4 de 3b 2c 39 c8 3d c9 6c 67 bc
       -0.047655046 0.0067982743 0.0977653 -0.0141250575
0003c0 1c 33 78 bd 25 34 88 bb 61 d8 b4 bd 2f b7 67 bd
       -0.060595617 -0.0041566067 -0.088303335 -0.056571182
0003d0 4e be a2 be 7f 70 b1 3b 40 28 44 3c 05 8e 07 be
       -0.31785816 0.005415022 0.011972487 -0.1323777
0003e0 51 29 2f 3e 9e 32 bd 3c 8f f4 09 be b3 92 34 bd
       0.17105605 0.023095425 -0.13472198 -0.044085216
0003f0 b0 39 1f 3c b7 b7 9f bd e1 23 ad 3c 46 b9 17 be
       0.009718344 -0.07798713 0.021135272 -0.1481677

fc2.bias f4 [128]
000000 6e 19 e2 bd 5a 7f 48 3d 93 35 20 3e 4b c2 84 3d
       -0.110400066 0.048949577 0.15645437 0.06482371
000010 1e c5 59 be 8c 4c 1d 3c 49 79 75 3c 84 e4 3b bc
       -0.212666 0.00960077 0.01498253 -0.011468057
000020 16 89 1f 3d 25 58 7d bd 1a 79 16 3d da 13 8a 3d
       0.038949095 -0.06185164 0.036736585 0.06742068
000030 f0 77 e0 3c f7 cb 6b bd d3 42 9e bd 57 19 e8 bb
       0.02740094 -0.057567563 -0.077275895 -0.007083099
000040 53 e1 69 3d 00 65 08 bd 8c 5d 73 3d 31 84 bb 3d
       0.05709965 -0.033299446 0.059415385 0.09156073
000050 e3 1f 12 be 0d 0e c5 3c c7 d0 79 bc 0d b1 47 bc
       -0.14269976 0.024054551 -0.01524753 -0.012188208
000060 b3 52 72 3d 98 ce d3 3a c4 cb 6d bb 51 53 cd bd
       0.0591609 0.0016159592 -0.0036284784 -0.10025657
000070 a7 3d c6 bc d0 86 05 3e c6 48 27 3d 22 ac 68 3d
       -0.02419932 0.13039708 0.040840887 0.056804784
000080 ae b2 d1 bd d2 9a 68 bd ed 61 ba 3d 53 92 65 bc
       -0.102391586 -0.056788273 0.09100709 -0.014011937
000090 02 fa c2 3d eb 08 c1 bc 67 de d7 3c 28 0d 48 3d
       0.095203415 -0.023563823 0.026351167 0.04884067
0000a0 c4 59 97 3d 68 00 49 bd eb a8 ca bb ea 82 83 3c
       0.07390168 -0.049072653 -0.0061846874 0.016053636
0000b0 4a 85 ba bd d7 9f 35 bd 42 0e c9 bc 3a 28 7e bd
       -0.09107454 -0.04434189 -0.024542931 -0.06205008
0000c0 20 e9 61 bc 83 8e 4e bb 98 08 93 bd c5 df 77 3c
       -0.0137884915 -0.003151805 -0.071793735 0.015129034
0000d0 8b 0f 10 3e fe 8b ba bd 70 0b 5d bd a4 3c 1d be
       0.14068429 -0.09108733 -0.053965986 -0.15355164
0000e0 f3 f0 8f bc 91 ca dc bd b5 f9 97 bd e1 b6 a0 bb
       -0.017570948 -0.10780824 -0.07420675 -0.0049046134
0000f0 89 b0 58 3d 68 66 42 3d 1a da 3d bd f3 66 61 bd
       0.052902732 0.047460943 -0.046350576 -0.05502982
000100 dc a1 ba bc e9 94 f0 3d b6 21 0a 3d e0 c2 e6 3d
       -0.022782259 0.11747152 0.033723556 0.11267638
000110 02 7b 03 ba 26 9d bb 3c 03 be 56 bd 4b 47 c4 3c
       -0.0005015583 0.022902083 -0.052427303 0.023959776
000120 4c 70 bf 3d 5f 07 61 bb 54 7a 7e 3a 7f e8 b4 bc
       0.09347591 -0.003433667 0.00097075594 -0.022083519
000130 a3 fd ee 3c bb e4 a8 bd 19 92 30 bd d7 f8 8e 3d
       0.029173678 -0.08246752 -0.04310808 0.06981056
000140 0a 86 63 bd 55 58 10 3d 6a 49 cb 3c 3c 8a 7d 3d
       -0.05554775 0.03524049 0.02481528 0.06189941
000150 77 bc ab 3d 3f 38 81 39 8e 9f cc bc e7 0e 7a bd
       0.08385556 0.00024646704 -0.024978425 -0.06104937
000160 b4 5d ff bb 6f 7f 79 3c b4 d3 99 3c 1a 43 8c bb
       -0.0077931527 0.015228136 0.018777706 -0.00428046
000170 b3 b7 1e 3e 6d 2c 1b 3d e1 ea 23 3d 24 f8 43 3d
       0.15499763 0.037884165 0.04001892 0.047844067
000180 a5 89 5d 3c 03 bd 30 3d 2d 63 ea bc f0 9c 98 bd
       0.013521587 0.043149006 -0.028611744 -0.074518085
000190 91 6e da 3c 7e f8 a0 3e 73 a9 d6 3c 8d f0 6e bd
       0.02666405 0.31439584 0.026203847 -0.058334876
0001a0 9a b4 0f bd 8b e1 91 bb e5 60 b9 3d 6c 09 84 bd
       -0.035084344 -0.0044519356 0.09051684 -0.064471096
0001b0 b6 f5 20 be 9a c5 4a be 79 1a d6 3d fc f6 45 bd
       -0.15718731 -0.19801942 0.10454268 -0.048331246
0001c0 b3 a6 cb 3d bb 81 08 3d fe bb b1 3c 2a 3b 04 be
       0.09943905 0.033326846 0.021696087 -0.12913194
0001d0 88 27 51 3d 7b fa b7 bb bb 53 7f 3c d0 91 87 3c
       0.05106309 -0.0056145764 0.015583928 0.016549021
0001e0 86 0e 97 3c 2b 25 85 bc a5 40 aa bc 87 c7 eb bd
       0.018439543 -0.016253075 -0.020782778 -0.11512666
0001f0 d2 8a 21 be 55 cd cc bc dd c8 ef 3a 1b 43 1e bd
       -0.15775612 -0.025000254 0.0018294115 -0.038638216

fc3.weight f4 [64, 128]
000000 08 c0 0e be 23 fd a8 3c 4f f7 26 3c 61 cb 31 be
       -0.13940442 0.020628517 0.010190799 -0.17362739
000010 80 34 14 3e 8f a2 ea bd d2 ce 46 bd 00 b0 d4 3d
       0.14473152 -0.11456787 -0.048537083 0.10385132
000020 de 55 45 bc 66 47 77 bc 78 15 20 be 11 76 de bc
       -0.012044398 -0.015092706 -0.1563319 -0.027155908
000030 51 77 5c bd 63 fb f9 3c 6b f7 bf 3c 7e e8 04 be
       -0.053824726 0.030515378 0.023433408 -0.12979314
000040 c1 91 ea bd 94 f0 0e 3d 86 06 e5 bd 68 2b a7 bd
       -0.114535816 0.034897402 -0.11182885 -0.08162576
000050 5c d8 a0 3d 57 d9 09 3e ca 32 37 3c 70 bd 36 be
       0.07853767 0.13461815 0.011181543 -0.17845702
000060 df 3b 1a bd d4 3b 87 bb 9d 13 98 3b 47 b7 25 3e
       -0.037654754 -0.004127005 0.00464101 0.16183196
000070 19 59 4a bd 44 c6 11 3c 54 94 c7 3c 8c c8 20 be
       -0.049401376 0.008897368 0.02436272 -0.15701503
000080 67 51 2f be 77 33 3c bd bc 1e ab bc c3 6a 6c 3d
       -0.17120896 -0.04594752 -0.020888679 0.057719003
000090 92 1b 30 3e e1 81 4d 3d 08 89 3c bd 06 a2 8f bd
       0.17198017 0.05017269 -0.04602912 -0.070133254
0000a0 0a 46 3b 3d 64 d5 10 bd 11 75 75 3b e6 f4 a6 3d
       0.04572109 -0.035359755 0.003745381 0.081521794
0000b0 2a b7 45 bd ed e1 5d 3b 83 c8 1f bc 16 91 69 3c
       -0.048270382 0.0033856586 -0.009752396 0.014255783
0000c0 87 c1 86 bd e9 b8 29 be 05 11 ee bb 02 65 b6 3d
       -0.06579881 -0.16574444 -0.0072652125 0.089059845
0000d0 4b 2d 51 3e 32 24 1c be 88 6b aa bd 82 66 09 3d
       0.20427434 -0.15248182 -0.08321291 0.033545025
0000e0 2c d9 f2 3c d4 fb 7c bd ac 25 c1 be 27 6c ec 3c
       0.029644571 -0.0617636 -0.37724054 0.028860165
0000f0 b7 6c cb bb 14 10 1a be 54 9b 4d 3d 34 29 32 be
       -0.006208028 -0.15045196 0.05019696 -0.1739853
000100 a0 f9 15 be 51 39 be be 39 d8 b2 bd 92 65 7b bd
       -0.14646006 -0.37153104 -0.087326474 -0.061376162
000110 ba 43 3d 3e 50 59 df bb e5 a0 d2 bd 20 10 b6 3d
       0.18482867 -0.006816067 -0.102845944 0.08889794
000120 c0 a5 8b bb f0 d9 3d be ad 4d a3 bd 98 93 66 bd
       -0.0042617023 -0.18540168 -0.079738 -0.0562931
000130 fd 0e fa bd 77 15 77 bd 1e 76 2b bd 41 17 a4 3d
       -0.1220989 -0.060323205 -0.041860692 0.08012248
000140 bf d0 ae bd b9 62 ab 3c 2d be f2 bc 14 de 81 3d
       -0.08535909 0.020921098 -0.029631699 0.06341186
000150 55 40 f3 bd 8f 69 d6 bc c9 8d 98 bd 31 e5 8c b9
       -0.11877505 -0.026173381 -0.07448918 -0.00026873642
000160 c9 b6 b8 bd bf 2e cf bc ce bf e1 bd 9f 73 a4 3d
       -0.090192385 -0.025290845 -0.11022912 0.080298655
000170 b0 cc 59 3d 55 d6 b8 3d 08 b7 d3 3c 21 6b 52 3c
       0.05317372 0.090252556 0.025844112 0.012842924
000180 5c 75 77 3e 30 bd 1a bd df 65 e8 bd 03 f6 9c bc
       0.24165863 -0.03777808 -0.11347555 -0.019160276
000190 32 3f 64 bd 64 ab 29 3d df 54 90 3d 88 8a e0 3d
       -0.05572433 0.041423216 0.07047438 0.10963923
0001a0 3a 8c 1b bc 65 eb 67 bd d0 e4 d8 3b 6d 4e 97 bd
       -0.009493882 -0.056620974 0.0066190735 -0.073880054
0001b0 c1 de ef bd 78 77 2c 3e 73 2c c2 bc c2 05 ea 3b
       -0.11712409 0.16842449 -0.023702836 0.0071417997
0001c0 98 e5 31 bd e8 c9 ab bd f7 ac 45 3c ca 2e c3 3d
       -0.04343185 -0.0838812 0.012065164 0.09530409
0001d0 db d4 14 be ec 14 9e bd a2 a7 aa bd 23 15 e1 bd
       -0.14534323 -0.07718834 -0.08332755 -0.1099036
0001e0 69 d6 6d 3e 20 02 9c 3c f6 51 de 3c fa 51 07 bd
       0.23226322 0.019043982 0.027138691 -0.033037163
0001f0 4a 56 f8 bc 07 ee ec 3d cc f1 1c be b9 00 85 bd
       -0.030314583 0.115688376 -0.15326613 -0.064942785
000200 9c ee 10 3b 80 03 dc 3d 3a 26 60 3c aa 48 f3 3c
       0.0022114879 0.10742855 0.013680989 0.029697735
000210 92 b3 83 3e c6 69 85 3d b9 27 e1 3c bd 43 19 bd
       0.2572294 0.06514315 0.027484762 -0.037418116
000220 ee c7 ea 3b c0 cd d6 bc b6 9a ee bc f3 97 8c 3d
       0.0071649468 -0.026221156 -0.029126506 0.068649195
000230 32 42 98 3d 48 32 5b 3c 5a e7 6a 3d 5e 99 02 3c
       0.07434501 0.013378687 0.05734954 0.007971136
000240 f8 33 cd 3d 92 6b c8 3d 60 fd df bc 51 8d 73 3d
       0.10019678 0.097861424 -0.027342498 0.05946094
000250 df 5c 46 be 82 ea d4 be de fb 9d 3d 7c 02 a7 bc
       -0.19371365 -0.41585165 0.077140555 -0.020386927
000260 cf b8 5b 3d ce 5e 8c 3c 3d 4f e7 3d 16 33 04 3e
       0.053643044 0.01713505 0.112944104 0.12910113
000270 2e 2b 49 3e ad ca 89 3d 2f d2 0f 3e 85 9e 41 3d
       0.19645378 0.067281105 0.14045022 0.047270317
000280 bc da 63 be a3 e3 27 3d a5 c9 a4 bd b1 09 70 3d
       -0.2225141 0.040988576 -0.08046273 0.058602992
000290 24 31 17 3d 8b 83 ef 3d 96 50 37 3c 6c 63 19 3c
       0.0369121 0.11695012 0.011188647 0.009362083
0002a0 12 f0 2a 3d 45 ba 3f 3d 42 2c 0a 3e 16 5f 07 3d
       0.041732855 0.0468085 0.13493446 0.033049665
0002b0 48 9e 47 be 7a 1b 01 3e df 95 39 bc c2 6b ce 3c
       -0.19493973 0.12608138 -0.011327236 0.025197867
0002c0 34 c9 c6 bd 07 11 86 bd f9 5d 90 be 9b 0c 0a 3e
       -0.09706345 -0.065462165 -0.28196695 0.13481371
0002d0 a1 4f 72 3e 2f f4 8f bc 5b 1a 50 3d a2 8f 68 3c
       0.23663189 -0.01757249 0.050806385 0.014194401
0002e0 bb 73 6e 3c fd aa 36 3d a7 1f a1 be 58 13 f4 3c
       0.0145539595 0.04459666 -0.3146946 0.02979438
0002f0 35 51 65 bc 09 cf ad bd ed 94 00 3e e5 d3 ad be
       -0.013996412 -0.084867544 0.1255681 -0.33950725
000300 be e8 aa 3c f3 6b 7b be eb 8d 88 3c 5e a5 a7 bd
       0.020862933 -0.24552898 0.016669234 -0.08185838
000310 9b f8 82 bd 1d 1e 16 bd fb dd ff bd 8f 6f 16 3c
       -0.06395074 -0.036649812 -0.12493511 0.009181871
000320 d7 ec 94 3d 9e 35 2a bd 4b 38 16 be 0c 8e d9 3d
       0.07271736 -0.04155504 -0.14669912 0.106227964
000330 50 d7 9f bc 45 5d 78 bc c1 c0 0a 3d 2e 18 cf bd
       -0.019511849 -0.015158956 0.03387523 -0.10112034
000340 11 ff 0c 3e 9f df da bd c1 38 4d 3c ba 3e 48 3e
       0.13769175 -0.106871836 0.012525738 0.19555178
000350 65 95 13 be 11 87 98 3c 87 88 21 bd 35 5c 42 3d
       -0.14412458 0.018619092 -0.039436843 0.047451217
000360 ed 37 e6 3d d2 62 86 bd 20 a2 30 3d cb 9c 6f 3d
       0.11241136 -0.06561817 0.043123364 0.05849914
000370 95 0a 0f bd ca 46 03 3d 36 d1 65 3d ca cc 75 bb
       -0.0349222 0.03204993 0.056107722 -0.0037506097
000380 a7 81 1e bd a8 9c 04 bc 4c d8 e2 3d 59 28 b1 bc
       -0.038697865 -0.00809399 0.110764116 -0.021625685
000390 91 23 ee 3c 42 01 2c 3d 59 e0 ad bc b1 48 0c 3e
       0.029069694 0.041993387 -0.021225141 0.13699605
0003a0 d1 27 83 bd 57 a8 57 3d cf dc ec 3c 6b d8 a0 3c
       -0.06404079 0.052650776 0.028913883 0.019634446
0003b0 89 57 ae 3d 44 73 97 3e b3 df bc 3c 61 b3 a4 3d
       0.0851279 0.29580128 0.023055887 0.08042026
0003c0 8f d9 f6 3c 35 d3 b8 3d 10 f6 0e 3e 88 f9 9f 3d
       0.030133037 0.090246595 0.13961053 0.07811266
0003d0 88 7b ea bb cd c3 b4 39 e3 01 29 bc 90 be 9e 3d
       -0.0071558394 0.00034478158 -0.010315391 0.07751191
0003e0 92 ac 46 3e 8f d9 2d 3d c3 59 08 bd 54 e1 14 bd
       0.19401768 0.04244381 -0.03328873 -0.036347702
0003f0 a3 d2 a1 bd 21 bd f7 bc f6 bf a5 bb 10 be 18 bd
       -0.07901504 -0.03024155 -0.005058284 -0.037290633

fc3.bias f4 [64]
000000 06 7f 19 3d 20 a6 88 3d e2 d2 0f 3c 38 0c 1a 3d
       0.037474655 0.06672311 0.008778306 0.03760931
000010 eb 34 17 3d ba cd da bc 0e d0 0d bd 91 ec a5 bd
       0.0369157 -0.026709426 -0.034622245 -0.08101762
000020 46 31 33 bc fa 02 1d bc f1 e6 20 bd 55 97 a7 bd
       -0.010937041 -0.009583229 -0.039282743 -0.08183161
000030 43 2b f6 3c df fa 3a bc d0 fa 06 be 0e 62 3d bd
       0.030049926 -0.011412351 -0.13181615 -0.04623609
000040 a7 7b 94 3d e7 0f a9 ba 7f 23 61 bd cc f8 35 3e
       0.07250147 -0.0012898416 -0.054965492 0.1777069
000050 97 6e 17 bd 93 70 1e 3e 07 0b c8 3c e0 75 9c 3d
       -0.0369707 0.15472631 0.02441932 0.0763967
000060 98 11 c5 3d d9 f4 80 bd 62 c8 2d 3e 1a e9 23 3d
       0.09622496 -0.06296701 0.16970971 0.040017225
000070 9c 8c da 3c 96 c4 cb bc 73 86 13 be d0 11 8e 3d
       0.026678376 -0.024874013 -0.14406757 0.06936991
000080 19 3d 91 3d ee 1b 4a 3d 17 f2 46 3d e4 18 f0 bd
       0.070917316 0.049343042 0.04857072 -0.117234975
000090 a3 9f 0c 3d 1e c6 64 3d e8 89 ab 3d 7f 0c 00 3e
       0.03433193 0.055853 0.08375913 0.12504767
0000a0 a8 b2 17 bd ac d1 b8 3d 0e d2 b1 3c 3f f6 8d 3c
       -0.037035614 0.09024367 0.021706607 0.017329333
0000b0 40 32 d3 3c c4 9f b5 3d d6 eb ce bc 7f 7d 47 3d
       0.025780797 0.088683635 -0.02525894 0.048703667
0000c0 61 23 42 be e7 9f ca 3d dc 79 7f bd 72 c8 33 bd
       -0.18958808 0.0989378 -0.062372074 -0.04389233
0000d0 4e 00 10 3d 37 67 27 bb d1 3d 0c 3e 5b 56 71 3d
       0.03515654 -0.0025543699 0.13695456 0.058920246
0000e0 8e 7e 21 3c 1c 31 86 3d f6 05 c4 3c 16 20 55 3d
       0.009856833 0.065523356 0.023928624 0.052032553
0000f0 11 b0 0d bd 5f b5 99 3c 24 37 86 3e ed da 6d bd
       -0.034591738 0.018763242 0.26213944 -0.058070112

fc4.weight f4 [1, 64]
000000 2e 63 8f 3e 26 4f 1d be b2 ec f4 be 8a 37 a9 3e
       0.28005356 -0.15362224 -0.47836834 0.33050185
000010 03 c3 4c be 2a 23 61 be 24 ab ff 3e e6 ab c3 be
       -0.19996266 -0.2198607 0.49935257 -0.38217086
000020 7e 5d 02 3e 10 18 41 be e7 93 a6 be fb 17 5c 3e
       0.12730977 -0.18856835 -0.32534716 0.21493523
000030 a8 05 4f be d5 02 7d be 8c ab ac be 9a ae a2 3d
       -0.20217001 -0.24708112 -0.3372463 0.07943459
000040 d0 a6 36 be 8f 7a db 3d 99 b0 58 be aa 6a 9e be
       -0.17837071 0.107167356 -0.21161117 -0.30940753
000050 6b 17 c4 3e 52 e9 78 be 09 d7 83 be f9 91 40 be
       0.38299116 -0.24307755 -0.25749996 -0.18805684
000060 86 19 59 be 32 06 7e 3e 29 0e 89 3e fa b0 17 be
       -0.21201143 0.24807051 0.26768616 -0.14813605
000070 f0 03 a4 3e ed 57 88 be 57 b8 70 be 2e ee 64 3e
       0.32034254 -0.26629582 -0.2350782 0.22356483
000080 5f d1 88 be e9 5e fd 3d 69 2e 37 be 65 15 8c be
       -0.26722237 0.12371618 -0.17888798 -0.27360073
000090 1e 5d 80 be 20 85 b9 be c8 68 61 be 64 0c 2f be
       -0.25071043 -0.3623438 -0.22012627 -0.1709457
0000a0 96 dd 54 be c9 5f d0 bd 5f 17 9d be 9f 72 66 be
       -0.20787653 -0.101745196 -0.30681893 -0.22504662
0000b0 de 37 61 be 55 3f 87 be 67 10 69 3e 02 04 a3 3e
       -0.21993968 -0.26415506 0.22760163 0.31838995
0000c0 94 4f a4 be 3f 84 77 be d3 32 24 3e 26 39 2f be
       -0.32091963 -0.24171542 0.16035013 -0.17111644
0000d0 56 50 3c be df 08 43 3e 33 70 cf bd e6 56 89 be
       -0.1839002 0.19046353 -0.10128822 -0.2682411
0000e0 55 70 f9 3d a4 f8 28 be f3 94 9d be 62 66 b3 be
       0.12179629 -0.16501099 -0.30777702 -0.3503905
0000f0 35 a8 cb be 83 d9 3e be 70 a0 04 bf c4 24 68 3e
       -0.3977677 -0.18637662 -0.5180731 0.22670275

bn1.weight f4 [256]
000000 fa 9b 84 3f 71 c1 c8 3f f4 9f 72 3f f5 83 4e 3f
       1.03601 1.5684034 0.9477532 0.806701
000010 20 ae 4a 3f e7 c7 a5 3f 1a ff 83 3f ff b3 77 3f
       0.79171944 1.295163 1.0312226 0.9675903
000020 50 55 25 3f 96 8a 71 3f 36 98 8b 3f 1e 68 92 3f
       0.645833 0.9435209 1.0905826 1.1438024
000030 9f f6 7a 3f 05 a0 76 3f 34 80 63 3f f2 56 47 3f
       0.98032564 0.9633792 0.888675 0.77867043
000040 b3 dd 7d 3f 98 a6 2f 3f d4 08 45 3f 16 d3 b2 3f
       0.9916641 0.68613577 0.76966596 1.3970668
000050 ee 1b 8d 3f 89 ae 41 3f f4 a9 93 3f d8 f0 31 3f
       1.1024148 0.75656945 1.153624 0.69508123
000060 17 05 88 3f 2e f9 3c 3f e8 ad 77 3f 50 89 3b 3f
       1.0626553 0.7381772 0.96749735 0.732564
000070 01 97 63 3f e3 44 54 3f 2a 62 50 3f c2 02 33 3f
       0.8890229 0.8291761 0.81399786 0.69926083
000080 d4 e0 84 3f ea 92 a4 3f a3 1f 5c 3f ad 1e 83 3f
       1.0381112 1.2857335 0.85985774 1.0243737
000090 52 9b 97 3f 48 0e 89 3f 5e e5 31 3f 27 f4 3b 3f
       1.1844275 1.0707483 0.6949061 0.7341942
0000a0 79 da 81 3f bd ae 94 3f f0 b7 ce 3f 5e 65 33 3f
       1.0144798 1.1615826 1.6149883 0.7007655
0000b0 6d 74 88 3f 5b 83 bc 3f ee 70 9e 3f 20 23 b0 3f
       1.066053 1.4727587 1.2378213 1.3760719
0000c0 36 23 7e 3f ec 18 83 3f 7c e6 90 3f 9c ec 5a 3f
       0.9927248 1.024198 1.1320338 0.8551729
0000d0 45 2b 97 3f 11 1f 1b 3f b5 28 a1 3f 95 e3 46 3f
       1.181008 0.6059428 1.2590548 0.7769101
0000e0 e7 c2 8d 3f 00 08 38 3f 58 56 96 3f 61 6d 89 3f
       1.1075104 0.7188721 1.17451 1.0736505
0000f0 94 da 37 3f ea 51 7f 3f c3 9b 79 3f 20 9d 3d 3f
       0.718179 0.99734366 0.975033 0.7406788
000100 64 b9 58 3f 48 58 7f 3f ef 20 2d 3f 38 cf 93 3f
       0.84657884 0.9974408 0.6762838 1.1547613
000110 2d f4 2d 3f 20 e2 b0 3f be 98 6e 3f b6 0e 84 3f
       0.6795071 1.3819008 0.93201816 1.031699
000120 9b a5 73 3f d3 32 89 3f c1 e6 98 3f 01 80 95 3f
       0.9517457 1.0718635 1.194542 1.1679689
000130 77 33 31 3f 74 f8 77 3f df 14 79 3f 42 c2 29 3f
       0.69219154 0.96863484 0.9729747 0.6631204
000140 fc 0b 95 3f 30 6a 37 3f 22 3a 3f 3f eb 07 3f 3f
       1.1644282 0.71646404 0.7469808 0.74621457
000150 97 25 8f 3f 07 ec 9f 3f 52 ed 31 3f 92 49 b1 3f
       1.1183347 1.2493905 0.6950275 1.3850577
000160 06 17 8c 3f 67 38 79 3f 8b e9 8c 3f d4 83 46 3f
       1.0944526 0.9735169 1.1008772 0.77544904
000170 8a 12 b2 3f 03 69 7e 3f a8 8a 98 3f 4f 99 84 3f
       1.3911908 0.99378985 1.1917315 1.0359286
000180 c7 0e 78 3f 20 c1 4d 3f 6b 38 7e 3f c5 92 9a 3f
       0.9689755 0.8037281 0.99304837 1.207604
000190 a6 fd 56 3f 78 1b 5e 3f b5 1a 47 3f 9e 3f 8f 3f
       0.83980787 0.86760664 0.77775127 1.119129
0001a0 b8 d5 61 3f 36 0a 86 3f cb ec 85 3f f0 2a 4c 3f
       0.88216734 1.0471866 1.0462888 0.7975302
0001b0 7a fd 91 3f b5 07 45 3f 38 b3 87 3f 1e 32 8b 3f
       1.140548 0.76964885 1.0601568 1.087467
0001c0 07 b2 80 3f 4f b0 e0 3f 23 04 4a 3f 13 ec 79 3f
       1.005433 1.7553805 0.7891256 0.97625846
0001d0 29 b7 97 3f 54 a2 94 3f ec 5d 49 3f 79 55 84 3f
       1.1852771 1.1612039 0.7865894 1.0338584
0001e0 66 2f 43 3f 49 b0 86 3f 8a 28 45 3f f2 af 68 3f
       0.762442 1.0522548 0.7701498 0.9089347
0001f0 95 6a 50 3f 04 90 6c 3f 96 68 44 3f ff bf 4d 3f
       0.8141263 0.9240725 0.76722085 0.8037109
000200 83 8a 4e 3f 03 a3 87 3f 30 6b a8 3f 88 60 9c 3f
       0.806801 1.0596622 1.3157711 1.2216959
000210 7f 99 30 3f 4f ef 26 3f 35 6e 90 3f f6 fa 92 3f
       0.68984216 0.65208906 1.1283633 1.1482837
000220 7d 0d 95 3f 45 89 b4 3f 7b 90 44 3f b6 e6 8c 3f
       1.1644741 1.4104391 0.7678296 1.1007907
000230 79 b0 93 3f f5 41 55 3f 0f 05 9a 3f 60 30 40 3f
       1.153823 0.8330377 1.2032794 0.75073814
000240 c4 79 90 3f 81 a0 72 3f 82 40 9f 3f be 5c 37 3f
       1.128716 0.9477616 1.2441561 0.7162589
000250 65 f6 37 3f 66 89 84 3f cb 37 aa 3f 92 bb 74 3f
       0.71860343 1.0354431 1.3298277 0.9559871
000260 c1 c5 9a 3f bb 16 6c 3f b0 8f 2e 3f b6 28 ad 3f
       1.20916 0.92222184 0.68188 1.3528049
000270 c7 09 94 3f b0 32 a3 3f ad 14 a9 3f fb 41 5e 3f
       1.1565484 1.2749844 1.3209435 0.8681943
000280 13 f6 58 3f 95 62 61 3f fe 03 a0 3f 1f a7 82 3f
       0.8475048 0.8804105 1.2501218 1.0207251
000290 48 0d 8a 3f c5 ee 81 3f 75 8e 95 3f 23 80 13 3f
       1.0785303 1.0150992 1.16841 0.57617396
0002a0 b7 16 6a 3f 4c 84 4d 3f d6 17 8c 3f 81 d6 63 3f
       0.9144091 0.80279994 1.0944774 0.8899918
0002b0 ae 6c 82 3f 4a c1 33 3f 55 07 89 3f 5e da 94 3f
       1.0189416 0.7021681 1.0705363 1.162914
0002c0 dd eb 6e 3f 39 e2 7f 3f 82 f6 40 3f e4 7b 52 3f
       0.9332865 0.99954563 0.7537614 0.8222029
0002d0 bd ff 7e 3f 61 97 87 3f 0c 8e 90 3f 77 04 98 3f
       0.99608976 1.0593072 1.1293349 1.1876363
0002e0 d4 ed 40 3f 84 b0 8b 3f f4 f6 7b 3f 56 13 81 3f
       0.75362897 1.0913243 0.98423696 1.0084026
0002f0 b1 bd 9b 3f 1e 0f 81 3f d3 7a 99 3f 42 3e 08 3f
       1.2167264 1.0082738 1.1990608 0.5322
000300 56 d7 60 3f 13 9b 8b 3f fc 5d 8c 3f c4 5b 4a 3f
       0.87828577 1.09067 1.0966182 0.79046273
000310 11 de 80 3f 5f 42 41 3f bb d3 82 3f 11 22 41 3f
       1.0067769 0.754919 1.0220865 0.75442606
000320 0d 5d 1f 3f 7e 24 4d 3f 21 0c 9d 3f c0 e9 5f 3f
       0.6225136 0.8013381 1.2269326 0.8746605
000330 2e 2f 8a 3f 96 43 b1 3f c1 90 94 3f 5e aa a8 3f
       1.0795648 1.384875 1.1606675 1.3176992
000340 66 b1 8c 3f aa e3 36 3f 80 35 90 3f 45 81 7b 3f
       1.0991638 0.7144114 1.1266327 0.98244125
000350 06 32 a2 3f f0 e5 99 3f 03 fb 75 3f c5 ca 4b 3f
       1.2671516 1.2023296 0.9608614 0.79606277
000360 53 82 89 3f 99 2b 84 3f 41 98 9e 3f be ca 20 3f
       1.0742897 1.0325805 1.2390214 0.6280936
000370 30 e1 94 3f fe 2d a5 3f 84 d6 90 3f ef f5 a0 3f
       1.1631222 1.2904661 1.1315465 1.2575053
000380 f9 e0 84 3f f8 f1 45 3f f1 92 2d 3f c5 c9 92 3f
       1.0381156 0.7732234 0.6780234 1.1467825
000390 f1 33 92 3f 89 5e 80 3f 4e 3e 40 3f 6c 91 89 3f
       1.1422101 1.002885 0.7509507 1.0747504
0003a0 cd df 63 3f da 50 43 3f c9 1b 89 3f cf b3 3d 3f
       0.8901337 0.76295245 1.0711604 0.7410249
0003b0 64 56 9a 3f 8a 29 3b 3f ae 0e 9a 3f 87 03 6f 3f
       1.2057614 0.7311026 1.203573 0.9336476
0003c0 54 24 44 3f 91 0f 65 3f b0 ba 90 3f 5f a1 56 3f
       0.7661793 0.8947688 1.1306973 0.8383998
0003d0 01 0b a7 3f 1e e2 74 3f 33 f9 45 3f d7 6c a1 3f
       1.3050233 0.9565753 0.7733337 1.261134
0003e0 66 70 83 3f 03 27 8c 3f b8 ee 91 3f 4c 9d 9b 3f
       1.0268676 1.0949405 1.1400976 1.2157378
0003f0 a1 c1 7d 3f 44 c8 6f 3f 8d c5 82 3f 6e 75 89 3f
       0.9912358 0.93664956 1.0216538 1.0738962

bn1.bias f4 [256]
000000 7b 1a e6 bc ee 8b 54 3b bd 6f 9d bd 59 2d da bc
       -0.028088799 0.0032432037 -0.07687328 -0.026632952
000010 ee 97 2e bd 2a 05 1f bd 13 a5 99 bd 82 e0 ff 3c
       -0.04262536 -0.038823284 -0.075021885 0.031234983
000020 e5 ce 82 3c 14 9d fa bd 62 91 b4 bc 30 9d ce bc
       0.015967796 -0.122369915 -0.02204198 -0.025221437
000030 82 97 e3 bd 43 13 df 3c 5c c1 a7 3e 9b 15 5c bd
       -0.11112882 0.027230864 0.3276471 -0.053731542
000040 5e 99 4a bb e1 3a 90 3c 60 15 3a bd 6f 65 ed bb
       -0.0030914168 0.0176062 -0.04543054 -0.007244758
000050 3e 18 1e 3d 57 4a ed bc 85 fb bf bc 50 ed af bd
       0.038597338 -0.028966112 -0.023435364 -0.08590186
000060 f9 34 c3 bb 2b a8 85 bd 1e a3 0c bd fb f9 ab bd
       -0.0059572426 -0.06526216 -0.03433525 -0.08397289
000070 25 11 82 bd 18 a1 92 3d ce 62 f8 bc bd 33 9e 3c
       -0.06350926 0.071596324 -0.030320551 0.01931178
000080 53 fe 69 bc bb 60 5f 3d ff 43 c4 3c 5e 8b 89 3c
       -0.014281827 0.05453561 0.023958204 0.016790088
000090 f3 9c 28 3d ab 67 b3 bd 8d ed 00 be 60 40 5e bc
       0.041165303 -0.087600075 -0.12590618 -0.013565153
0000a0 a2 00 c0 3c d0 31 d5 bc bc aa 98 bc e6 40 d0 3b
       0.023437802 -0.026024729 -0.0186361 0.0063553927
0000b0 d7 5d ed 3a 61 e7 31 bd 39 f2 6d 3d b8 0a d8 bc
       0.0018109631 -0.04343355 0.05809233 -0.026372299
0000c0 08 22 16 be 20 a7 bd bc d5 ad 26 bd c3 85 93 be
       -0.1466142 -0.02315098 -0.040693123 -0.2881299
0000d0 c6 98 3e bd 36 77 26 be e2 46 21 be 4d 95 b1 bb
       -0.046532415 -0.16256413 -0.15749696 -0.0054194094
0000e0 c6 36 c3 bd 9f ba a1 bd a7 9c b5 3c d2 f2 d8 bc
       -0.095319316 -0.07896923 0.022169424 -0.026482973
0000f0 a7 c8 35 3c 52 95 2f be 8a f9 39 bd 69 56 28 bd
       0.0110952025 -0.17146805 -0.045403995 -0.041098032
000100 a6 95 dd 3c b1 5c 86 bc 0e f9 35 bd 8c 6f 08 3d
       0.027048897 -0.01640162 -0.04442697 0.033309504
000110 29 e5 e3 bc c5 46 fb 3c dd 4a b4 bd 5d b3 fa ba
       -0.027819233 0.030673394 -0.088033415 -0.0019126941
000120 94 04 5e 3d d6 fa 06 bd 93 bc 4f 3d ad 27 00 bd
       0.054203585 -0.03295406 0.050716948 -0.031287838
000130 7e f5 9f bd 91 54 8c bd bb 7d 4c 3d 76 71 12 be
       -0.07810496 -0.06852067 0.049924593 -0.14301094
000140 f7 4d d1 3c e0 01 39 3c b5 94 42 bd ad 64 51 bc
       0.025549872 0.011291951 -0.0475051 -0.012780351
000150 6b a3 0f 3d 14 de 03 bd cd b9 7a 3d e3 b1 07 bd
       0.035067957 -0.032194212 0.06121235 -0.03312863
000160 a3 0a 1e bd 1c 2f 4b bc ba a0 2f 3c 5b e0 e8 3c
       -0.038584363 -0.0124013685 0.010719473 0.028427294
000170 0a 07 6d bd b6 ec e0 3c e4 ad 14 bd 6d c9 2b bd
       -0.05786804 0.027456623 -0.036298648 -0.04194014
000180 70 c9 0a 3d 97 04 cb bc 08 09 14 be 12 c6 fb 3c
       0.033883512 -0.024782462 -0.1445657 0.030734096
000190 fd dd d0 bc fc 9f fa 3c ec 36 05 bd e2 0f 06 bd
       -0.025496477 0.030593865 -0.03252308 -0.03272999
0001a0 24 b6 ab 3c 4b 10 53 3c 51 cd 78 bc b4 10 cc 3c
       0.020960875 0.0128823025 -0.01518567 0.024910308
0001b0 00 dd 54 3d c5 1c 5c bd 36 74 25 3d 3c e9 71 bc
       0.051968575 -0.053738374 0.04039403 -0.01476508
0001c0 2c f0 96 3c b6 73 31 bc fb 5f 37 be c6 02 9f ba
       0.01842507 -0.01083081 -0.17907707 -0.0012131564
0001d0 31 3a 92 bd fb 9d 98 bd 13 c2 d7 be 34 42 b6 bd
       -0.071400054 -0.074520074 -0.42140254 -0.08899346
0001e0 83 63 41 bd eb 45 0b bd c5 e0 89 be fc e7 1d bb
       -0.047214042 -0.034002226 -0.26929298 -0.0024094572
0001f0 36 2a bd bb 89 f2 77 39 46 36 30 3c 22 1b 13 bd
       -0.005772854 0.00023646107 0.010755127 -0.035914548
000200 fa 42 89 3c a0 3d d2 3b e5 d1 03 bd b1 3d 93 bd
       0.01675557 0.0064160377 -0.032182593 -0.07189501
000210 0c 3e bb 3b 23 b3 dd bc 73 c8 72 3d a3 2d 81 bd
       0.0057141837 -0.027062958 0.059273195 -0.06307533
000220 a8 0e 72 3d 19 f6 d6 bc ee 79 3b be 62 20 66 bc
       0.05909601 -0.026240395 -0.18308231 -0.014045807
000230 c9 cb c7 bc 88 b0 bc bc 21 e5 dd 3c 63 7c 1a ba
       -0.024389165 -0.023033395 0.027086796 -0.0005893169
000240 57 61 0a 3d 36 f4 a9 bd fc 53 17 bd ca 3c 7f bd
       0.033784237 -0.08298533 -0.036945328 -0.062313832
000250 bc eb 29 bc ba 27 09 3d 35 95 84 bc 78 a1 2f bc
       -0.010371145 0.03348515 -0.016184429 -0.0107196495
000260 52 64 6a 3d 98 5c 7b bc 4c 56 a5 bb 44 63 b2 bc
       0.05722458 -0.0153419 -0.005045688 -0.02177585
000270 67 c4 a4 bc ad 7c 00 bd f2 25 04 bd a5 4d e8 3b
       -0.020113183 -0.0313689 -0.03226275 0.007089334
000280 df 74 9a 3c cc 65 df 3c b8 e2 c0 3c 47 40 56 3c
       0.018854557 0.02727022 0.023545608 0.013076848
000290 06 f0 df bc d9 6c 0b 3d 76 8a 2f 3d fb 18 f3 bd
       -0.027336132 0.034039352 0.042856656 -0.11869999
0002a0 d1 3b 34 3c f2 19 a6 3b 44 b7 4a 3d 48 42 bb 3c
       0.0110005895 0.005069011 0.049491182 0.022858754
0002b0 81 78 8f 3a df 8a 09 3c 67 b2 c2 3d 9d 12 13 bd
       0.0010945947 0.008394926 0.09506684 -0.035906423
0002c0 53 c3 45 3c 54 5f 9b bd 3e fe 33 bc e6 52 66 bc
       0.012070495 -0.07586542 -0.010985909 -0.01405785
0002d0 da 17 aa bc a1 b8 34 bc 7f 56 72 3d df a3 e4 bd
       -0.020763326 -0.011030347 0.05916452 -0.111640684
0002e0 c2 54 c6 bc db af 3c 3d bf 47 f8 bd de 1c 0f bc
       -0.024210338 0.046066146 -0.121230595 -0.00873491
0002f0 03 d2 50 3c e0 45 d3 3b 8d 2d a1 3d 1f d8 76 3d
       0.012745383 0.0064475387 0.07870016 0.060264703
000300 81 3c 57 3c c5 b9 dc bd 3a e5 a5 bd 0a 80 0d bd
       0.013136984 -0.1077762 -0.08100362 -0.034545936
000310 7a 3a ff 3c 4c fb 91 bc 3f 28 02 bb aa f6 9d bd
       0.031155813 -0.017820023 -0.0019860414 -0.07713063
000320 1f 2d 82 be 69 54 c1 bd db 03 45 3c 7d 0e d5 3b
       -0.2542505 -0.09439928 0.012024845 0.0065019713
000330 63 74 ca bc 71 15 c7 bc b2 0a 2d bd 41 77 f5 bc
       -0.0247137 -0.024302216 -0.042246528 -0.029964091
000340 f0 3c 84 3c b8 a6 8e 3d 0d 1e 56 ba 41 24 3f ba
       0.016142339 0.06965393 -0.000816793 -0.0007291474
000350 fc 9d e6 3d d5 e1 af 3c 2c da b7 bd 8f 5b ff bc
       0.11260602 0.02146999 -0.0897716 -0.031171588
000360 f5 39 99 3c b4 de f8 bd f8 d1 36 bd 78 77 e6 ba
       0.018704394 -0.12151852 -0.044633836 -0.0017583212
000370 22 99 e3 bc 52 2a 2e 3d ed 66 64 bd 4c ce 17 bd
       -0.02778298 0.04252083 -0.05576222 -0.037061974
000380 a9 25 15 bd 03 08 c0 bd 68 fc 74 bd 92 c0 1f 3d
       -0.03641287 -0.09376528 -0.059811026 0.03900201
000390 96 47 4e bd 64 f4 08 bb 4f e8 86 bd e2 be 83 3d
       -0.05036124 -0.0020897621 -0.06587278 0.064328924
0003a0 fb fb 61 3c 7a 7b bc bd a6 c3 2f 3d 7c 80 3b bd
       0.013792987 -0.09203239 0.042911194 -0.04577683
0003b0 c9 13 32 bc b1 fb ac bc 35 c6 05 3d a7 33 c0 bc
       -0.010868975 -0.02111611 0.032659728 -0.02346213
0003c0 a8 ec 3f 3c 50 d5 b7 3c cb c4 01 bd 71 fa ab bc
       0.011714138 0.022440583 -0.031681817 -0.020993443
0003d0 c8 36 44 3d 23 cf 1e bd 1d 70 0a bc b9 19 4b 3d
       0.047903806 -0.03877176 -0.008449581 0.049585078
0003e0 bd dd 5c bc 07 5b 31 3c 6e 69 66 3d 85 3d 6f 3d
       -0.013480601 0.010824925 0.05625289 0.05840828
0003f0 8d e3 d8 bd 2d 3e 6c bc f2 15 e1 bd 88 97 eb bc
       -0.10590277 -0.014419121 -0.10990514 -0.02875878
