input/model/ANN_retweet_dan_gan.pth (torch, 225575 bytes, 19 tensors)

fc1.weight f4 [256, 44]
00000000: e857 a8bf 3f82 5c3d 0f94 603b ed84 3ebd
00000010: fe5d 0d3e 6d7e c13b 00c0 1e3e 9a2d 03be
00000020: 06bb 9d3e 9dca cfbd 31a2 2dbc 8f17 44bd
00000030: b5ba 91bd 0089 b2bd 1dcb 4a3a 5d0d 3cbb
00000040: 2e4d db3d 6ca6 84ba c35b 463c 714a a33d
00000050: 770a c63e cc54 b6bd 7b53 99bf f5b3 1ebc
00000060: a272 2b3e 0c03 873c 3a24 7fbe 7adc 8a3e
00000070: 4e9a 46bd bf58 1b3d c111 4b3d 72a7 65be
00000080: 7591 cfbc ffe7 11be af8c 223e 0a47 573e
00000090: d22f 013e 37f3 223e 0217 8ebe 79f1 8dbe
000000a0: 1fc9 dfbd cf17 2cbd d707 693d 7d1d 8fbd
000000b0: fb2d 45bd bc45 0e3d ec26 17be c230 cdbd
000000c0: 7a32 27be 6c39 a63f fdcb b9bc 81c5 c1bc
000000d0: acc5 723f 8035 b9be 04a2 eb3e 8204 98bf
000000e0: ffe9 b4bf dc68 babc 6d50 ee3c f48f 5e3c
000000f0: c5ae 7cbf 0465 053f 554a 5abe a2be a23f
00000100: ac6d 393d 0947 3b3d 8558 0cbf 849c 903e
00000110: c58a d4bc 0f2f 32bf 673a 92be 9474 b4bb
00000120: 2958 d53d 910d 113f a8e2 09bf 7f68 d63e
00000130: 4fa4 eb3d d0b8 18bf f995 db3d d228 703e
00000140: 4bbd a53f eb43 3e3e c961 9dbf c6a3 f33e
00000150: 1bcb 963e f0ce fdbd 153e 81bf 7006 543e
00000160: 7159 dd3d d639 0bbe 5d9d 383e 5cd1 8cbe
00000170: 283c 2cbd 0d90 393d a58c 393d 2db3 763e
00000180: 8eb0 9dbe 420d 47bd 75ac e83d 4f8d 653e
00000190: 544e d9bd 8e8b 803e e083 793e 51ca a0bd
000001a0: 7eac f13d 7ef7 f4bd 7aaa 583e 20a3 6e3e
000001b0: c942 2ebe afac 06be 2990 ee3d 80d2 283e
000001c0: d3a8 83bd 1085 3b3e 95d3 483d b9b2 5bbe
000001d0: fb70 b3bd 20f2 183c d3b3 bebe 1151 23bd
000001e0: 18d7 cfbd 2a29 573e 552c 263e d9bb be3c
000001f0: cb98 cc3c f544 95be beb1 b3be 966f 103e
00000200: 7c5d 15bd a6f0 5b3c eb98 6bbe b6a1 dfbd
00000210: bfb9 38bd ec4f 9f3d 81dd fe3c c7a7 3dbf
00000220: 2fe5 433d 5087 e6bd 9788 16bf 86b3 c03d
00000230: bbfe 8ebf 1e0f c5be 4e4a ba3e 8d0d 6bbd
00000240: 2aaa debd 8591 293e 1239 c3bc b4b3 993c
00000250: 9ece 66be 5135 e33f b96d e7bf ce24 1d3e
00000260: d4a5 cd3d 8d6c 903d 419e 103f 9da9 853e
00000270: b0f9 77be 3afb 813f 6bb0 a1be 9f8a 0ebf
00000280: 8a88 ee3d cd43 aa3f f69f 9a3e 6cca 883e
00000290: 63f7 1bbf 2fc6 71be b85b fdbe a26b 95bd
000002a0: 6864 ce3e 746e 0cbf 43fb bdbf 090e 18be
000002b0: 0a44 4b3f 6a47 62bf 0312 a43e 0971 c93d
000002c0: 139b bb3c f730 b9be ecf8 a63d 1be8 05be
000002d0: da0f c5bd 7a1c 1c3c 74fa 1bbe 9757 40be
000002e0: 305b d53e 95bc 71be cf7b 04be 3ab6 ccbd
000002f0: 705c 96bd 8646 9a3d 341a 86ba acd4 83bb
00000300: e438 86be 7069 aabd 645b 833e f4d9 793e
00000310: a13a 963e efc3 063f 853a 953e adc9 313c
00000320: 8e3d d13d 02b0 73bf a086 223d d7c2 8b3d
00000330: fc92 1fbe 717c 5abe 0d30 75be 7ec4 b73d
00000340: 37db a53d c205 363e 7b2e 9fbe 06f3 0b3e
00000350: 21a4 bcbe df65 edbe 6774 d7be 4c9a 5b3e
00000360: e3be 57be 6d9d 65bc eafd 703e 155c 6fbe
00000370: 40d0 c6be b183 f53c ff90 36be f0d9 51bf
00000380: 89fe 82be 00ee efbc 8183 51be 7b4f 3c3e
00000390: 839c 12bf 081b a0bf d767 413e 4788 23bd
000003a0: 1b7e ff3d 73cb b6be d0e4 e8bc bf9f bb3c
000003b0: 3e0e ebbd aeb0 423e a12a 7cbe 9f38 ba3e
000003c0: 0f40 433e b9f8 82bd 190d b0be d0f3 9b3d
000003d0: b8e8 0d3c a714 393f f729 c2be 7186 8c3b
000003e0: af06 133e b664 203f 90d4 a93e 085f 9dbd
000003f0: 20b8 cf3b ea04 8b3f 3f1f 27bf 6c97 c4be
-1.3151827 0.05383515 0.0034267937 -0.046513487 0.13805386 0.0059049637 0.1550293 -0.12810364
0.3080675 -0.10146067 -0.0105977515 -0.04787403 -0.0711569 -0.08717537 0.0007735955 -0.0028694489
0.1070808 -0.0010120398 0.012106839 0.07973183 0.3867986 -0.089028925 -1.1978601 -0.00968646
0.16742948 0.016480945 -0.24916163 0.27121335 -0.048487 0.03792643 0.04957748 -0.22427157
-0.025337914 -0.14248656 0.15873979 0.21023193 0.12615898 0.15913092 -0.2775193 -0.27723292
-0.10927033 -0.042014893 0.056892242 -0.06988046 -0.048139554 0.034734473 -0.14760941 -0.100190654
-0.16327849 1.2986274 -0.022680277 -0.023653748 0.94832873 -0.3617363 0.46022046 -1.1876376
-1.413391 -0.022755079 0.029091084 0.013584126 -0.9870418 0.5210726 -0.21317418 1.2714427
0.045270607 0.04572204 -0.5482257 0.28244412 -0.025945077 -0.69603056 -0.28560182 -0.0055070613
0.10417206 0.56661326 -0.53861475 0.418766 0.11505949 -0.59657 0.107219644 0.23453072
1.2948393 0.18580596 -1.2295467 0.47585887 0.29451832 -0.12392986 -1.0097071 0.2070558
0.10808075 -0.13596281 0.1802878 -0.2750348 -0.042049557 0.045303393 0.045300145 0.24091788
-0.30798763 -0.048596628 0.113610186 0.22417186 -0.10610643 0.25106472 0.24366713 -0.07851089
0.118004784 -0.11961268 0.21158782 0.23304415 -0.17017664 -0.13151811 0.1164859 0.1648655
-0.06428685 0.18312478 0.049029905 -0.21454896 -0.08761784 0.009335071 -0.3724657 -0.039872233
-0.10148448 0.21011797 0.16227849 0.023282932 0.024975201 -0.29154173 -0.35096544 0.14105067
-0.036466107 0.013424074 -0.23007552 -0.10919516 -0.045099016 0.07778916 0.03111148 -0.7408413
0.04782599 -0.112562776 -0.5880217 0.094092414 -1.1171488 -0.38488096 0.36384815 -0.05738597
-0.108723 0.16559418 -0.023830924 0.018762447 -0.22539756 1.7750646 -1.808036 0.15346071
0.10041395 0.070519544 0.56491476 0.26105967 -0.24216342 1.0154793 -0.3157991 -0.5568027
0.116471365 1.3301941 0.30200166 0.26716936 -0.6092436 -0.23610757 -0.49484038 -0.0729592
0.4031098 -0.5485604 -1.4842304 -0.14849104 0.79400694 -0.8839022 0.32044992 0.09836013
0.022901094 -0.3617017 0.08152947 -0.13076822 -0.09622164 0.009528274 -0.15232259 -0.18783413
0.41671133 -0.23607095 -0.12937854 -0.099956945 -0.0734185 0.075329825 -0.0010231198 -0.004023155
-0.2621528 -0.08320892 0.25655663 0.24399549 0.29341605 0.5264272 0.2914621 0.010851306
0.10216819 -0.9519044 0.03967917 0.06824272 -0.15583414 -0.21336533 -0.23944111 0.08973025
0.080984525 0.17775634 -0.3109015 0.13666925 -0.3684397 -0.46366784 -0.42080995 0.21445578
-0.21068911 -0.014014584 0.2353436 -0.2337497 -0.38830757 0.029970022 -0.17828749 -0.8197317
-0.2558482 -0.029288292 -0.20460321 0.18389694 -0.5727007 -1.2508249 0.18887268 -0.039924886
0.124752246 -0.35702094 -0.028429419 0.022903321 -0.11477326 0.1901271 -0.24625637 0.36371323
0.19067405 -0.06395096 -0.34384993 0.07614863 0.0086614415 0.7229714 -0.37922642 0.0042884876
0.14358018 0.6265367 0.33169985 -0.076841414 0.006339088 1.0860875 -0.6528205 -0.38396776

fc1.bias f4 [256]
00000000: 4113 3a3e 9eec 0fbe 441d e7bd 02b6 f33d
00000010: 4c75 61bd 7f60 0e3b 2a32 d3bd 9735 23bc
00000020: 46ec 1abc 7fff b8bd 35b9 c13d 5cc8 cb3d
00000030: 90da 80be a822 d53d 05fc 2b3e 0ce4 d7bb
00000040: 8760 603e e27f 3abe f426 1dbe 1485 0b3e
00000050: 8a7e adbd b95d 643d f27d 123e 904a 433e
00000060: d7bb dbbc 7c66 16be c7aa b3bc 2f3a 2c3c
00000070: 2e15 0c3e a1a2 1f3e d729 b43d 5347 ee3d
00000080: 0f68 10be 952a e83c b94f 86bd cb65 1fbe
00000090: 7b18 303e 5b27 a13e c636 583e 2add e03c
000000a0: 4ef1 8b3d c0bd 9b3d 3d94 bf3d 649d fb3d
000000b0: b065 f53e a8ce 85be 21ce 80bd bac0 8e3c
000000c0: e561 f9bc 99db 94bd 29d4 093e 60b9 2ebe
000000d0: f314 c6bd 8550 3a3e 40f3 753c ecc7 8b3b
000000e0: 2925 5dbe 564a 9bbc e437 e03c d946 923d
000000f0: 0916 8d3d cfd8 92be 06e8 65bd 3853 e43c
00000100: 0bd2 83be 6f1c 82bd f131 ebbd 6cc0 d6bd
00000110: 57a0 413e bb4c a73d ebec bdbd f53e 183e
00000120: a6a2 e53d 1d9f ed3d 6b50 753e 273c 29be
00000130: a9fc 01be c93d 073d 9e25 813d 08c9 85bd
00000140: 28f6 87bd 9e43 ddbd 78ec 4fbd b2ea a7bd
00000150: c6d4 423e d077 39be aa21 5abe ed67 cc3d
00000160: 88a5 91bd 6a38 23bd 4eb8 a13d e591 9e3d
00000170: ad47 7d3e 046f debd a460 57bd d5c8 0e3e
00000180: eb94 7ebd 730e 83bc 8da4 68bd 1ae3 98bc
00000190: 8d55 8a3e 01ce 6bbb bda1 2ebe 0d45 c23d
000001a0: 370a 733c 4271 23be 2e00 24bc ee88 a7bc
000001b0: 436c 223e c7f3 673e c793 0abe a988 fabd
000001c0: 4799 c7bd 8116 ae3d 54f7 b3bc 13cc f7bc
000001d0: 2662 13bd f0b1 843d 034f e8bc e04c 4d3e
000001e0: 480a ad3e 93d2 a63c 9940 a43c 9634 933e
000001f0: 1579 a6bd 396b bb3c 9688 3dbc d8ed 88bd
00000200: 4d1d ddbc 9319 d03d 3732 363e 8032 e83d
00000210: a2ff 3ebe 9e35 e23d 740b 033d e58c 9d3d
00000220: 002e 0bbe c88f 1bbd 164f 52be 96c8 5f3e
00000230: f866 0abe 4652 30be 6a09 393e a52e 3c3d
00000240: c981 4e3b b51b 1bbe a9dc 08bd 593b 87be
00000250: 5a3b 11bd 4f16 5c3e aebd a43d 8848 08ba
00000260: 7b23 e1bd a67e 02be 8919 663c 88b7 cfbb
00000270: 8f2b f43c 3b32 38bc bc0b 05be 54bf a53c
00000280: 550d fc3a 991f 07be 66f2 0b3c bca0 06be
00000290: eead 983d 1785 f83d 7c9a 1ebe 39b4 a73d
000002a0: d9ab 96bd f9c9 01bd 8349 0fbd a7c4 343e
000002b0: 3df3 3bbd 3026 6dbe d551 d53d f1da 4e3e
000002c0: 12ba 4f3c 68dc f03d 3a0e 503d a8e7 833d
000002d0: 4d6a cabd 4856 2fbc 4b27 f83d 89ba b2bd
000002e0: 7297 083c ef43 09be ec65 d83b 4e42 623e
000002f0: c2c8 a73d dde3 10be 8bc0 2fbe 1f15 69be
00000300: 6560 6bbc 4f1d 24be 2f06 dbbd 3f18 cb3d
00000310: 5774 ab3d 06aa 4fbe d443 3bbd 94cb eebd
00000320: 268e 103e 0ba1 b4bd 13df 59bd 483a 45be
00000330: 8e4e b03d 8b5a 1cbc 398f a73d 2052 cebc
00000340: 2bc1 133d 9af7 043d eeeb 173c 5d71 5a3c
00000350: 5694 2fbd e88b 103e 24e9 9dbd 4b69 813d
00000360: d14e 413c afdc f0b6 5078 463e 8f20 5abd
00000370: 4e5f 3a3e d5c8 cd3b a6a4 613d 9bec cd3d
00000380: 1f51 5abc 5509 ee3d 6c67 67bc 57c8 043b
00000390: b487 253e 6c23 95be daa2 453d 8a8a 0e3e
000003a0: 948b 87bd 1658 e9bd ab98 a2be e537 7b3d
000003b0: 384b 513d 8f7f 373d 3748 8fbb 547a 843c
000003c0: d802 78bd b768 f4bd bd27 083e d331 473c
000003d0: b698 8dbd ac74 943e f976 103d 4342 33bd
000003e0: cfcc fcbc 2be1 a2bd 27ef cfbd 5a0f 81be
000003f0: 56a0 153e 1bc3 873e 4daf 16bd af4b b93b
0.18171407 -0.14055106 -0.11284879 0.118999496 -0.055043504 0.0021724997 -0.103123024 -0.009961507
-0.009455746 -0.09033107 0.094591536 0.09950325 -0.2516675 0.10407001 0.16795357 -0.0065884646
0.21911822 -0.18212846 -0.1534689 0.13624984 -0.08471401 0.055753443 0.14305857 0.19071412
-0.026822967 -0.14687532 -0.021932019 0.010511919 0.13679954 0.15589382 0.08797043 0.11634698
-0.14102195 0.028340617 -0.06558175 -0.15566175 0.17196839 0.31475338 0.21114644 0.02744921
0.068331346 0.07604551 0.09354446 0.12285879 0.47929144 -0.2613423 -0.06289316 0.017425884
-0.030442188 -0.072684474 0.13459839 -0.17062902 -0.096719645 0.18194778 0.015011609 0.004265776
-0.21596207 -0.018956345 0.0273704 0.07142419 0.068889685 -0.28681037 -0.056129478 0.027871713
-0.25746188 -0.063530795 -0.11484135 -0.1048592 0.18908821 0.08168932 -0.09273704 0.14867766
0.11212663 0.11602614 0.23956458 -0.16526853 -0.12694038 0.033017907 0.06306003 -0.06532484
-0.066387475 -0.108039126 -0.050762624 -0.081990615 0.19026479 -0.18112111 -0.21301904 0.0998076
-0.07111651 -0.039848723 0.078964815 0.07742671 0.24734373 -0.10861018 -0.052582398 0.13943799
-0.062153738 -0.0159981 -0.056797553 -0.018662978 0.27018395 -0.0035980942 -0.17053886 0.09485827
0.014833978 -0.15961173 -0.0100098085 -0.020451035 0.15861611 0.22651587 -0.13532935 -0.12233097
-0.09746032 0.08500386 -0.021968521 -0.030248677 -0.035982274 0.064792514 -0.028357988 0.20048857
0.33796906 0.020364081 0.020050334 0.28751057 -0.08128563 0.022878276 -0.011568209 -0.0668599
-0.02699151 0.10161128 0.17792593 0.11337757 -0.18652204 0.11045383 0.031993344 0.07692889
-0.13591766 -0.037978917 -0.20537981 0.21853861 -0.13515842 -0.17218885 0.18069997 0.04594292
0.0031510463 -0.15147288 -0.033413563 -0.26412466 -0.035456993 0.21492885 0.08043991 -0.0005198796
-0.109930955 -0.12743625 0.014044174 -0.0063390173 0.029805927 -0.011242445 -0.12992758 0.020232834
0.0019230047 -0.13195647 0.008541679 -0.13147253 0.074550495 0.1213476 -0.15488619 0.081886716
-0.07356996 -0.031686757 -0.034982216 0.17653142 -0.045886267 -0.23159099 0.10415999 0.20200707
0.01267864 0.11760789 0.050794818 0.06440669 -0.098835565 -0.010701723 0.121168695 -0.08726985
0.008336889 -0.13404821 0.006603947 0.22095606 0.081925884 -0.14149423 -0.17163293 -0.22761963
-0.014366244 -0.16026805 -0.10694539 0.09916734 0.083717994 -0.20279703 -0.045718983 -0.11659923
0.14116725 -0.08819779 -0.053191256 -0.19260514 0.08608733 -0.0095430715 0.081816144 -0.025185645
0.03607289 0.032462694 0.009272559 0.013332692 -0.042866074 0.1411587 -0.07710484 0.06318911
0.011798576 -7.1782483e-06 0.19381833 -0.053253707 0.18200418 0.0062800446 0.05508866 0.100548945
-0.013325005 0.11622874 -0.014123779 0.0020261013 0.16165048 -0.29128587 0.04825101 0.13920036
-0.06618419 -0.11393754 -0.317571 0.061332602 0.051097125 0.044799384 -0.0043726224 0.016171612
-0.060549587 -0.11934035 0.13296409 0.012157875 -0.06913893 0.28995264 0.03526971 -0.043764364
-0.03085938 -0.07953104 -0.101530366 -0.25207025 0.14611945 0.2651604 -0.036788274 0.005654774

fc2.weight f4 [128, 256]
00000000: 1f33 1e3e d094 27bd f99b 73bd 78ed 48bb
00000010: 6bbd 49bd cdc5 3ebb 0485 293d 1ca3 df3d
00000020: 77e7 8bbd 3267 103d 2ef4 623d b468 edbc
00000030: ad98 1c3e 1f11 ddbc c753 e83c d284 5d3e
00000040: dec5 a33d c7fa b83e cea7 753e 0b01 a53d
00000050: 8dbc 9e3d ffbe f2bd ff3d 1bbd c8dc 163c
00000060: 960a f13e 1c50 6a3e 10f4 7f3e cbb1 e23e
00000070: 0384 003f a2d5 8f3e 392d 553d 7e67 bc3d
00000080: 4061 1f3f 64fe d03d acee d43e 7b49 6abc
00000090: f4c6 ee3e b93b c33e 9a18 dd3e fdcf 4e3d
000000a0: c9ad b33c cca8 86bd 68fa 033f e564 b53d
000000b0: 1ae3 cd3d 7c1e 9a3d 8ee2 df3d 470b febb
000000c0: be17 a6bc b3b0 2cbd 0b65 983d bbac 5f3e
000000d0: bdee af3e 912f da3d 653c 7d3d b962 b93a
000000e0: 950d 1e3f 2cdf 57bb e57f e53e ab82 bf3d
000000f0: 1877 ee3c 3cf4 b13e f013 b53b adb3 47bd
00000100: af57 8e3c cb72 103d 7199 49bd d1d3 ecbb
00000110: 7672 e03e db9b b13e 8d01 02bd b5b5 843e
00000120: 03ca a1bd 71e7 cd3d 52bf ac3e 93fb 573e
00000130: 6364 503c 7a2c 133d 074e 3c3d ef08 e53d
00000140: 099f 023f 2e5c a73e c4de 023b 8ccc ba3b
00000150: 452b 9ebd 31fa c3bc d454 dabc 7b8f 6e3e
00000160: 5c97 a73c 9db9 0cbb ad16 833c 7096 b83b
00000170: 398e fcbc 75a5 4c3e 2027 833d 2fca d7bc
00000180: 24b9 ebbb 334b 59be 50f1 bf3d bf46 073d
00000190: 3850 523e d021 1bbd 06c1 b83d f41c 94bd
000001a0: 828c 90bd adf9 f5bb 1756 ec3d eb71 9b3e
000001b0: 637d 22bd 374c 313f 6a1f 85bc 8f7f f13c
000001c0: 1a80 263e 209d 1c3e 7f51 b93e a4fd 3abd
000001d0: 4918 2fbd 64eb 993d ab21 be3d 3401 19bc
000001e0: a9dd 383d f1d1 483f e7ce 8b3d 5a3d 9dbc
000001f0: 63ac 0c3e 4afe 68bc b667 c43d aee9 043e
00000200: b9a7 fa3e 4936 753d 5859 4c3d 1b36 563d
00000210: 1b3f c63b a095 a43d a97f 36be 0302 273f
00000220: 33d7 19bd 5680 663e 5500 8a3d c151 d3bc
00000230: d216 fbbb 74f9 a13e 5aa6 913d e806 013e
00000240: eb3d ed3d 7607 e83e b8e2 0e3e 4ef9 943d
00000250: fc80 053e b560 283e d313 f73d b1fd 5d3d
00000260: da22 aa3e b8b1 45bd 7635 303e 2127 423e
00000270: 8203 3b3d f589 b4bd f1b3 483f a36f 2b3d
00000280: 5f33 9a3d dbac 513d e1aa ed3d 417b ef3d
00000290: a86f 063e 1b39 5e3c a4bd 3dbd 822e 163e
000002a0: 0222 1d3e f976 c83b eeb6 313e 2c4f cc3d
000002b0: 1200 8e3e 6770 323e 65e8 2abd 4017 353d
000002c0: d4c5 663c 2580 263d 10c2 d53d d124 903e
000002d0: 4eac 743d 8750 903d 1168 903c 8e7f 513e
000002e0: b1b4 aa3d 6ac7 863d 838c 9e3e 2719 a23e
000002f0: e89f 823e 69c7 413d bba0 243d 1011 033e
00000300: 8352 853e 1dc0 3b3e b950 943f a6b0 1ebd
00000310: 46e3 c43e 9085 7c3e 849c 693d 1ca8 663d
00000320: ca36 313d 268b 5bbc 48db a33d 3f3f 973b
00000330: 2989 00bd e515 5f3c 3d92 93bc ed3e d63e
00000340: bacb b0bc aff1 a03d d577 043f 615d 0b3f
00000350: e8c6 f7bc f06e 9c3d 5b26 793e bd40 573d
00000360: 86b9 083e 7354 b73d 63cc c2ba f37a 383e
00000370: 3479 bc3c 010e 103d c9bc 9d3c 97fd c43e
00000380: 7d00 2b3d 4ed4 ff3e f4c6 a93c eb1f 6a3e
00000390: 1921 3a3f d6ea 373e c612 a83d da1c 4fbd
000003a0: 81fc c93c 43d8 233d 019b 1d3f 135f 07bd
000003b0: 28c4 fc3e e4ae 8a3e 2e44 763e 57d4 183c
000003c0: 2f49 1c3f 4ec9 8d3c 8991 e33e 9d3d 103d
000003d0: b879 a33d 0e06 1f3e 83f0 e438 c97a c9bc
000003e0: cb0c 01bb b4a9 dd3d f861 b63d 2c65 d43e
000003f0: cf83 1e3d 1301 c33e eb12 043d afb1 343f
0.15449189 -0.040913403 -0.05947492 -0.003065912 -0.04925291 -0.0029109598 0.04138662 0.109197825
-0.06831258 0.035254665 0.05540865 -0.02898059 0.15292616 -0.026985703 0.02836026 0.21632698
0.079967245 0.36128828 0.23989794 0.080568396 0.07750807 -0.11852836 -0.03790092 0.009207912
0.4707839 0.22882122 0.24995446 0.4427627 0.50201434 0.28092676 0.05204508 0.09199427
0.62257767 0.10204771 0.41588342 -0.014299746 0.46636164 0.38131502 0.43182832 0.05049132
0.021933453 -0.06575164 0.51553965 0.08857135 0.10053082 0.07525346 0.10931884 -0.007752809
-0.020274993 -0.0421607 0.074411474 0.21843235 0.3436183 0.10653604 0.061825175 0.0014143802
0.61739475 -0.0032939417 0.44824138 0.09351095 0.029109523 0.3475665 0.0055260584 -0.048755337
0.017375795 0.035265725 -0.0492186 -0.007227399 0.43837327 0.3468922 -0.03173976 0.2591988
-0.07899859 0.100539096 0.33739716 0.21092062 0.012719247 0.035931088 0.04597285 0.111833446
0.5102392 0.32687515 0.0019969204 0.0057006534 -0.07723097 -0.023923011 -0.026651777 0.23296921
0.020457916 -0.0021472939 0.016002024 0.005633168 -0.030829536 0.19984992 0.06403947 -0.026341526
-0.0071937013 -0.21220092 0.093721986 0.033026453 0.20538414 -0.037874043 0.09021191 -0.07232085
-0.0705805 -0.0075065703 0.11539858 0.3036035 -0.03967036 0.6925692 -0.016250331 0.02947977
0.16259804 0.15294313 0.3619499 -0.045652047 -0.04274777 0.075156 0.092837654 -0.009338666
0.045133267 0.78445345 0.06826573 -0.019194294 0.13737635 -0.0142207835 0.09590094 0.12979767
0.48956087 0.059866223 0.049889892 0.052297693 0.006050003 0.08036351 -0.17822136 0.65237445
-0.037558746 0.22509894 0.067383446 -0.02579582 -0.0076626325 0.3163563 0.07111807 0.12600291
0.115840755 0.45318192 0.13953674 0.072741136 0.13037485 0.16443141 0.12064328 0.054197017
0.33229715 -0.04826519 0.17207894 0.18960239 0.045657642 -0.08815376 0.7839957 0.041854512
0.075293295 0.05119024 0.11604858 0.11693431 0.13128531 0.01356342 -0.046323434 0.14666179
0.15345004 0.0061176983 0.17354938 0.09976038 0.2773443 0.1742569 -0.041725535 0.044211626
0.014085252 0.040649552 0.10437405 0.2815309 0.059734635 0.07046609 0.017627748 0.20458815
0.083352454 0.06581004 0.30966577 0.31659815 0.25512624 0.047309313 0.040192347 0.12799478
0.26039514 0.18335004 1.1587135 -0.038742684 0.38454646 0.24660325 0.05703403 0.056312665
0.04326514 -0.013399875 0.08000809 0.004615694 -0.031380806 0.01361606 -0.018014068 0.41844884
-0.02158152 0.078585975 0.5174535 0.5443936 -0.030246213 0.07638347 0.24331038 0.052551974
0.13352022 0.08951654 -0.0014861937 0.18015651 0.023007013 0.035169605 0.019255059 0.38474724
0.041748513 0.49966663 0.020724751 0.22863738 0.72706753 0.17960677 0.08206706 -0.050564624
0.024656536 0.040001165 0.6156464 -0.033049654 0.49368405 0.27086556 0.24049446 0.0093279695
0.6104917 0.017307904 0.44446972 0.03521501 0.079822004 0.15529653 0.00010916686 -0.024594681
-0.0019691463 0.10823384 0.08905405 0.41483438 0.03869992 0.38086757 0.032244604 0.70583624

fc2.bias f4 [128]
00000000: 6693 c33d d5e7 993d 6351 833d 27b4 aa3d
00000010: b868 6e3d 11ba 113c 67f3 943e 6184 933d
00000020: 3455 293e b5ef 59be 112f 0abd 27ce 7e3d
00000030: 2f6d 05be 06f2 833d 5945 c73d 27ee 18be
00000040: 69b1 353e e4ce 4d3d fb39 73bd d8b0 53bd
00000050: 3613 953d d77f 85bd 63a4 713e 496f edbd
00000060: 87bb 24be 0a61 42be a816 993d d301 0a3e
00000070: d3d7 a73b 0252 b8bb c12c 27be a76f 43bd
00000080: 976f 81bd c331 5e3d a5e2 e1bc 8dcc 1fbe
00000090: ad60 78bd dbe0 ecbd 44fe 81bd 0fd6 e03d
000000a0: d549 04bd fd9c 4dbc 254e 42bd ae84 5cbd
000000b0: 8c41 85bd 4aa5 9f3c 4c46 8abd a725 7dbe
000000c0: 9807 2f3e e9e6 4f3d 6cba 143d ec82 d03c
000000d0: 0b9d e2bd a055 abbd 197f ba3c 5325 6c3e
000000e0: 82ed d43c a516 913c 98dc 17be bb11 cfbd
000000f0: 393c c3bd a7db 4bbe b8f7 513d 0a6a 2839
00000100: 8bab 4d3d f3e2 4c3d 9b59 243e 7c13 733d
00000110: d482 a8bd 414c fb3c 5c5c 83bd 0d29 ffbd
00000120: 8d23 cfbd 93fe 153e c2ea 4b3d 1639 8dbd
00000130: d7b5 623d b011 28be 4cad 883d 562c 8f3d
00000140: 381c d43d db00 58be be29 a53d a6dd da3d
00000150: 28f3 9e3d eca9 113e d28c 92bd 3d35 2a3e
00000160: f702 823d 9161 abbb f037 dfbd cb22 f8bc
00000170: 19b7 a13d a93d 0c3e 8016 ff3b e6b9 983d
00000180: 8ec7 d9bd 6c6b ce3d ad8a bebc cf1a 16be
00000190: da78 153d cf56 5ebd afa9 813d 0d82 783e
000001a0: 8ba0 38bb 98ad e13d a327 62bd 5704 86bd
000001b0: 2cd4 87bd 856e 3d3c f2e7 c33d 5057 0f3e
000001c0: 6027 a73d dae2 d3bd c252 123d e870 bb3e
000001d0: b354 d63d aa8b 143c b36f 1bbd b113 8cbd
000001e0: 97bb df3d f73e 87bd 998a dcba f74c 0cbe
000001f0: e751 173e 0ac2 c03c 4d76 4abc 8d6c 21bd
0.095495984 0.075149216 0.06412008 0.083351426 0.058205336 0.008894459 0.2909195 0.07202984
0.16536409 -0.21282847 -0.033736292 0.06220832 -0.13029931 0.06442647 0.09730024 -0.14934598
0.17743458 0.050246134 -0.059381466 -0.051682323 0.07279055 -0.06518524 0.23597865 -0.115934916
-0.16087161 -0.1898233 0.074750245 0.13477258 0.005122164 -0.0056250105 -0.16325666 -0.0477139
-0.06320112 0.054246675 -0.027573893 -0.15605374 -0.060639072 -0.11566325 -0.063473254 0.109783284
-0.032296974 -0.012549636 -0.047437806 -0.05383747 -0.06506643 0.019487996 -0.06751689 -0.24721394
0.1709274 0.050757322 0.0363106 0.025453053 -0.1106511 -0.08365941 0.022765683 0.23061113
0.025992159 0.017710993 -0.14830244 -0.10110804 -0.09532971 -0.1990801 0.051261634 0.00016061231
0.050212424 0.050021123 0.16049807 0.059344754 -0.082280785 0.03067601 -0.064141005 -0.12459002
-0.10114203 0.14647894 0.04978443 -0.06895654 0.055349197 -0.16412997 0.06673679 0.06990878
0.10356945 -0.21094076 0.08064602 0.10686807 0.07761222 0.14224976 -0.071557656 0.16621871
0.06348222 -0.0052301367 -0.10899341 -0.030290028 0.07896251 0.13695396 0.0077846646 0.07457332
-0.10633765 0.10079083 -0.023259485 -0.14658664 0.036492206 -0.054282006 0.06331193 0.2426836
-0.0028171863 0.110194385 -0.05521358 -0.065437965 -0.066322654 0.011561994 0.095657244 0.13998151
0.08161807 -0.10346003 0.035723455 0.36609578 0.10465374 0.009066502 -0.03794832 -0.06839693
0.10924452 -0.066038065 -0.0016825973 -0.13701235 0.14777337 0.023530025 -0.012357307 -0.039410163

fc3.weight f4 [64, 128]
00000000: 0901 093e 3aef 1f3d fbb7 1cbd 19b0 ad3d
00000010: 5383 283c 66bf 923d c9c3 803d d8f1 683e
00000020: 2ace d03d b177 9d3d 37fa bdbd 3bdf 6f3d
00000030: ca9b 47bc 3574 153e c7ec 883c 3cfb ab3c
00000040: 983e 313d 3abc c53b 8525 9fbe 0d32 5f3e
00000050: 8711 cdbd 9ad8 97bd 3ecd eebd 1469 d03d
00000060: ba7b 4d3e 91a5 eb3d 0b86 053e da15 2dbe
00000070: d302 5e3d f22a ab3d 0cfb 833d d8a3 b93d
00000080: e012 3ebd 6275 d93e 417f 453c ddc4 6d3c
00000090: 50cb 5a3e ef78 cc3d 70b4 193e 041f 6b3d
000000a0: 137f 133e b1e1 28bd d005 babd a11f 3f3d
000000b0: a096 dc3c e8c3 8ebd 6881 a33d d68b afbd
000000c0: 98d7 2fbe e08d 743a 81b7 9cbc d599 2c3d
000000d0: 3bc0 003d be5f a43d 41ec 1bbd 605e 0abd
000000e0: e267 90be 8180 503d 8cc9 493e 6a07 013e
000000f0: 39e9 f33d 6e82 68bc 92bb d7bd efd8 98be
00000100: 141f d9bc d7e6 0abe 4f27 8cbc 2889 993d
00000110: ddd4 1b3c a4e3 83be fca5 d2bc 27cc 2bbd
00000120: 2013 27bc 6d57 b1be b653 0c3c 010e 5ebc
00000130: 4374 8bbc 2d4d 903b 5f2b 3b3d 6bd6 693d
00000140: dc32 be3a 2f07 293e 689f b2ba 952e 323e
00000150: 6922 253d d468 9a3d ef53 c1be e766 24bd
00000160: 783a 5ebd 7f00 3e3e 79bc 92bc 4bb3 c1bc
00000170: 9f17 30be 83fa 4ebd ead6 47bd 0b45 bdbc
00000180: f50a c3bd 64c3 183e b7ed 22bd 2c4c e93c
00000190: a5d2 7abc d70d 0d3e 238d a03d 2f6a 7a3e
000001a0: 693d 67bd fa38 783d ca40 b7bd 4877 443d
000001b0: bdf9 49bd 82a0 cabc 1ba9 1cbe 26e4 2c3c
000001c0: 0618 a93d 4532 2e3d beb0 f33d 84f1 333d
000001d0: 9e21 683d fc9a 86be e1ca 5c3d e090 533e
000001e0: ff26 b23d 1991 383d 1186 543d fe8c db3c
000001f0: 92c1 48bd d8f8 54be 27ef af3d 7dc1 2b3c
00000200: 5f59 243e 4f53 42bd cdbb 973d 214a 1abd
00000210: 2164 01be e1de e13d 3dc3 3b3d 7f27 513e
00000220: 074f 653d 016f f6bc 4b93 abbd 1dbc ea3c
00000230: 0670 6cbd 3a1e df3d 855c 423d a552 283d
00000240: 28ca 75bc eeb0 f3bd a393 efbd 4b77 0a3e
00000250: aa2e bdbb d74d 11bd 3f22 573d a607 8ebb
00000260: d76f 8a3e 4933 1c3d e3af 713d f5eb 243d
00000270: 86ff 38bc 48f1 933d 3cc7 80bd bb74 643d
00000280: ec15 abbd ae1b b23e a640 39bd bf5f 18bd
00000290: 552b 303e 58c4 563c f3bd 953d 07b4 403d
000002a0: 880b 893d 5172 b7bd 8b78 02be 16e4 523d
000002b0: 7ea6 38bd 04fb 2b3d 9096 283d 2747 403d
000002c0: dc7f 86be 847c 213d 3c3e 023c 6a2e e23c
000002d0: 083d b93d d4e3 1d3e c2c7 eb3c 4f19 bdbd
000002e0: 8377 69be 115b 373d 8c8f 453e 79cb 123e
000002f0: a608 023e e2ed 4ebd a1a0 823d 7d0c 823b
00000300: 5fa9 673c 72ea d83c 3c34 b7bd 555f 843d
00000310: a4a3 643d 7f18 93be 20e8 04bd fd06 5dbc
00000320: 8564 413d 00e4 12be f7ca 3e3d d10d 69bd
00000330: 527f ad3d e2f8 023e afda 91bc 4503 2a3d
00000340: 4572 eab9 0cc7 e93d faa1 223c 093f 5e3e
00000350: d227 7a38 d55f 0b3d e518 40be 4ae3 d2bd
00000360: e12e 26bd 380e 823e 9eef 49bc a3f2 043e
00000370: 114a a8be a6ee 84bd 2d63 09bc 4d73 243c
00000380: 8fed 0bbe 39bc 343e be5f adbd 3182 9b3d
00000390: 68c4 51bd da21 923d 63c3 cdbc 3153 8c3e
000003a0: 7db5 ed3d 4fe3 1abd cbaa c8bd 4319 293c
000003b0: d528 22bd a3df e73d 9cff 17be 4571 31bc
000003c0: 3bf8 52bd 1def a63d 98cc 2b3e bcb3 823d
000003d0: a17a 923c cd77 7dbe 44c1 8abd 9e9a ef3d
000003e0: 8f38 483c 2264 7b3d aa26 ef3d de07 3ebe
000003f0: ff11 7c3d 2b2a 03be a15b 623d 943b a3ba
0.13379301 0.039046504 -0.038261395 0.084808536 0.010285216 0.071654126 0.06287343 0.22748506
0.10195573 0.07688845 -0.0927624 0.0585625 -0.012183139 0.1459511 0.016714467 0.020993821
0.043272585 0.0060344012 -0.31083313 0.21796437 -0.10013109 -0.0741436 -0.116602406 0.10176292
0.20066729 0.11506189 0.13039415 -0.16902867 0.054201912 0.083578005 0.06444368 0.09064454
-0.04640472 0.42472368 0.0120542655 0.014512268 0.2136662 0.09984004 0.15010238 0.057402626
0.14403944 -0.04123086 -0.0908314 0.046661023 0.026927292 -0.0697096 0.07983667 -0.085715935
-0.17172086 0.00093290024 -0.01913047 0.042138893 0.031433325 0.08026074 -0.038067106 -0.03378141
-0.28204256 0.0509038 0.1970579 0.12600484 0.11909718 -0.014191253 -0.10533823 -0.29853007
-0.026504077 -0.13564621 -0.017108588 0.074968636 0.0095112 -0.25759614 -0.025713913 -0.04194274
-0.010197431 -0.34637013 0.00856488 -0.0135531435 -0.017023211 0.0044037313 0.04569566 0.05708925
0.0014511007 0.16506647 -0.0013627829 0.17400582 0.04031602 0.07539526 -0.3775935 -0.040137198
-0.05425498 0.18554877 -0.017912136 -0.023645064 -0.1719651 -0.050531875 -0.048788942 -0.023104211
-0.09523574 0.14918286 -0.039777484 0.028478704 -0.015309011 0.1377481 0.0783942 0.24454568
-0.05645505 0.060601212 -0.089479044 0.047965318 -0.049310435 -0.02473474 -0.15298884 0.010552442
0.08256535 0.04252841 0.11898945 0.0439315 0.056672685 -0.2629012 0.053904418 0.20660734
0.08698844 0.04506025 0.05188567 0.026800629 -0.049012728 -0.20798051 0.085905366 0.010483143
0.16049717 -0.04744273 0.07408867 -0.03766835 -0.12635852 0.11028839 0.04584049 0.20425223
0.05598357 -0.030082228 -0.08377703 0.028654153 -0.05772402 0.10894437 0.047451515 0.04109444
-0.015001811 -0.11898981 -0.11698081 0.13522069 -0.005773385 -0.035474624 0.052522894 -0.004334408
0.27038452 0.038134847 0.05900563 0.04026409 -0.01129139 0.07223755 -0.06288001 0.055775385
-0.08353791 0.34786743 -0.04522767 -0.037200686 0.1720403 0.013108335 0.073116206 0.047046687
0.066916525 -0.08957351 -0.12741296 0.05148705 -0.045080654 0.041987434 0.041159213 0.046942856
-0.26269424 0.039425388 0.007949408 0.027610023 0.09044844 0.15418941 0.028781775 -0.09233343
-0.22799496 0.044764582 0.1929304 0.14335431 0.12698612 -0.05051983 0.06378294 0.003968774
0.014139502 0.02647898 -0.0894551 0.06463496 0.055820122 -0.28729627 -0.032447934 -0.013490436
0.047215004 -0.14344788 0.04658028 -0.056897942 0.0847155 0.12790254 -0.017804472 0.041507024
-0.00044717095 0.11414918 0.009926314 0.21703734 5.964173e-05 0.03402694 -0.18759497 -0.10297258
-0.04057205 0.25401473 -0.012325196 0.12983184 -0.32869008 -0.06490831 -0.008385462 0.0100372555
-0.1366484 0.17649926 -0.08465527 0.075931914 -0.0512127 0.07135363 -0.025117582 0.2740722
0.11606882 -0.037814435 -0.09798201 0.010320964 -0.03958972 0.11321952 -0.14843601 -0.010830228
-0.051506262 0.08151076 0.16777265 0.06381938 0.01788074 -0.24752732 -0.06775144 0.11699413
0.012220516 0.06137479 0.116772965 -0.18557689 0.0615406 -0.12809055 0.055263165 -0.0012453669

fc3.bias f4 [64]
00000000: d273 8e3d e22f a9bd ba6a 683e e5cc 633d
00000010: e266 2a3e 06f6 333e ddde 0fbc 1bb7 433d
00000020: fc9d 8dbd 3bb3 ebbd 59bd dc3d 0475 1bbd
00000030: 80a6 e3bd 41d4 403e f0a7 2a3d 0082 89bc
00000040: de64 d5bc bc66 14be 44ad d33c 9a0e f6bd
00000050: ccee 5ebd b91c 953d bbfa 6a3e a466 413e
00000060: 8ce0 94bc 5e75 b13d 1a8c 143d 2d15 b8bc
00000070: 4e9e fabd 2ddd 253e 81c1 4ebd 686d ec3b
00000080: 5a70 ec3d 24ec 39bd 4483 e83d 1724 ff3d
00000090: 4914 ce3b d0da 38be 84b4 173e 5bb9 39be
000000a0: 81f3 b23c bf23 363d a2ad 38bd 094b 6dbe
000000b0: 1f5c bc3d 2b41 54bd badf 923d c3df 493e
000000c0: be29 723e 2612 dd3d c8a7 86bc 6d26 273d
000000d0: d4b5 adbd e814 cbbd 8e36 3f3d 136c 93bd
000000e0: bb53 fb3c d33f 88bd e385 003d 7ddc 133d
000000f0: 2bb3 48be 02db b13d 358d b2bd d489 263e
0.06955685 -0.08261086 0.22696963 0.055615325 0.16640809 0.17574319 -0.008781162 0.047782045
-0.06914899 -0.11508795 0.10778303 -0.03795339 -0.11115742 0.18830968 0.041664064 -0.016785622
-0.026049074 -0.14492315 0.025839455 -0.12014504 -0.054426953 0.07280869 0.22947209 0.1888681
-0.018173479 0.08664964 0.036266424 -0.022471035 -0.122372255 0.16197653 -0.05047751 0.0072151907
0.11544867 -0.045391217 0.11353162 0.124580555 0.0062890393 -0.1805222 0.14814955 -0.18137114
0.021844627 0.044467684 -0.045087464 -0.23173155 0.09197258 -0.05181996 0.07171579 0.19714265
0.23648736 0.10794477 -0.016437426 0.04080813 -0.084819466 -0.09916097 0.046682887 -0.07198348
0.030679574 -0.066527985 0.031377684 0.036098946 -0.19599597 0.086843506 -0.08718339 0.16263515

fc4.weight f4 [1, 64]
00000000: e4fc 42be d13c d8bd 2502 92be 2820 58be
00000010: e656 fcbe 6a14 5b3e 2e55 6dbe 23c5 6bbe
00000020: 5222 323e c734 5ebe 7ddb 273f de9b 483f
00000030: 4b87 aebe 003e 7ebe 5b1e 3abe 789a 01be
00000040: f50c 9bbe 9634 963e 8b37 a1be ec69 f1bd
00000050: 1b2a 64be 6e7e 3fbe ecec 78be af22 713e
00000060: 5f57 3abe e892 643e d344 9ebe c99f e1bd
00000070: 2394 92be 7d3f 64be 0a63 503f 3ebc 47be
00000080: b65b 7abe 3b30 da3d d7b6 a9bd 7308 3abe
00000090: f0bd 26be 6575 763e be12 013f a0b6 5bbe
000000a0: fe5d e5bd 0bf7 84be 5da0 bf3d 04d9 293f
000000b0: 3bb3 f83e 136d 69be 5571 1dbe e74c 023e
000000c0: d4a6 82be d8ca 87be ced3 9fbe c1fc 2dbe
000000d0: 041e 6c3e 32cd 123f d44c 82be d03b 193e
000000e0: 9555 f43e 70d6 1f3f 63dc e6bd de78 9dbe
000000f0: 4d54 2e3e 8bca 093f a6c3 58be 9343 78be
-0.19041783 -0.10558475 -0.2851726 -0.21106017 -0.49285048 0.21394506 -0.23177025 -0.2302442
0.17395905 -0.2169982 0.6556929 0.78362834 -0.34087595 -0.24828339 -0.18175642 -0.12656581
-0.30283323 0.29336995 -0.31487688 -0.11787781 -0.22281687 -0.18700573 -0.24309129 0.23548387
-0.18197392 0.22321665 -0.30911884 -0.11016805 -0.28628644 -0.22289844 0.8140112 -0.19505402
-0.24449047 0.106537305 -0.08286827 -0.18167286 -0.16283393 0.2406822 0.50419223 -0.21456385
-0.11199568 -0.2596973 0.09356759 0.66346765 0.48574242 -0.22795515 -0.15375264 0.12724648
-0.25517905 -0.26521945 -0.31216282 -0.16990949 0.23058325 0.57344353 -0.2544924 0.14964223
0.47721544 0.6243658 -0.11272504 -0.30756277 0.17024346 0.5382468 -0.21168384 -0.24244528

bn1.weight f4 [256]
00000000: 9dff af3f 399c 313f 041b 7e3f 7864 433f
00000010: 77fb 723f 529a 353f 4c3f 093f 0def 323f
00000020: 80bd 7b3f ae97 3b3f 0124 5c3f 4126 513f
00000030: 3236 cd3f d21d 813f edaa 253f 2032 983f
00000040: 561c 8e3f 48e1 b43f 0571 0840 6292 1e3f
00000050: 2375 8f3f 66f6 6e3f 0c5b 423f 2ff3 743f
00000060: b084 bc3f 125b 913f 969e 9c3f 7e69 7d3f
00000070: d5d0 e33f 6fb3 c13f 7a76 5b3f 9f82 8a3f
00000080: ea90 983f 20c7 8c3f 46d8 b63f 2944 103f
00000090: b06f a43f 3f12 ca3f 0473 a03f 927b 873f
000000a0: 915f 063f 4e6b 703f e466 8b3f 94bd e13e
000000b0: 46d1 9a3f 470d e13f 68af 8c3f 8c4c 493f
000000c0: 949e 823f 7909 793f a84a 8f3f 4e1d a13f
000000d0: 7045 a43f 7dd4 973f 61f1 a83f be41 0a3f
000000e0: 12ac a73f 3152 1e3f 935d d03f 3a65 923f
000000f0: 1d4e a23f 7416 913f 8cfa 1b3f e6c8 3f3f
00000100: a664 513f f83a 8f3f 0d8f 883f cdd4 2b3f
00000110: 1447 9a3f 91ff af3f 4b98 7c3f b801 bb3f
00000120: df9b 893f 03ad 953f 4823 933f 2c63 a93f
00000130: a493 233f 302d 4c3f a092 593f c16d 2c3f
00000140: b30e a93f 3c7e 913f e5b5 8e3f 8941 7b3f
00000150: ef2f 483f a21e 353f 5dde 8f3f 64de b43f
00000160: 61fc 7c3f d75e 103f 9603 803f 0f55 1d3f
00000170: 1f09 143f 74da 8b3f 3177 353f 67b9 353f
00000180: c5fa 873f 7db8 963f 9c99 0f3f ff8b ca3e
00000190: ac1e 9d3f f2b4 283f c7ca 853f c6bc 603f
000001a0: 3aa5 883f 98ef 3d3f 6464 753f 6734 ba3f
000001b0: 3c50 223f c78b b83f 673b 963f d550 303f
000001c0: bf16 993f 82a5 a73f 53f9 d03f 9381 703f
000001d0: 0627 463f ca4d 8a3f 7978 823f 601f 513f
000001e0: f72b 933f a8d1 743f be8b 883f f5c4 843f
000001f0: ce71 3b3f b67b 803f 2802 6e3f d8bc 9e3f
00000200: 2291 c13f 0aca 123f 8ca0 713f 1367 3f3f
00000210: bc21 873f 8089 133f 9742 a03f 3a86 c43f
00000220: a19b 233f 28f9 ab3f 6b7f 6e3f 8284 913f
00000230: 8f87 543f 5b17 bc3f 0c05 5a3f 52f5 ab3f
00000240: 2df2 9b3f 6863 8b3f b9b2 913f 8350 7d3f
00000250: e7fa a03f 67b5 a03f c876 9e3f 6038 243f
00000260: 3f4f 993f 5730 9a3f faa2 0c3f afeb 8f3f
00000270: 8f9d 873f a598 853f ed26 b63f e1b1 053f
00000280: 103a 513f 3ace 6c3f cab4 613f 0f48 883f
00000290: 0d6d 913f c9c5 683f ea3d 813f c9bb 8e3f
000002a0: 15a5 993f 679b f03e bcad 8f3f 3551 803f
000002b0: 05f3 c33f 9ec6 a83f e5b5 743f ad98 a33f
000002c0: 0b8f 423f 784a 2b3f 8edc 933f 1ae6 993f
000002d0: f95e 213f c1f0 dc3e 5caa 9f3f ef14 a03f
000002e0: 060a 2c3f 9083 ea3e 5598 a43f eb73 a23f
000002f0: fafa b93f 82d6 943f 3164 263f 6d80 993f
00000300: f49b c33f 0872 913f c1a5 873f 785f 543f
00000310: 3b3b ac3f 1040 bb3f 9023 2e3f 82c6 8b3f
00000320: 7fa6 733f c6a7 763f ea8a 073f cf48 8f3f
00000330: 830d 903f 9bf2 883f bd93 973f d240 b23f
00000340: 1e98 8f3f e71d 5b3f f57f a13f f82e 963f
00000350: 83c0 713f 477a 1c3f ce88 8e3f f6a2 1d3f
00000360: 83a2 923f 5a5e 6e3f 3248 883f 30ed a73f
00000370: f67b 903f 8940 613f 1482 5b3f b483 ad3f
00000380: 32a1 1b3f f2e5 b03f 26a4 613f 0b52 933f
00000390: 5dec d23f 64dc 8a3f 5240 293f 59c7 703f
000003a0: 9f98 383f b666 6a3f 5d8a 9c3f 46e7 3d3f
000003b0: a4cd a23f 91bc 943f 72af a03f d08a 323f
000003c0: d46a a33f 44a4 263f 7616 803f e739 343f
000003d0: c299 073f e1f9 8b3f 4c89 1d3f 81b5 643f
000003e0: b313 8a3f ceba a93f e51c 423f ff88 b83f
000003f0: c998 7d3f 8f26 ce3f 3bcb 813f 8aaa b43f
1.3749882 0.69379 0.9925997 0.7632518 0.94914955 0.709386 0.5361221 0.6989601
0.9833603 0.7327832 0.8599244 0.81698996 1.6032164 1.0087225 0.6471394 1.1890297
1.1102397 1.413125 2.1318982 0.6194211 1.1207622 0.93344724 0.75920177 0.9568357
1.4727993 1.1355917 1.2235897 0.98989093 1.7798105 1.5132884 0.85727656 1.0821112
1.1919224 1.0998268 1.4284751 0.56354004 1.2846584 1.5786818 1.25351 1.0584586
0.5248957 0.93913734 1.0890775 0.4408995 1.2095115 1.7582177 1.099103 0.78632426
1.0204644 0.9728008 1.1194658 1.2587068 1.2833691 1.1861721 1.3198663 0.54006565
1.3099387 0.61844164 1.6278557 1.1437142 1.2680088 1.1334977 0.6092918 0.7491592
0.817942 1.1189871 1.0668656 0.67121583 1.2052941 1.3749868 0.9866988 1.46099
1.0750693 1.1693424 1.1495142 1.323339 0.63897157 0.7975645 0.84989357 0.6735497
1.3207611 1.1366649 1.114926 0.98146874 0.7819814 0.70749867 1.1239735 1.4130368
0.988226 0.56394714 1.0001094 0.61457914 0.5782642 1.0926042 0.70884997 0.70986027
1.0623404 1.1775051 0.56093764 0.39559934 1.2274985 0.659011 1.0452508 0.87788045
1.0675423 0.74193716 0.9585631 1.4547242 0.6340368 1.4417657 1.1736878 0.6887334
1.1960067 1.3097384 1.6326088 0.93947715 0.77403295 1.0804989 1.0193015 0.816885
1.1497792 0.9563241 1.0667646 1.0372607 0.7322053 1.0037754 0.9297204 1.240138
1.5122416 0.5733954 0.943856 0.74766654 1.055717 0.57631683 1.2520322 1.5353463
0.63909346 1.3435411 0.93163174 1.1368563 0.83019346 1.4694628 0.8516395 1.3434241
1.2183281 1.0889711 1.1382667 0.98950976 1.2576569 1.255536 1.2379999 0.6414852
1.1977309 1.2046002 0.5493618 1.12438 1.0594958 1.0437208 1.4230629 0.52224547
0.8172922 0.92502177 0.8816649 1.064699 1.1361405 0.90926796 1.009702 1.1151057
1.2003504 0.46993563 1.1224895 1.0024782 1.5308539 1.3185613 0.9559005 1.2780968
0.75999516 0.66910505 1.1551683 1.2023346 0.6303554 0.4315243 1.2473865 1.2506388
0.67202795 0.458035 1.2858988 1.2691625 1.4529717 1.1627963 0.6499663 1.1992317
1.5281968 1.1362925 1.0597459 0.82958174 1.3455576 1.4628925 0.68023014 1.0919955
0.9517593 0.9634975 0.5294634 1.1194094 1.1254123 1.0699037 1.1841961 1.3926032
1.1218297 0.855925 1.2617174 1.1733084 0.94434375 0.6112408 1.11355 0.61576784
1.1455845 0.9311272 1.0647032 1.3119259 1.128783 0.879891 0.8574536 1.3555818
0.6079284 1.3820174 0.88141096 1.1509413 1.6478382 1.0848508 0.6611377 0.9405418
0.7210788 0.91562974 1.2229725 0.7418102 1.2719007 1.1620046 1.2553542 0.6974306
1.2766976 0.650944 1.0006855 0.7040085 0.5296899 1.0935632 0.61537623 0.89339453
1.0787262 1.3260133 0.7582534 1.4416808 0.99061257 1.6105517 1.0140146 1.4114544

bn1.bias f4 [256]
00000000: 4890 e0bd 483d 773b 5ee3 debe 0d47 37bd
00000010: 4d51 f7bc 6928 b1bd fabf 99bc e6a8 96bd
00000020: 4607 0d3d 3485 a7bc cca3 16bd 0f95 a8bd
00000030: a1e6 283d e32f 0c3c 59ef 9f3c f90d 1abd
00000040: 0b24 04bd 59a5 c1bc d4a0 9cbc 12f9 8ebb
00000050: 5d11 103d 145e 60be 77b9 0ebc 34df 013d
00000060: 373c 34bc 3a33 a7bc 644e 403b 019a 623e
00000070: 05fd fdbb aa0f d9bc ec5a dd3a 4ab9 c1bc
00000080: f729 053e e03e 7cbe ea46 2cbd 0c88 5bbd
00000090: 2308 b1bc 2768 2abd b874 1bbd 10b3 393d
000000a0: b22e 63bd 9671 9b3c 6db2 3e3d 7e53 2abe
000000b0: 60d1 16bd 1e15 1fbd 928a cdbc c1ea d2ba
000000c0: 096d 07be ec83 463d ed26 d33c 6125 35bd
000000d0: 17d8 3abd 0b5a d7bc 5243 813d 4931 b2bb
000000e0: a1bb 1e3c e5bc 05be e3a0 3dbd ba6e ddbd
000000f0: 3199 99bb f037 adbc 680e 36bc ae63 db3c
00000100: 1287 a1ba e3ff 4b3d 0833 fa3c 7144 283c
00000110: 0692 51bc e017 dabc 02a5 073d 302c 5cbe
00000120: f44d 81bd 90e8 0bbc 8073 dabc 7b85 2abd
00000130: aae4 23bd e665 a9bb c626 b9bd 892c d8bd
00000140: 9516 57bc 8357 05be 0e55 1f3d aaa4 cebd
00000150: f48d 6c3d 9e43 93b9 4bf2 3a3d d5b3 aebd
00000160: b2e0 febc 062b 343e b723 013d c786 a7bd
00000170: 81dc de3d be42 cebd 36d4 523a 5e15 c63a
00000180: 702d 073d c7e8 243c 2b29 57bd c0e5 083d
00000190: a604 aebd c452 d9bb 23d4 163a 4475 65bd
000001a0: 8a81 193d f822 a5bc b5b7 b6bb 474f 32bd
000001b0: 9b6e 0c3c 254d d33c c4c6 f03c e803 7cbe
000001c0: a516 e6bc 7017 dfbc 56a6 33bd f166 e73c
000001d0: c015 c03b 2867 8d3d cbfe cebd 5046 cabd
000001e0: a96f 103d 3b6a 2e3f 4d03 a33c a249 89bc
000001f0: a8f1 8fbe 67f9 0abe 76df c5bd 9e1f 10bd
00000200: 1d0b 9ebc f286 e6bc 1cfb 0b3d 3cea b8bd
00000210: dc1a da3c 709a 1439 259b 183d 9196 103d
00000220: 5116 a83d e953 dabc 2b3f c73c 4d3f 5e3d
00000230: 0ec8 debd 45c1 2ebd dd61 53bd 04bb 55bc
00000240: 424f f43c 7ac5 b23c 9a9e 99bd 02dd 983c
00000250: fdc5 05bd 37a6 01bd 1671 83bc 2a32 c63a
00000260: a913 313d fd72 dd3c 287d 45bf 3138 29be
00000270: c3e1 12bd 0229 093d 56f0 553d 7dc8 efbc
00000280: 92f9 f1b8 7b31 e23c 6384 d03d 0a9e fdbc
00000290: 6d8a 57bd 891e b9ba fe23 243d 4dbc f6bc
000002a0: 19a8 11bd 5611 213b c819 1a3c 45a2 b5bc
000002b0: 0fb2 07bd efbd ffba 1363 be3c f0b3 b73d
000002c0: 9db3 6bbc 8ffe 91bc d7fb 4b3d bfcb c5bd
000002d0: 5157 5cbd d0c2 f8bc 8581 043d 113c 01bd
000002e0: c2c3 39bd 4614 2abc d87c 73bd a3ed 94bd
000002f0: 82a3 32bd 75b4 243d 59ac 183b 2e6c 693d
00000300: 1a91 043d a352 03bd 7edf a13f 193d 35bd
00000310: c53f 993a 7f9d 9abd 05db adbe 0a60 b5bd
00000320: 1475 5f3d a40f 313d 8daf 1dbd 5f8b 3f3d
00000330: 545c e73c b8e1 4c3c 9c73 a3bb 6b7f 1cbd
00000340: 216f 463d ce92 45be dd6c b7bc 9a30 a4bc
00000350: a7b2 973c a9df e0bd c7f2 cabc aa21 cbbc
00000360: 5f8f dcbc a2e1 bfbd d202 033d d70a bebc
00000370: 15d8 323d cac3 5c3d 0b60 163c 785c b7bd
00000380: d756 41bd 001e 05be e686 16be ecb3 30be
00000390: 6c42 b33c fb69 0cbe 9af8 64bc 6368 4e3d
000003a0: 6c17 bfbc f6bc be3c 7d31 6b3e 1076 fcbb
000003b0: 81e4 2ebd 712c c53d 6687 d1bc 4902 a5bd
000003c0: 230e 3d3b ffe1 ddbb cb45 8c3e 85dc 213c
000003d0: 2110 52bb aba0 0dbc c6f3 a4ba 8bc1 6d3b
000003e0: f1d9 453d f340 25bd 763c 33be dda1 1cbd
000003f0: 2821 12bd 585e 9bbc 02ba 3bbe 59a8 ad3c
-0.109650195 0.0037725735 -0.43532842 -0.044745494 -0.030190134 -0.08650286 -0.0187683 -0.073564336
0.034430765 -0.020449258 -0.036777303 -0.08231556 0.04123557 0.008556339 0.01952331 -0.03761098
-0.032260936 -0.023638414 -0.019119658 -0.0043631876 0.03517281 -0.21910888 -0.00871121 0.031707004
-0.011000684 -0.020410169 0.00293436 0.2212906 -0.0077511095 -0.026496727 0.0016888059 -0.023647923
0.1300429 -0.2463336 -0.042059816 -0.05359654 -0.021610325 -0.041603234 -0.03795311 0.045336783
-0.055464454 0.01897506 0.04655688 -0.16633412 -0.03682077 -0.0388385 -0.02509049 -0.0016091691
-0.13225187 0.048465654 0.025775397 -0.0442251 -0.045616236 -0.026288053 0.063116685 -0.005438004
0.009688289 -0.13060339 -0.04629601 -0.10812135 -0.0046874513 -0.021144837 -0.011111833 0.02678093
-0.0012323579 0.04980458 0.030541912 0.010270224 -0.012791162 -0.026622713 0.033116348 -0.21501231
-0.063136965 -0.008539334 -0.026666403 -0.041631203 -0.040012993 -0.005169618 -0.090405986 -0.105553694
-0.013127943 -0.13021664 0.038899474 -0.10090001 0.057752565 -0.00028088404 0.045641225 -0.08530394
-0.031113002 0.17594537 0.0315282 -0.081800036 0.108819015 -0.10071324 0.0008042486 0.0015112569
0.033002317 0.010065264 -0.052529495 0.03342223 -0.0849698 -0.006632181 0.0005753657 -0.056020036
0.037477054 -0.020158276 -0.005576099 -0.043532636 0.008571292 0.025793621 0.029391654 -0.24610865
-0.02808697 -0.027232856 -0.043859802 0.028247328 0.005861968 0.06904441 -0.10107192 -0.09876692
0.035262737 0.68130845 0.019899035 -0.016758744 -0.28114057 -0.13571702 -0.096617624 -0.035186402
-0.019292409 -0.028140519 0.034175023 -0.09029052 0.026624136 0.00014171912 0.037257332 0.03529984
0.082073815 -0.02665134 0.024322113 0.054259587 -0.10878001 -0.042664785 -0.051607 -0.013045076
0.02982295 0.02182268 -0.07500954 0.018660072 -0.03265952 -0.031652655 -0.016045135 0.0015121151
0.04323164 0.02703237 -0.771441 -0.16525342 -0.035859834 0.033486374 0.052231155 -0.029270405
-0.000115382616 0.027611485 0.10181501 -0.030959148 -0.052622247 -0.001412348 0.040073387 -0.030119086
-0.0355607 0.0024576983 0.009405561 -0.022172103 -0.033128794 -0.0019511561 0.023240602 0.08969867
-0.014386085 -0.017821578 0.04980072 -0.09658002 -0.05379421 -0.030366331 0.032350082 -0.031551424
-0.045352705 -0.01038081 -0.059445232 -0.07271888 -0.043612964 0.04021116 0.0023296087 0.056987934
0.032364942 -0.03206123 1.2646329 -0.04424772 0.0011691978 -0.07549571 -0.3395616 -0.088562086
0.054555014 0.043227807 -0.038497496 0.046763774 0.028242268 0.012504987 -0.004988147 -0.038207453
0.048445825 -0.19294283 -0.022390777 -0.020042706 0.018517805 -0.1098016 -0.024773968 -0.024796326
-0.026923833 -0.09369208 0.03198511 -0.023198528 0.043663103 0.053897657 0.009178172 -0.08953184
-0.047201958 -0.12999725 -0.14699897 -0.17256135 0.021882258 -0.13712303 -0.013975287 0.05039252
-0.023326598 0.023283463 0.22968097 -0.007704504 -0.042698387 0.09627617 -0.025577258 -0.080570765
0.0028847537 -0.0067713256 0.27396998 0.009879236 -0.003205307 -0.008644263 -0.0012584857 0.003627869
0.04830355 -0.040345144 -0.17503533 -0.038240302 -0.03567615 -0.018965885 -0.18332675 0.021198438

bn1.running_mean f4 [256]
00000000: df34 89c0 bda0 1940 f8bf 57c1 311e 6640
00000010: 7a70 62c0 b86c e13f 9677 8740 8f0c 0f40
00000020: f820 0a40 3d3d 6f40 0c09 1740 de3c 013f
00000030: 48e7 813f 70a4 8f3e 5f85 d240 e4b8 adc1
00000040: f931 23c0 d96d 4ac0 9229 a1c0 7b8d 0d41
00000050: 75ee 95be ee62 92c1 2933 0a40 1016 2840
00000060: 9b49 9bc0 ff86 f3c0 7c93 82c1 af07 70c1
00000070: a832 c0c0 cde1 42c2 e93a bd40 71a7 5fc1
00000080: 9436 3ac2 4c57 e8c0 4fc7 09c2 1c75 7240
00000090: aa22 d5c1 74b3 08c0 acaa f3c0 b01f 9e3f
000000a0: c8a3 9840 dede 3740 af66 12c1 a10e 1a41
000000b0: 34a4 30c2 49b7 ccc0 7866 c1c0 58c2 5c3f
000000c0: fa58 e0c0 855d b03f 80fa c1bf 4e88 9fbe
000000d0: 427e 1fc1 f640 0ac0 b23b 8c3f 7a06 fc40
000000e0: 2b43 fec0 84a2 4240 b970 24c2 31ab e2c0
000000f0: 0f07 bdbf fc38 96c1 648c e93f e8e8 733f
00000100: 39d6 493f 0d4f 07be f1b0 2140 9430 0340
00000110: 2f89 dbc1 bc53 03c2 2d03 c33f 7d30 49c1
00000120: 868e 03c2 039c b7c0 fe1e a3c1 cb2a 80c2
00000130: b6bf 9b40 bf4e dc40 f428 4e40 9515 2740
00000140: 274d d2c1 4fb1 59c1 0708 6340 27db bac1
00000150: 6c11 aa40 f95f d640 d76d 3a40 0d6e 24c2
00000160: f181 8340 50e3 0441 b35f 2b40 240d ef40
00000170: d2e3 bd40 1fe1 f3c1 280c 8e40 8332 9e40
00000180: 5126 dcbc 103a d5bf 8075 2940 73db 2741
00000190: 7bf3 09c2 9581 c740 4e9b 753f 400d 24c0
000001a0: 1ad0 0d40 b841 3640 9b29 6540 5b17 19c2
000001b0: 2311 9040 eb4d 39c2 8873 d0be ca02 06c1
000001c0: afb6 40c2 9af4 86bf ebca 6fc2 9952 1a40
000001d0: 2423 3040 c3c5 96c0 3778 d8c0 253e 1ec2
000001e0: eaba 4f40 857d a1c1 149a 1cc0 e832 3cc0
000001f0: c1b6 ee40 6097 0ac1 64d1 cac1 5577 34c0
00000200: a396 37c2 93fa c340 80fb 813f e4b8 3340
00000210: b4e5 02bf 1cd9 5641 62d1 d6bf e242 27c2
00000220: 6819 ef40 17bc 78bf 4d2a 6240 8247 1b40
00000230: 1152 68c1 e050 12c2 f854 b2c0 30fb 42c0
00000240: 0334 c6c0 fbac a7c0 0718 05c1 bd6f 9340
00000250: 9edc acbf dadb 8bc0 3b0f 37c0 1777 1140
00000260: 4a8e 19c0 fab6 eb3f da0b a840 bd2e 13c0
00000270: 0264 2cc1 851b 8d3f 3510 9ac1 5767 9a40
00000280: 8e6d cd40 181c 953f 50c9 cc3f cab3 f5c1
00000290: 3d9b 3bc0 ff6c 7c40 212a 0140 4319 4f3f
000002a0: dcee 43c0 63a0 ac40 eaaa 11c1 406f b3c0
000002b0: 3f4e 80c2 63fa 65c0 6dda 3140 ad25 62c0
000002c0: 7215 9240 f6aa 9c40 85d6 3240 c86b 2ac1
000002d0: 1d05 4440 47cc 2b41 0758 5f40 a20f 01c2
000002e0: a870 7540 95bb cb40 bcaa 75c0 19b1 9cc1
000002f0: 4cf0 6dc2 e9bb 0340 85fa ae40 3839 ddbf
00000300: 9f90 80c0 e58d d6c1 9871 65c1 8672 9ac0
00000310: 231f 6ec1 dc63 26c2 2128 27c0 5527 02c0
00000320: 5a05 9040 18a9 1640 89f0 1041 ed4b 773f
00000330: 34b2 8740 bb9c 1f40 c478 053f 793e 16c2
00000340: 0f59 9040 ac4f cb40 762e 9b3f 399d 30c1
00000350: 0562 b83f cd38 af40 a84d e5c1 8441 3440
00000360: 3586 73c0 f862 0ac2 2db9 e23f 2810 13be
00000370: 1c20 6f3f 67fa 6740 dec3 3f3f 0bb9 22c1
00000380: 0bb7 4e41 d2e9 e6c0 b99c 3fc1 6e1c 60c1
00000390: 5c42 84c2 d86e eec0 204b 5e40 c2f9 34c0
000003a0: de4c 8240 a5ba 9240 4b55 88c0 c927 3d40
000003b0: 6f80 39c1 8a5f 27c1 9d14 02c2 2c14 0c40
000003c0: c9df 33c1 9d61 e940 7dd7 9fc0 3e08 2740
000003d0: 1846 623e 83b6 b1c0 6c66 7f40 3f4e 0d40
000003e0: 7047 f2bf 718d 15c1 92fa 0c40 fd00 12c0
000003f0: 0fd3 3540 f6f9 36c2 4ccc 02c1 e75f 2bc2
-4.287704 2.4004357 -13.484367 3.5955927 -3.538115 1.7611303 4.233348 2.2351415
2.1582623 3.7381127 2.3599272 0.504835 1.0148706 0.28055143 6.5787807 -21.715279
-2.549925 -3.1629546 -5.0363245 8.847041 -0.2928349 -18.298306 2.1593726 2.6263466
-4.852735 -7.610229 -16.322014 -15.001876 -6.0061836 -48.72051 5.913441 -13.978379
-46.5533 -7.2606564 -34.444637 3.7883978 -26.641926 -2.135953 -7.614584 1.235342
4.769993 2.8729777 -9.150069 9.6285715 -44.160355 -6.3973737 -6.0437584 0.86234045
-7.0108614 1.377854 -1.5154572 -0.3115868 -9.968325 -2.160215 1.0955718 7.8757906
-7.945699 3.0411692 -41.11008 -7.0833974 -1.4767779 -18.777824 1.8245969 0.9527726
0.788425 -0.13213749 2.5264246 2.04984 -27.441984 -32.83177 1.5235344 -12.574338
-32.889183 -5.7377944 -20.390133 -64.08358 4.867152 6.8846126 3.2212496 2.6106923
-26.287672 -13.605788 3.547365 -23.357008 5.3146267 6.6992154 2.912954 -41.10747
4.109612 8.305496 2.677716 7.470354 5.93406 -30.484922 4.438984 4.943666
-0.02687374 -1.6658344 2.6477966 10.491076 -34.487774 6.234568 0.959401 -2.5633087
2.2158265 2.8477612 3.5806644 -38.272808 4.502092 -46.32609 -0.40713143 -8.375681
-48.178402 -1.0543396 -59.948162 2.4112914 2.7521448 -4.711641 -6.7646747 -39.560688
3.2457833 -20.186289 -2.4469042 -2.940607 7.459809 -8.661957 -25.352242 -2.8197834
-45.897106 6.1243377 1.0154877 2.8081598 -0.5113175 13.428005 -1.6782649 -41.815315
7.4718513 -0.97162 3.5338318 2.4262395 -14.520036 -36.57898 -5.572872 -3.0465813
-6.193849 -5.239866 -8.318366 4.60739 -1.3504827 -4.3705873 -2.8603046 2.2728937
-2.3993096 1.8415215 5.2514467 -2.2997277 -10.774416 1.1024023 -19.257914 4.8251147
6.4196234 1.1649199 1.5998936 -30.712788 -2.93135 3.9441526 2.0181963 0.8089792
-3.0614538 5.3945785 -9.104227 -5.6073303 -64.152824 -3.5934074 2.7789567 -3.5335495
4.565118 4.8958693 2.7943432 -10.651314 3.062812 10.737372 3.4897478 -32.265266
3.835001 6.366648 -3.8385458 -19.586473 -59.484665 2.0583441 5.468081 -1.7283087
-4.017654 -26.819284 -14.340233 -4.82648 -14.882602 -41.59752 -2.6118243 -2.0336506
4.5006533 2.3540707 9.058724 0.9660023 4.2405033 2.493941 0.521374 -37.56101
4.5108714 6.3534756 1.2123554 -11.038384 1.4404913 5.4756837 -28.662918 2.8164988
-3.8050663 -34.59665 1.7712761 -0.14361632 0.9340837 3.6246583 0.74908245 -10.1701765
12.919688 -7.2160425 -11.975762 -14.006941 -66.12961 -7.4510307 3.4733353 -2.827744
4.071883 4.5852838 -4.2604117 2.9555533 -11.593856 -10.460825 -32.52013 2.1887312
-11.242135 7.2931657 -4.9950547 2.609878 0.22097051 -5.5535293 3.9906263 2.2079008
-1.8928051 -9.347032 2.2027936 -2.2813103 2.841007 -45.744102 -8.174877 -42.843655
